vballnet_v3c_improved.onnx (onnx, 150256 bytes, 23 tensors)

enc1.0.0.weight f4 [11, 1, 3, 3]
00000000: 9adb 91bd 9a64 c3bb fb37 753c 3b78 3cbd
00000010: 6c30 8f3c 8a49 513d e543 cd3d df4e 503d
00000020: 1507 0dbe eb9c bc3d 4b15 ed3d 6239 04be
00000030: 8586 b03c cd78 343d df0b 02be 0718 f5bc
00000040: 73d0 343d b059 393e 5efc aa3d a1f4 603e
00000050: f9c6 babe c5ef d43e 7f91 57be 4877 8dbe
00000060: 299f 313e e824 a9bb a606 2ebd 8578 aabd
00000070: 407e 80be 1a27 40bc d7a0 ca3d d482 00bd
00000080: 4e74 bbbc 113a 5b3c 7776 8f3d 4751 483d
00000090: 6316 5fbc b8e8 d03b 39c8 8abe b84f 773d
000000a0: e1ae 023e 4d98 973d 6b4c 523d 7043 03be
000000b0: f9a5 b1bd b14a a6bc 1e3b 113d 884b ab3d
000000c0: c408 80be 6eed 37be 31f0 85be 8809 61bd
000000d0: e411 fe3d 9986 10be 455d 2f3e fda6 3cbc
000000e0: 2e4e 6abd f3cc e2bd afa6 083e 5101 17be
000000f0: 1be1 283e 51a6 933b b1a1 09bd ed1c d03d
00000100: c90b 78bb 1de8 913d cf84 e3bd 90f2 62bd
00000110: 03ef 6dbd b4dc d4bd 79d8 293d bc20 363d
00000120: aaec 35be d51c afbd 9fe6 42be 31ab 373e
00000130: bc32 0f3e c4a4 ffbd 3f73 abbd 8a61 de3d
00000140: 43d6 473e da10 29bd e205 e9bd 79f2 0f3d
00000150: db9d 6e3c 5542 8c3e e87f 073e 715a 733c
00000160: 62c5 25be 280f 0a3e ee6c c23d 4c25 913d
00000170: b2c0 c8bd 283d 92be 97db bc3d e496 83bd
00000180: 4f25 0f3d a941 9f3b 9eba f83c
-0.07121964 -0.0059629204 0.01496696 -0.0460131 0.017479144 0.051095523 0.100227155 0.050856467
-0.13772233 0.09209617 0.11576327 -0.12912515 0.021548519 0.044060517 -0.12699841 -0.029918684
0.044144105 0.1810062 0.083489165 0.21968319 -0.3647993 0.4158918 -0.21051596 -0.27630067
0.17345871 -0.0051618703 -0.04248681 -0.083237685 -0.2509632 -0.011728073 0.09893959 -0.031374767
-0.022882607 0.013380543 0.07005017 0.048905637 -0.013616177 0.0063753985 -0.27105883 0.06037876
0.12762024 0.07402096 0.05134241 -0.12818694 -0.08674235 -0.020299288 0.03545677 0.08364016
-0.25006688 -0.17961666 -0.26159814 -0.05494073 0.12405756 -0.14113845 0.17125423 -0.0115144225
-0.057203464 -0.11074247 0.13344835 -0.14746596 0.16492121 0.0045059104 -0.033601467 0.10161767
-0.0037848821 0.0712435 -0.111093156 -0.055407107 -0.058089267 -0.10393658 0.04146621 0.04446481
-0.17766061 -0.08550421 -0.19033287 0.17936398 0.13984197 -0.124825984 -0.08371591 0.10858448
0.19515328 -0.041275837 -0.11378075 0.03514335 0.014564003 0.27394357 0.13232386 0.014853106
-0.16188577 0.13482344 0.09493433 0.07087192 -0.09802379 -0.28562284 0.09221571 -0.064252645
0.03494769 0.004860122 0.030362424

enc1.1.0.weight f4 [32, 1, 3, 3]
00000000: 9e81 163e bf5b 163e dade 2c3d e6ef 063d
00000010: 7404 d83d 4feb 10be 1425 8f3d 5c57 9e3c
00000020: ff29 623d 6409 a53b 5ae8 2a3d 4e40 5d3d
00000030: 32f2 bcbc 6458 dcbd 1bd9 e4bd 0958 003d
00000040: 3ad8 3c3d 5b67 f1bd ecb9 283e 8a47 85bd
00000050: e00a 073d b762 89bd 070c 57bc 5e51 1c3d
00000060: 872c ed3c d84e 06bd fb27 cf3c 7116 1539
00000070: 7f70 353d fa36 f5bd ca0b 58bd 6c6c ecbd
00000080: d680 593c 32e1 a2bd 690b 86bc 8e9d b1bd
00000090: 0ee8 2fbb 612a 0ebd 5f9e 653d 580e 36be
000000a0: f6af edbd c0c8 d6bb fc0d a6b8 d02f 4d3b
000000b0: 2cac 123d 32a0 47bd 8379 f03c 328e 853d
000000c0: f0ee cbbd a059 873d abdd e8bc 3c40 0a3d
000000d0: eac3 373d f060 82bd 0e44 d9bd 8c11 a93d
000000e0: e080 cc3d a435 d1bc 0802 083d 4c06 82bd
000000f0: 1eac 98bd dfde 37bd b009 b1bd ca69 5f3d
00000100: 3484 e3bd b440 603d 3ee1 493c 1a0f 82bd
00000110: de96 86bd 6fce cabc 9845 87bd 1c96 c9bd
00000120: d484 ccbd abcd cf3d b711 a23d 647a b03d
00000130: 25a7 a5bc 9f96 4bbd 88a7 adbd be8f 5c3d
00000140: 02af 24be 1659 80bd dc47 1fba f61d 76bd
00000150: 2981 9bbd 478f 7b3d 5464 ff3c 967c cb3d
00000160: 82b1 53be 03c3 da3c 5e48 8c3d 7a0d c2bd
00000170: dbfc 33bd 4e43 8dbd fccf e83c 6f10 103d
00000180: 71ff a13d deea aa3c 97dc d6bd c6ba c83c
00000190: dc0b 833c f6c6 a2bd eb42 ec3c 0ea6 133e
000001a0: ace0 17bc 6b4d 453d ca14 c9bd d318 7d3d
000001b0: 8fcf fb3b 5854 7bbd 4c66 b6bb 76da 473c
000001c0: d8fd 353e 4aa4 1d3e b007 4d3e d2d9 bebd
000001d0: d712 d13b 47c3 71bd 306d b6bd 191c 173c
000001e0: a48f 18bd 989f 1cbd 2421 5e3d ae27 c9bc
000001f0: eee1 84bd 70c7 c3bc b299 103e 1284 10bd
00000200: 2c08 633d eca9 8ebd a067 173d 8aa0 49bc
00000210: 94ac 0d3d 62a6 1bbe 2eee f83d d73f db3d
00000220: 24ac f0bd 443c f7bd c2b3 d23d b835 623d
00000230: 8ed8 84ba ccff a03d 9c12 f03c caa4 273d
00000240: 9a39 cbbd d08a 37bb 30cc 24bd 184b e13c
00000250: 47b4 e73c 61f1 163d bf7d f3bd 87e0 81bc
00000260: 6e9b 713d f0fe b9bd a3af 643d d29b 85bd
00000270: 20b5 0e3d f4de 373e fe54 99bd 67e4 303e
00000280: 08e2 15bc f854 a2bd 8c97 aabc 7ab4 3abb
00000290: 968d b5bd ea17 dd3d b343 fb3c 301c 14bd
000002a0: 9e77 ab3d 2857 d7bd 34da 63be c0cc bcbc
000002b0: 5449 83bc bb69 acbd 8f7c 67bd 8b3b 573d
000002c0: ba06 04bb cc47 0abe 3ec3 86bd 1a4b 833d
000002d0: 6eb9 d6bd 18d7 bebc 422e 2b3c d8bc 88bd
000002e0: 8cda f4bd 0c2c b6bc 0436 ebba 6ccb 883d
000002f0: 2014 26be fee8 35bc 5bc3 d63d 3986 20be
00000300: 5433 703c 7b13 833d 9c35 623c 7a17 3d3e
00000310: 4829 08bd fbec 073e 93a3 bfbb 0619 d9bd
00000320: c212 753d bc29 993c 1219 8fbd 1e81 4a3d
00000330: 831e 683d f48f debd 8442 82bc cb04 2b3c
00000340: d623 413c 10d4 f3bc 9103 9dbd f235 1b3e
00000350: 4a1d a73d 42ed 783d 2063 f1bd 085c dd3d
00000360: 739a 693d b12b 84bc f840 dd3c a266 4e3c
00000370: 487b 36bc 00f5 0b3e 1ec3 76bc 6b14 d53c
00000380: 38bb 2ebd 8054 4cbd 1677 7c3c e381 e9bc
00000390: 6495 8e3c 8755 963d 2aed 9bbd 3419 443d
000003a0: 1d27 923d 82f9 a23d 5246 db3c 0b8c 37bd
000003b0: 92fa 103d 3605 b8ba 27f4 c33c 62b5 f2bd
000003c0: b7b4 bc3d 4e45 a6bc 75bc 88bd 0c41 783d
000003d0: 8c32 e73d f8f9 a73d dfcf cbbd e724 c03c
000003e0: b452 e4bd ac28 45bd b06c b03d b534 983c
000003f0: c352 e03b cbbd 17bd b4d2 11bd b386 b8bd
0.14697883 0.14683436 0.042204715 0.03294363 0.10547724 -0.14152263 0.06989494 0.019328766
0.05521583 0.00503652 0.041725494 0.054016404 -0.023064706 -0.10759047 -0.11174222 0.031333957
0.046104647 -0.117872916 0.16477174 -0.065077856 0.032969356 -0.067082815 -0.013125426 0.038163535
0.028951896 -0.032790035 0.025287619 0.00014218107 0.044296738 -0.119733766 -0.052745618 -0.11544117
0.013275346 -0.07953109 -0.016362863 -0.08672629 -0.0026841196 -0.034708384 0.056059238 -0.17778909
-0.116058275 -0.006554693 -7.9181016e-05 0.0031309016 0.035808727 -0.04873676 0.029354816 0.06521262
-0.09957683 0.066088915 -0.028426012 0.033752665 0.044864573 -0.063661456 -0.106086835 0.082553
0.099855185 -0.025538273 0.033205062 -0.06348857 -0.07454704 -0.04489028 -0.08644426 0.054544248
-0.111092 0.054749206 0.012321768 -0.06350537 -0.065717444 -0.024756638 -0.06605071 -0.09843084
-0.099862725 0.1014665 0.07913535 0.08617094 -0.020221302 -0.04970419 -0.0847922 0.05384802
-0.16082385 -0.06266992 -0.00060760765 -0.060087167 -0.07592995 0.061415937 0.03117577 0.09935872
-0.20673183 0.026704317 0.068497404 -0.09475227 -0.043942314 -0.06897603 0.028419487 0.035171922
0.0791005 0.020863947 -0.10491293 0.024503123 0.015996866 -0.07948105 0.028840503 0.14418814
-0.009269875 0.048169535 -0.09818418 0.061791252 0.007684655 -0.061359733 -0.005566394 0.012198081
0.17772615 0.15394703 0.20022464 -0.0931889 0.0063804197 -0.05902412 -0.089075446 0.009223008
-0.03724636 -0.038238138 0.054230824 -0.024555054 -0.06488405 -0.02389881 0.1412113 -0.035282202
0.055427715 -0.06966004 0.03696406 -0.012306342 0.03458841 -0.15200189 0.12154804 0.10705536
-0.11751583 -0.12072042 0.10288192 0.05522701 -0.0010135339 0.078612894 0.029305749 0.04092864
-0.09923096 -0.0028006323 -0.04023379 0.027501628 0.028284205 0.03685129 -0.118892185 -0.015854133
0.05898612 -0.090818286 0.055831563 -0.06523861 0.034840703 0.17956144 -0.07486914 0.17274629
-0.009148128 -0.07926363 -0.020824216 -0.002848892 -0.08864896 0.10795577 0.03067193 -0.036159694
0.083724245 -0.105146706 -0.22251207 -0.023046851 -0.016026177 -0.08418604 -0.056515273 0.05254702
-0.002014561 -0.13503951 -0.06580208 0.06410809 -0.10484587 -0.023295924 0.01044804 -0.06676644
-0.11955747 -0.0222378 -0.0017945175 0.06679425 -0.16218615 -0.011102913 0.1048648 -0.15676202
0.014660675 0.064002 0.013806727 0.18465987 -0.033242494 0.13273995 -0.005848357 -0.10600476
0.059832342 0.018696658 -0.06987204 0.049439542 0.056669723 -0.10867301 -0.015900858 0.010438154
0.011788329 -0.029764205 -0.07666696 0.15157297 0.08159883 0.06077314 -0.11786485 0.10808569
0.05703206 -0.016134115 0.027008519 0.012597712 -0.011137791 0.13667679 -0.015061168 0.026010713
-0.042659014 -0.049885273 0.015409252 -0.028504318 0.01740522 0.07340532 -0.07613595 0.047875598
0.071363665 0.07957746 0.02676693 -0.04481129 0.035395212 -0.0014039639 0.023920132 -0.11851002
0.09214156 -0.020296719 -0.0667657 0.06060891 0.11288938 0.08201975 -0.09951758 0.023455096
-0.11148587 -0.04813449 0.086144805 0.01857982 0.0068458035 -0.037046235 -0.035601333 -0.09010067

enc2.0.weight f4 [32, 1, 3, 3]
00000000: ebaf d0bc f023 b73c 20fd 4d3e 9283 a33a
00000010: 7ae8 4e3d ce33 6bbc d002 333d 4c3b 0d3c
00000020: b9cb 8c3d d66b 80bc 4055 623d ee76 323d
00000030: b7a0 693d 6570 223c 7e8b f3b9 3036 d73d
00000040: e7d9 37bd 3822 edbc a6bd b5bd c242 27bd
00000050: 6a46 05be f243 79ba 1494 0cbe a0c4 45bd
00000060: 5401 01be 5e52 c13c 7c7c ddbd 4289 bebd
00000070: 0a40 13be ba15 633d bc80 293c 5783 bf3d
00000080: ef9f df3d 7444 cabd f6be 933d 940c 29be
00000090: 4245 6cbc 56c0 953c e4d9 0abd a7c5 33bd
000000a0: 8710 b1bc 3026 793d 9e4d 6b3d 2e5b 023c
000000b0: 42e5 a83d bfaf 4e3d 538b 373c 2613 1a3e
000000c0: 5936 1fbd 73fc ff3d d400 023d 1d4e 1abd
000000d0: 5671 033e 441a bebc 57a9 bf3d 0cf4 e1bd
000000e0: 6320 72bd 8012 5cbc 56be 363d 1ebb 63bc
000000f0: 6edf 053d e71e 403d 60e0 d8bc b33f d33c
00000100: 565f be3c 0faa 74bd 22f3 983d b426 083d
00000110: fe61 8d3d fe1c a4bd 2462 11bc 3087 8dbd
00000120: 66d2 febb 2792 143d 9a36 4abe 8b29 cd3c
00000130: ca45 8bbd 2233 2abd 33c8 3e3d d75c 2cbe
00000140: 2442 3c3c 97f4 e63c 64b2 ff39 1435 bfbd
00000150: 7eff 153e ef09 f13c ecc2 723d 0042 733d
00000160: 5e55 aabd bfba 0b3d 782b dabd 8095 053e
00000170: 5c41 a03d df0f 93bc 1667 863e 0e48 853d
00000180: 52b9 19be b0f0 6b3c 3c50 f53d 69b3 123d
00000190: e732 b1bd d8a1 47bb 570d 7e3c 9884 00bd
000001a0: 6458 c9bb aa3b 91bd 071f fc3d caaa 64bd
000001b0: 0a52 71bd 8c93 18bd 2832 63bd c030 433b
000001c0: 86a7 213c f023 71bd c2d9 353d ec9e 4fbd
000001d0: b9c4 8f3d 382c 573c 9979 0d3d 83e1 f8bd
000001e0: 820c e23d 30c9 1abd fec3 46bd d329 9cbd
000001f0: c339 bf3d d88d bbbc 8b89 373e 2e21 283d
00000200: 9295 0ebe 7ee9 473d 4c97 a33d 891b a5bd
00000210: 2f95 b53d 348c 133d b817 873d 4c08 6fbd
00000220: e894 3b3e 1f82 323d aa5a a8bd 2026 073e
00000230: c9f1 0dbd f004 093e 5a47 de3d 6710 743d
00000240: 8fc4 52bd 0e4e 393c 747b 5d3d 6830 8bbd
00000250: b1d4 263d b65b ca3c e277 c73d c4ae e7bb
00000260: be52 0ebe f632 d73c 8c2e d13d c0b9 3fbe
00000270: 7e13 343e 04eb c83c 50bc 9f3d 5bf6 61bd
00000280: dc47 d63d ec12 a83d f49b a03d c225 a23d
00000290: 4e5e d1bd 106b c53d 3b7f 18bd 17d1 353c
000002a0: 8f73 fa3d 4751 473c e68f a8bc d572 223c
000002b0: d683 11be 932b 30bd 74d7 cdbd 1340 18be
000002c0: cf4b de3c ffc6 3d3e 4602 67bd 8e92 143c
000002d0: c219 64bd 56d0 1abd d776 5dbe 14e9 66be
000002e0: 9411 d0bc 9f68 63bd d20c 46bd 4ed1 f2bd
000002f0: 654b 0abe 6e32 af3d fc20 203e b4cf 71bc
00000300: 9bf1 733c dbfa 63bd f384 c5bd 74ae 353c
00000310: a4d9 793b ff6b 0b3e 378d 233c c4d4 d53c
00000320: d0af 833c a0ff 98bd 82f8 553d 06d6 583d
00000330: 32cb 913d e0c3 083d 309b c9bc 6714 cb3c
00000340: 1edd cbbd bfbe 7bbd 744b 0c3d 9f64 7e3d
00000350: 1c81 73bd b4fd 223e 826a dfbc 0bfd e8bc
00000360: d737 fdbc b6d6 be3c d816 67bd cbe9 17be
00000370: 56c9 473d cca9 6fbd ce63 2ebe c6ea 1e3e
00000380: f46a ef3d 0d8c 873b 9982 813c cbd8 d73c
00000390: 2acb cd3c 9776 0abe e099 943d 0c8a a1bd
000003a0: 9ccf 2ebd c237 a0bb 58e2 46bc aafc 683d
000003b0: e421 683d a021 003d 9878 2f3d a04f ab3d
000003c0: ce2c 15be c219 b5bc 6429 17be 88a8 1c3d
000003d0: 2ea6 59bd 63af 70bd c0ee ba3a 6c8f 9a3b
000003e0: 67b8 44bc 8a89 803d f406 30be 68c3 20bd
000003f0: 3fe4 1dbd 42b1 6ebe d624 d13c b8f8 a4bd
-0.02547451 0.022356004 0.20116091 0.0012475124 0.050514676 -0.014355613 0.043703854 0.0086200945
0.068747945 -0.01567642 0.055257082 0.04357045 0.057038035 0.009914492 -0.00046452502 0.10508382
-0.044885542 -0.02894698 -0.08874063 -0.04083515 -0.13015142 -0.0009508721 -0.13728362 -0.04828322
-0.12598163 0.023598846 -0.10814759 -0.093035236 -0.14379898 0.055440642 0.010345634 0.09351223
0.10919177 -0.09876338 0.07214157 -0.16508704 -0.014420809 0.01828019 -0.033899203 -0.043889668
-0.021614326 0.060827434 0.05744707 0.007956309 0.082468525 0.050460573 0.011202651 0.15046367
-0.03887019 0.12499323 0.03173907 -0.03767215 0.12836203 -0.023205884 0.09358471 -0.11032876
-0.059112918 -0.013432145 0.044615112 -0.013899593 0.032683782 0.04690447 -0.026474178 0.02578721
0.02323882 -0.059732493 0.07468249 0.033240035 0.06903456 -0.08013342 -0.008873496 -0.069105506
-0.0077765463 0.036272194 -0.19747391 0.025044223 -0.068004206 -0.04155267 0.046577644 -0.1683229
0.0114903785 0.028192801 0.00048770302 -0.09336296 0.14648244 0.029423682 0.059267923 0.059389114
-0.08317064 0.03411364 -0.10652822 0.13045311 0.07824966 -0.017951904 0.26250523 0.06507884
-0.150121 0.014400646 0.11978194 0.03581563 -0.08652287 -0.0030461457 0.01550611 -0.03137645
-0.00614457 -0.07091458 0.123106055 -0.05582694 -0.05891613 -0.037250087 -0.055467755 0.0029783696
0.009866601 -0.058872163 0.044397123 -0.05068867 0.07019944 0.013133101 0.034539793 -0.12152388
0.11037542 -0.037789524 -0.048526756 -0.07625165 0.09337189 -0.022894785 0.17923562 0.041047268
-0.13924244 0.04880666 0.07987842 -0.080618925 0.08866345 0.03602238 0.06596321 -0.058357522
0.18318522 0.043581124 -0.08220418 0.13198137 -0.034654412 0.1338079 0.10853453 0.059585955
-0.051456984 0.011310114 0.054072812 -0.06796342 0.040730182 0.024701934 0.09739663 -0.0070703942
-0.13898751 0.026269417 0.10213956 -0.18723202 0.1758556 0.024526127 0.0779959 -0.055166584
0.10462925 0.08206734 0.07842246 0.07917358 -0.10223065 0.09639561 -0.03723071 0.011097214
0.12229072 0.012165374 -0.020576429 0.009915073 -0.14210448 -0.043010306 -0.1005086 -0.14868192
0.027135758 0.18532942 -0.056398652 0.0090681445 -0.055688627 -0.03779634 -0.21627365 -0.2254985
-0.025399007 -0.055519696 -0.04835207 -0.11856328 -0.13505323 0.085545406 0.15637583 -0.014758993
0.014889146 -0.055659156 -0.09644499 0.011088956 0.0038124109 0.13615416 0.009982399 0.026102431
0.016075045 -0.074706316 0.05223895 0.052938484 0.071188346 0.033389926 -0.024610132 0.024790002
-0.09954284 -0.061461207 0.034251645 0.06210768 -0.0594493 0.15917093 -0.027272467 -0.028440973
-0.030910416 0.023295742 -0.05641827 -0.14835279 0.048775993 -0.05851154 -0.1703026 0.15519246
0.116903216 0.0041365684 0.015809344 0.026348492 0.02512129 -0.13521801 0.07255912 -0.078876585
-0.04267846 -0.0048894593 -0.0121389255 0.056881584 0.056672946 0.031282067 0.042839617 0.08364797
-0.14567873 -0.022107009 -0.14761883 0.03824666 -0.053136997 -0.05876101 0.0014261827 0.0047168043
-0.012006856 0.062762335 -0.17190152 -0.039248854 -0.03854775 -0.23309806 0.02553026 -0.08055252

enc3.0.weight f4 [64, 1, 3, 3]
00000000: e33f ca3a 3f24 67bd 2096 983d f289 b33d
00000010: 240f 3ebc 16bf 003e 21b0 123d 9e86 febc
00000020: 5f82 69bc 4dde c4bc 4f36 603d 1e57 ccba
00000030: 9745 00bd a6ce b43d a2ee 143d 54a6 fcbb
00000040: 59b5 0c3d 0d34 2abd 7482 a2bd a9a0 1b3d
00000050: 101c ddbc bb15 753d 3c32 54bd 4df4 173a
00000060: 5835 ee3d 9c47 77bd 0bf1 50bd b7ab cbbd
00000070: c1f6 0ebd 5370 30bc add8 ad3c 6f6e 8ebd
00000080: 1918 f5bc ab03 843c c93e 8e3d eaa7 a5bc
00000090: c234 853d c1cf a9bd b4a9 22be 4649 403d
000000a0: 4713 b83c 1287 4f3c 27c8 203d 5223 183e
000000b0: 5f48 28bd 1d1f 6dbb 2432 013b 8b27 90bd
000000c0: 7dab 39bc 7f0e 3ebd f97e 20bd a620 3cbd
000000d0: 9848 ad3d b4df 513b d314 e4bd 455d f3bc
000000e0: 10b5 2f3d a9f5 e43d c662 05bb 3b4d 69bd
000000f0: fa14 893c ed83 91b9 72f9 3abe 3035 54bd
00000100: f5e1 6dbc e43e 8abd ae6d a9b9 4783 013d
00000110: e53b 2fbd 9b23 5fbd fd30 07be f43a a1bd
00000120: 0ebd 1b3d 611c ad3d 8790 c73c e763 663d
00000130: ea7a 363d b1ed fe3b 4ffa 0d3b 8e0c 173c
00000140: 0f43 5b3b 60cb 63bb b8bf a2bb a4df 8bbc
00000150: 1057 d93c 270f 853d e47a 55bc 350f 273b
00000160: c690 453c 1931 ef3c 73b1 d63d 6afd 8e3d
00000170: 0930 563d cdc7 eebc f9e0 f03b da80 7fbd
00000180: dd3c 7e3d dd32 c03d b036 1f3c e7e9 463d
00000190: e2c7 ccbd 00ac 75bd 633d 00bd 554f d9bc
000001a0: 698e e2bc fab0 583c e0ce 4dbb 6876 28bd
000001b0: c489 8f3d 4330 1bbd f62b 9b3c 2750 403d
000001c0: 7439 2ebd e523 f83d ef52 db3d a64d d83d
000001d0: 0bc8 113d 85b3 7fbd a8e1 91bd c3e1 573d
000001e0: 3d4b 9e3d 9bc3 95bd c9c5 063c 0a87 0bbd
000001f0: 8c36 933d 109b 483d bdb5 523d c1ce b33d
00000200: e5a8 81bd b528 b2bc be1a 153d ecd3 c4bd
00000210: 18ab b43d 641b c9bc 6752 bcbd 219a 2c3e
00000220: 5cdd 313d e4ce 6e3d 3845 b6bd 4344 bc3c
00000230: c3fe 68bd 0e80 a63b cf5e 7dbc 699d c63d
00000240: 9b58 9f3d a544 1c3e 64b1 85bc 0993 c53b
00000250: 15a8 3e3b afb4 09be 6d11 a5bd a23b 1fbd
00000260: 510c 573c 09e9 563c 8c8f 003e eb29 98bd
00000270: 1ae1 cf3d 76f7 ebbd 2c31 db3c 21bc 7b3d
00000280: 9200 7c3d 0a46 953b 4708 2dbc 736b 10ba
00000290: 33ed 103d 2061 bc3d 2834 943d bc53 973c
000002a0: 9b03 8cbd b330 c13d 461c 2dba 8c65 32bc
000002b0: f332 0e3c f09f b03c 9999 4a3d 3068 303c
000002c0: 95ac 99bd c195 4c3d 2215 093d 8d59 073c
000002d0: 16f5 383d 0bd8 c7bc 4638 4a3d a181 023e
000002e0: 96d7 003d eec9 513d 5175 ba3d 42ee a039
000002f0: 5ff5 973d 397e b53b 6236 a13c 8b5d 6cbc
00000300: de6b 4f3b c343 83bd 4b1e c03d 504a 413b
00000310: 6346 c43d e25b 783d 4e11 303d b287 ad3d
00000320: 4acd 833b 9f50 9dbd fd46 e43c 9177 7a3b
00000330: 7b27 83bc 74be 49bc 58c3 993d 1092 91bd
00000340: 15bc 08bc 1bb1 42bc dd98 33bd 60e6 723d
00000350: 77fc 883c f582 0abd 8814 6abd f0c9 b73d
00000360: 04d8 f13d 8a46 0fbd be73 50bb 84b7 34bd
00000370: e16e 803d 33f7 ecbb 3e2f 2d3d e839 0b3d
00000380: 62ff c33b 55cc c1bc 9b43 593b 8a40 81bd
00000390: 9330 8f3d 8101 4c3c bc5e 96bd 8140 0ebe
000003a0: 8956 95bc 219c 193d 36ec 4cba 028b 4bbd
000003b0: 4142 c1bc 364e 09bd 94ed 6dbd 522a 063d
000003c0: b116 6c3c e562 873d 3e71 2e3a f405 40bd
000003d0: 13e5 333c bb68 d9bb abc8 d8bc cdd6 843c
000003e0: 5116 1abd 5f60 97bc 58ff e8bb ce7c 3b3d
000003f0: 12bc 2e3d 78c8 573d 20f0 d23c 0b07 343d
0.0015430417 -0.05643105 0.07450509 0.08766545 -0.0116002895 0.12572894 0.0358125 -0.03107005
-0.014252274 -0.024031783 0.054739293 -0.0015589928 -0.031316366 0.088284776 0.03636039 -0.0077102575
0.034352634 -0.041553546 -0.07935038 0.037995014 -0.02699092 0.059835177 -0.05180572 0.00057965965
0.11631268 -0.060371026 -0.051011126 -0.099448614 -0.03490329 -0.010768968 0.021221483 -0.06954657
-0.029918717 0.01611503 0.06945569 -0.02022167 0.065042034 -0.08291579 -0.15885049 0.04694488
0.02247013 0.012666481 0.03925338 0.14857224 -0.041084643 -0.0036181875 0.0019713724 -0.07038792
-0.01133239 -0.046400543 -0.03918359 -0.045929573 0.08461112 0.0032024207 -0.111367844 -0.02970756
0.042897284 0.111796685 -0.0020353063 -0.05695842 0.016733635 -0.00027754848 -0.18259218 -0.051808536
-0.014519204 -0.06750277 -0.0003231591 0.031619336 -0.04278173 -0.054477315 -0.13202281 -0.078725725
0.038022093 0.084526785 0.024360908 0.056247618 0.044550814 0.0077798 0.0021664088 0.009219302
0.0033456718 -0.0034758672 -0.0049667023 -0.017074414 0.026530772 0.06497031 -0.013029788 0.0025491242
0.012058442 0.029198216 0.104830645 0.06981929 0.052291904 -0.029148007 0.0073510376 -0.06237874
0.062069762 0.093847014 0.009717628 0.04856291 -0.09999062 -0.059978485 -0.031308543 -0.026527086
-0.027655797 0.013225788 -0.0031403825 -0.041128546 0.070086986 -0.037887823 0.01894186 0.04695144
-0.04253526 0.12116221 0.10709178 0.10561685 0.035591166 -0.062427063 -0.07123119 0.052705538
0.07729194 -0.073126994 0.008225867 -0.03406433 0.07188138 0.048976004 0.05144285 0.087796696
-0.06331042 -0.021747926 0.036402456 -0.096107334 0.08821696 -0.024549194 -0.091954045 0.1685567
0.043423995 0.058302775 -0.08899921 0.022981768 -0.056883585 0.0050811833 -0.015464499 0.09697992
0.07780572 0.15260561 -0.016319938 0.006029491 0.0029091884 -0.13447832 -0.08059964 -0.03887523
0.013125495 0.013117083 0.12554759 -0.0742987 0.101503566 -0.11521809 0.026756845 0.06145871
0.06152398 0.0045554684 -0.0105610555 -0.0005509175 0.03538246 0.091982126 0.072365105 0.018472545
-0.06836625 0.09433117 -0.00066036393 -0.0108884685 0.008679139 0.02156064 0.04946289 0.010767028
-0.075036205 0.049947504 0.03346742 0.008261097 0.045155607 -0.02439501 0.049370073 0.12744762
0.0314556 0.051217966 0.091044076 0.00030695094 0.07419848 0.0055387286 0.019679252 -0.014426599
0.0031649987 -0.06409409 0.09380778 0.0029493757 0.09583738 0.0606345 0.042985253 0.084731475
0.004022275 -0.07681393 0.027865881 0.003821824 -0.016010037 -0.012313474 0.07507962 -0.07107937
-0.0083456235 -0.011883046 -0.043846954 0.059301734 0.016721947 -0.033816297 -0.057148486 0.089740634
0.1180878 -0.03497938 -0.003180727 -0.044120327 0.062711485 -0.007231617 0.04228138 0.03399077
0.0059813717 -0.023657003 0.0033151868 -0.06311138 0.06991687 0.01245153 -0.07342288 -0.13891794
-0.01822974 0.03750241 -0.00078171806 -0.049693115 -0.023591163 -0.033521853 -0.0580879 0.032755204
0.014409707 0.066106595 0.00066544476 -0.046880677 0.0109799085 -0.0066347993 -0.026462873 0.016215706
-0.03761894 -0.01847857 -0.0071105175 0.04577332 0.042659827 0.052681416 0.025749266 0.04395203

dec1.0.weight f4 [192, 1, 3, 3]
00000000: 9944 e33c e0e8 223c 60f8 c2bc f862 4dbd
00000010: c90c 25bd 262f 9d3c 65ba e93c 3000 2bbc
00000020: 2adf 2fb9 ce8c 1b3a aded 893c b414 113d
00000030: f437 fd3c ed55 513d ea04 903d 6ab6 46bd
00000040: 0ec5 653c a0bb eabb 40a2 c13c 4095 933b
00000050: 1004 fa3b 1163 f43b 5da1 e4bc 8581 18bd
00000060: c3eb 883c 79ef 44ba 979c e1bb c69a 7b3c
00000070: f411 9cbc 971b 763d e34b 843d ce5a 82bb
00000080: d0c5 543c 9b76 513b c1e2 dc3c 5e2d e1bc
00000090: 44dd de3c dfaa a43c af62 17bd df52 49bc
000000a0: 8fb2 323a 4410 11bd 49b4 cfbc 9882 2dbd
000000b0: 1f10 f7bc b241 553d c1ff 9d3a acdf 4f3d
000000c0: 7d41 493c 4164 e5bc e985 043d 3893 38bd
000000d0: ec00 503d 5fff 6c3c f391 66bb ee41 be3d
000000e0: 524a 21bd 59a2 f53c f3f8 623c 382d c5b9
000000f0: 4e7e f7bc 7ff7 9d3c 4f94 7c3d 3f8b 94bd
00000100: d5b0 f6bc dbf5 f8bc 5c7b 583d ea87 b93d
00000110: 1bb9 4d3d 7a19 6dbc 748c 023d 9205 15bd
00000120: 8cab 8abc 2a34 3e3d 4d00 823d f26f 00bd
00000130: 7855 6c3d 6d80 4d3d 396b 6bbd 55af 5fbc
00000140: c74d c93c 3b87 2e3b 4c81 273d 0ef6 793c
00000150: bb2b 02bc 5645 27bc 0fc2 93bc ba7b e53c
00000160: 8657 f63c 87a1 703c 14be 27bd 7a1f c23c
00000170: 786e 85bc 7c56 57bb 6652 bcbc 498a 5e3c
00000180: 712f 20bc 3cd6 043d bacc 92bd 1fba 06bd
00000190: e38a 41bc 3ee4 423b 09d8 dcbc c129 06bd
000001a0: c632 a8bd 8979 a33a e88f 29bd 1e1a 3cbd
000001b0: de12 023d 622c cf3a 12b2 db3c 899c 14bd
000001c0: f05e 97bb a820 fb3c 1600 30bc b3bc 09bc
000001d0: 72d0 1b3d 62e5 e5bb 7bc8 093c 74b0 80bc
000001e0: 6d81 2abd 86b6 b9bb b85e 813c bba2 7e3c
000001f0: 5cff 5c3b 707b a23c bf16 a03d 4bff d73a
00000200: 6b50 bfbc fd29 7d3d 23a3 b13c 0e72 b83c
00000210: a026 bcbb 2404 063b 1af0 1dba 3752 cfbb
00000220: 2e93 3e3d 7025 e23c 4122 293c fe66 71b9
00000230: 82ee 423c 55a6 323c ea5c a63c b3e9 fc3c
00000240: ed41 12bd f4a2 1fbd 7834 e3bb ea24 debb
00000250: bd1f d73c 37d2 9e3c dbd3 683d 858e 0fbd
00000260: 7b5d e3bc 6d30 9a3d e248 ab3d 0672 84bb
00000270: 4763 cb3b a164 2f3d 839c 393c 6615 573c
00000280: f826 80bc fed6 353c 0cc5 38bd a787 09bc
00000290: 0d83 49bc a34b 883d a0c2 2e3d fcf2 cfbc
000002a0: 4738 d9bc 04a4 06bc 76ec 133d 45db 30bd
000002b0: ab3d 3c3d 2fae 59bd 3355 9e3c 6686 f1bc
000002c0: ff1f 5fb9 eb1f e03c 6a0a cfbc efc9 2d3b
000002d0: b165 223c 8357 163c 2d3d a1bc ebc1 7dbc
000002e0: 3e33 74bd 242d fe3c c4ec 843d 5957 fa3b
000002f0: 8065 b5bc cedb 99bc 059f 37bd bdc1 433c
00000300: 8bd7 56bd 4d69 273d 246b e8bc 8bcf fe3b
00000310: 5a52 a839 578c 2fbb d906 903c b447 723c
00000320: d27e 9bbc ad89 ba3d b605 403c f528 243d
00000330: 816c 4d3d c6ed e73a 6113 babc ff24 10bd
00000340: e687 833d 3f53 13bc 99d3 093d dd50 2fbb
00000350: 9060 a43b da5b c7bc b917 993b 8cab 643c
00000360: 5767 863c 6f50 cdbb 4c68 c63c 3dd2 063b
00000370: 4f5a 58bb 179c e3bc 24fd 533d bd11 47ba
00000380: 0c5b 86bd 116d ea3b bef6 dd3c 48eb 9fbb
00000390: 1e42 c9bc d6be 30bd a076 42bd 675d c63c
000003a0: b78f 143d 0487 25bd 47cc 4fbb f73e 09bc
000003b0: 4460 673d ca75 4a3d ae6c a4bc a552 65bc
000003c0: 8b2b ef3c b1d2 07bd 81c3 083c a248 13bc
000003d0: 32d4 abba 3c84 be3c da28 aabb a55a 41bd
000003e0: 78ff a33d e4c5 35bd af7c 543d ebd0 533b
000003f0: 4914 ff3c 34ca 17bd 461f b73b e8f0 d8bc
0.02774267 0.009943217 -0.023800075 -0.050143212 -0.040295396 0.019187521 0.028531263 -0.010437056
-0.00016772436 0.00059337623 0.016836965 0.035420135 0.03091047 0.051107336 0.07032187 -0.048513807
0.014024032 -0.00716348 0.023636937 0.004503876 0.007629879 0.0074580987 -0.027908975 -0.037232894
0.016713982 -0.0007512491 -0.006885122 0.015356725 -0.01905153 0.060084905 0.06459787 -0.00397811
0.012986615 0.0031961564 0.026963593 -0.027487453 0.027205117 0.020101009 -0.036959346 -0.012287824
0.00068167684 -0.035415903 -0.025354521 -0.042360872 -0.030159054 0.052064605 0.001205437 0.05075042
0.01228368 -0.028001906 0.03235427 -0.045062274 0.05078213 0.014465182 -0.0035182207 0.09289919
-0.039377518 0.02998464 0.013853299 -0.0003760846 -0.030211594 0.019283054 0.061664876 -0.072531216
-0.030113617 -0.03039067 0.05285202 0.09059127 0.05022536 -0.014471406 0.031872228 -0.036382265
-0.016927503 0.046436466 0.063477136 -0.03135676 0.057698697 0.050171304 -0.057475302 -0.013652642
0.02457322 0.0026630897 0.04089479 0.015256418 -0.0079449965 -0.010209402 -0.01803687 0.028013099
0.030071031 0.014686949 -0.040952757 0.02369665 -0.016288027 -0.0032857945 -0.02298851 0.013582774
-0.009776936 0.032430872 -0.07167955 -0.032892343 -0.011812898 0.0029738094 -0.026958482 -0.032754663
-0.08212809 0.0012472133 -0.041397005 -0.045923345 0.031756274 0.0015806074 0.026818309 -0.036282096
-0.0046194717 0.03065522 -0.010742208 -0.008406806 0.038040586 -0.00701587 0.008409615 -0.01570914
-0.041627336 -0.0056675104 0.015792236 0.015541728 0.0033721542 0.01983425 0.078168385 0.0016479281
-0.023353776 0.06180762 0.021684235 0.022515323 -0.005741909 0.0020449245 -0.00060248526 -0.0063269394
0.04652708 0.027605742 0.010323108 -0.00023021919 0.011897685 0.010903914 0.020307977 0.030873155
-0.035707403 -0.038973764 -0.006933745 -0.006779303 0.026260251 0.019387348 0.056842666 -0.035048027
-0.027754536 0.07528768 0.08363511 -0.004041913 0.006206903 0.042820577 0.011328819 0.01312766
-0.015643582 0.011098621 -0.045109794 -0.008394158 -0.012299311 0.066550516 0.042666078 -0.025384419
-0.026516093 -0.008217815 0.03611418 -0.04317786 0.04595725 -0.05314463 0.019327736 -0.029483031
-0.00021278857 0.02735897 -0.02527352 0.0026518067 0.00991194 0.009176138 -0.019682491 -0.015488128
-0.05961918 0.031027384 0.06490472 0.007639807 -0.022143126 -0.018781569 -0.044829387 0.011948046
-0.05245165 0.040871907 -0.028371401 0.007776206 0.00032104814 -0.002678653 0.01758139 0.014787603
-0.018981371 0.09108291 0.011720112 0.040078122 0.050152306 0.0017694763 -0.022714319 -0.035191532
0.06422405 -0.008992015 0.03364906 -0.002675108 0.005016394 -0.02433579 0.0046720174 0.013956916
0.016406698 -0.006265692 0.024219655 0.002057209 -0.0033012812 -0.02778439 0.051755086 -0.0007593891
-0.065603346 0.007154115 0.027095195 -0.0048803426 -0.02456766 -0.043150745 -0.04747641 0.02421446
0.03626987 -0.040411964 -0.0031707452 -0.008376828 0.05648829 0.04942874 -0.020071354 -0.013996755
0.029195568 -0.033159915 0.008347393 -0.008989485 -0.0013109504 0.023256414 -0.005192858 -0.047205586
0.08007711 -0.044378176 0.05187672 0.003232057 0.031137602 -0.03705807 0.005588445 -0.02648206

dec2.0.weight f4 [96, 1, 3, 3]
00000000: a0c6 183c 2a8e 2bbd 925d 703d 655b 2cbd
00000010: ea71 f63b 8651 3f3d f0af 54bd 9eb9 e23c
00000020: 7d28 a3bc 248d 37bd e934 233d 61cc 8bbd
00000030: 8509 023d b783 f43c f2a4 373d 2320 69bb
00000040: 1ee7 653c a8a9 033d 6add 173c 2e44 323d
00000050: ee87 83bd f698 d9bd d708 1c3d f2a7 ffbc
00000060: 659e 433d 3f41 e83c d5e9 49bc 5895 40bc
00000070: 81fc 843c c5a8 6fbd 4702 4fbd 1c57 ca3c
00000080: cc81 eb3b 600a 76bd bf1b 41bd 6e17 083b
00000090: 8ec1 91bd 5ac7 6dbc 099b 05bd 1717 8bbd
000000a0: f074 803d abdf cdbc b09d e93c e5a5 dd3b
000000b0: ffe9 9dbd ddbf a0bd 149e d5bc e0ba 32bd
000000c0: e600 73bd 4599 adbb 80bf d9bb 828d 533c
000000d0: 3328 f63c 514e 02bd 5df2 383d 5c51 443d
000000e0: c671 783b fc65 2f3c 071d 883c d0c2 debc
000000f0: 5a67 213d a01f 94bb a645 60bb 2d3d 493d
00000100: d503 9f3c d665 883b 1581 a53d 8404 863d
00000110: 60e9 c9bc be33 ce3c 1229 833d 5d02 37ba
00000120: 921e 083d d886 00bd e22a b13c 7760 503c
00000130: 3455 0cbd 5a97 6a3d 410d 1cbd bd16 b93d
00000140: 33cb c53c 79d2 ee3a 4e77 ad3c ba4a 8abb
00000150: b227 133d 8e7d e03d 2869 f3bc a861 433d
00000160: 9d29 423c eb40 9d3d 37bd d9bc 188a ac3a
00000170: dec2 afbc 3c13 1b3d 251a 25bd 427e 623d
00000180: d684 a9bc 5c01 243d 6e11 ea3c 38a6 aabd
00000190: ee68 87bd 4b6b 5c3c 036d 63bc 9071 8dbd
000001a0: e501 e23b 79f0 e4bc 5176 823d c158 19bd
000001b0: e4c2 f23b 90a8 0abd 48f2 23bd d95a 13bd
000001c0: 9b0a 94bc 191a 143d 6cc2 433d 03fd 493c
000001d0: 1e6d 93bc 4c97 96bc 4f75 efbb c589 523c
000001e0: c42e 5abb 9df4 58bc da30 04bd 6059 03bd
000001f0: 0876 a13b 648b 1e3d 4995 8fbc 9083 8f3d
00000200: 2c89 2e3d da03 04bd 8efd 5e3d 71a9 3cbd
00000210: 41b8 f1bd 5282 15bd f8f7 83bc 1509 003d
00000220: 9113 033d cf25 58bd d6b4 88bc 1977 843b
00000230: a112 91bc 21bd fa3c 78ae 8abd c516 30bd
00000240: 8a3b a5b9 7bfd 3c3d 7082 fb3b 6587 42bd
00000250: c120 913b d485 453d f4d0 1dbc 2e16 25bd
00000260: cfc6 033b e71d a2bc c623 bcbc f8ea 91bc
00000270: eaee 83bd 598f 7ebd db8d 0bbd 66aa 52bc
00000280: d012 51bd 7716 a6bc b703 9bbd ae5c 443b
00000290: 270d 8fbc 033d 8f3b 2a50 653d 0f0f 14bc
000002a0: 1eaf 8ebc cec3 fbbd f7c7 32bd 4a33 5d3d
000002b0: df32 b7bb c4fb 0f3c 27fa edbc 8188 8abd
000002c0: ad94 1cbd bf8f b83b 5a4d b53d 6755 0b3d
000002d0: 9868 603c e910 063b 1804 f6bd 7d9a 373c
000002e0: eb7d 3b3d 243f 0abc 13da 1ebd a457 813c
000002f0: 434e f1bc 29d0 6e3d f397 af3d f651 d93b
00000300: 9362 7a3c 98b2 a5bd 4501 903d 042e 94bb
00000310: a964 b9bc 06b4 2e3d ab60 953c 4174 543c
00000320: 61b9 373c 0aae 8f3d a5c2 2fbc fcb2 2d3d
00000330: 0c12 aab6 4783 873c 1135 9abc 323c 97ba
00000340: 6622 47ba 4f53 5bba 3e23 b73c 7212 ba3b
00000350: 4ca3 1f3d 7621 463d dcc6 89bc 3963 eb3a
00000360: 09df 4cbd d4e3 0ebc 3258 f7bc 2c64 9cbd
00000370: e822 9c3b bf1d e8bc f3ef d03d 3257 443d
00000380: 5651 eabd d1f1 ab3d 3103 673d da71 2cbb
00000390: 9047 f5bc 6dfb b4bc c073 19bd 448f 51bd
000003a0: e4b5 c13d 528b 89bb a2cb afbc 7112 193d
000003b0: 6771 7ebd cc34 acbd ac41 91bc 6706 913d
000003c0: dbd3 05bd bc77 b4bc fd2f 493c 3edd febb
000003d0: 66eb 64bc 095f 863d 035a 1fbc 4ae7 113d
000003e0: 85b3 853d 3c5e 1c3d bfe4 093d 599a 8c3c
000003f0: dd8a 62bd 3e44 e2bd 4215 be3c 0c32 dcbd
0.0093247 -0.041883625 0.058682986 -0.042079348 0.007520904 0.046708606 -0.0519256 0.0276764
-0.019916767 -0.044812337 0.03984538 -0.068260916 0.03174736 0.029847963 0.04483504 -0.0035572133
0.014032153 0.03214422 0.009269098 0.043522052 -0.06422411 -0.10624878 0.038094368 -0.031208012
0.04775848 0.028351424 -0.012323816 -0.011754356 0.016233684 -0.05851056 -0.05053928 0.02469974
0.007187104 -0.060068488 -0.0471456 0.0020765918 -0.07116996 -0.014512861 -0.032618556 -0.067915134
0.06272304 -0.025131067 0.028517574 0.006764161 -0.07710647 -0.07849095 -0.026076354 -0.04363525
-0.05932703 -0.005297812 -0.006645143 0.012912156 0.030048465 -0.03181297 0.04515301 0.047929153
0.003790961 0.010705467 0.016615404 -0.027192503 0.039405204 -0.0045203716 -0.0034221201 0.049130607
0.019411007 0.0041625304 0.08081261 0.0654383 -0.024647415 0.025171157 0.06404318 -0.0006981248
0.03323228 -0.031378597 0.021626893 0.0127183115 -0.034260944 0.057273246 -0.038098577 0.0903754
0.024144745 0.0018220685 0.021175053 -0.004220334 0.03592653 0.10961448 -0.029713228 0.047700554
0.011850742 0.07678398 -0.026579482 0.0013163714 -0.021455225 0.03786014 -0.040308136 0.05529619
-0.020693224 0.04004036 0.028572764 -0.08332485 -0.066118106 0.013453315 -0.013880971 -0.06906426
0.0068971985 -0.027946698 0.06370223 -0.037438158 0.0074084867 -0.03385216 -0.04002598 -0.03597531
-0.018071463 0.0361577 0.047792837 0.012328389 -0.017996367 -0.01838269 -0.0073076854 0.01285023
-0.0033292035 -0.013241914 -0.03227315 -0.032067657 0.0049274005 0.038707152 -0.01752724 0.070075154
0.042611286 -0.032230236 0.054441027 -0.04606003 -0.11802722 -0.036501236 -0.016109452 0.03125866
0.03200108 -0.052770432 -0.016687792 0.004042518 -0.017709078 0.030607762 -0.067715585 -0.042990465
-0.00031515612 0.046140175 0.0076754615 -0.047492404 0.0044289534 0.04822333 -0.009632338 -0.040304355
0.0020107513 -0.01978965 -0.022966277 -0.017812237 -0.064420536 -0.062148426 -0.03407083 -0.012858009
-0.05104333 -0.020274384 -0.07569068 0.0029962468 -0.017462326 0.004371287 0.055984654 -0.009036793
-0.017417487 -0.12293206 -0.043647733 0.05400399 -0.005590781 0.008788053 -0.029049946 -0.06764317
-0.038227726 0.0056323702 0.08852644 0.034016993 0.013696812 0.0020456857 -0.120124996 0.0112062665
0.04577438 -0.008437905 -0.03878219 0.01578886 -0.029456263 0.058303986 0.08573904 0.006632085
0.015282291 -0.08090705 0.07031492 -0.004522087 -0.022631006 0.042652152 0.018234571 0.01296717
0.011213631 0.07015617 -0.010727559 0.04240702 -5.0684957e-06 0.01654209 -0.018824132 -0.0011538325
-0.00075963733 -0.0008366601 0.022355672 0.0056784684 0.03897409 0.048371755 -0.016818456 0.0017958648
-0.05001739 -0.008721311 -0.030193422 -0.07636294 0.0047649033 -0.028334497 0.10202017 0.04793472
-0.11441295 0.08395732 0.056399528 -0.0026312978 -0.02994135 -0.022092545 -0.037463903 -0.05116202
0.09458521 -0.0041975165 -0.021459404 0.037371103 -0.062119868 -0.08408508 -0.01773151 0.07081299
-0.032672744 -0.02202975 0.012279508 -0.007777839 -0.013972139 0.06561095 -0.00972605 0.035620965
0.06528381 0.038175806 0.033665415 0.017163442 -0.05530821 -0.110481724 0.023203496 -0.10751733

final_conv.weight f4 [9, 32, 1, 1]
00000000: 1514 fcbe d8a4 25be a58c 6c3f 433c 72bf
00000010: 7798 093f 5d43 9b3f 3f16 2d3f 4663 d0be
00000020: 3128 253f 3bf0 a5bc d74c 103f eab7 693e
00000030: ce7a cbbe d158 d63e 8ff0 ccbe a792 2f3f
00000040: 34ad 60bf 4f2c 4c3f ea27 4dbd fca3 3d3e
00000050: 7d04 15bf b656 a8be 59f3 77bf 275c 7e3e
00000060: 8323 debe 412b 24be 8cc7 4dbe 1d62 babd
00000070: 41ab 30bf d2d2 9c3c 3262 4abf e449 60be
00000080: 9b1d 543f f02c d53e 411a 45be e0a8 52be
00000090: 7093 aa3e a2a0 173e 09a7 60bd 97cc e9be
000000a0: ebb3 4a3f ff98 d4bd d490 5f3f 6408 b1be
000000b0: 3458 173d 1201 803e b7cb c53e 5d41 453f
000000c0: a43c a2bd cc8b 43be 69be 923e a53a 27bf
000000d0: 7012 78be aa00 a2be 75f1 a53d 6cb8 5ebe
000000e0: efd0 9dbe a648 b9be e352 403e 7053 c03b
000000f0: 02dd 913c 9b11 b5be d106 1fbe 774d 043f
00000100: 5e54 aabd 2450 9dbf b5ee 56bd d07b 223e
00000110: cbbe 97bf 93e0 a53f de9a 98be d47e adbd
00000120: 14b5 8c3d 1901 da3d d121 61bd 0003 adbe
00000130: 43e6 80be da22 9abe 23dd 14be cfde 353e
00000140: 4b4e 163f 4f9d 6dbf 1e28 25bf 9aa4 93be
00000150: a9b3 1c3f c1df fabe 51c3 e8be 4f5c 21bf
00000160: 8827 3f3f 1573 80be 30c8 dc3d d7a0 9b3e
00000170: fb80 8f3e dcd6 3a3e 0820 c03e ec78 e3be
00000180: fc0f c5be ebf3 30be cb6b bcbe 5c11 edbe
00000190: 83a2 cd3e 8bcb 0ebf 2f1e c73d 1f0c 55bf
000001a0: f9f5 1e3f c740 4d3d 8138 c9be f4c4 063e
000001b0: e957 dd3d 670b 06bf 8c2e 0cbe b2be 3abf
000001c0: 25db 4ebe 7387 213e f488 d4be b424 adbe
000001d0: a216 1d3f ffb1 c23e d832 003e 5375 47be
000001e0: 5a4b 61bf 8a8a 8bbe 17f1 1dbe 17dc bebe
000001f0: d12c 8cbd b0fb 2b3e ff9d 5abd 72f2 d93e
00000200: 1d36 a23e c422 17be bc08 0d3f f964 5d3e
00000210: 26a5 4d3e ea7c f73e d874 873e 80c5 463e
00000220: c61a fabe 7af8 853e 63a0 933f ce94 3cbf
00000230: 40af f93e ad9d 853e eed3 34be 4ad5 38be
00000240: 46d3 a7be be3f ba3d 81f9 8c3d 6e28 0b3e
00000250: ecc2 303f 4a41 27bf 9224 9ebe 3bf5 fd3e
00000260: 2722 8ebd 884d 1cbe 6a21 b03e ad38 ae3e
00000270: cc45 b03e 91e7 c7bd 5cc9 0e3f e2f0 5cbf
00000280: 1e30 103e 4202 bc3f 32ee a6be a0d6 803d
00000290: f29b 04bf 7603 b4be 212e 10be 1185 1c3f
000002a0: d1bf 5dbc 765d 14bf 50ca 213e 1f0c ab3e
000002b0: 1a49 463e cf50 0ebf abf3 8f3e b7e9 00be
000002c0: feef 3f3e 2f8e 45be 2404 363f d44b a03e
000002d0: 5c36 87be 9273 9cbc de8d efbd 5a28 17bf
000002e0: de76 08bf 4834 77be a198 923c 1daf cbbe
000002f0: 3dac e03e 8ed9 9e3e 916c 61bd b718 183f
00000300: dd83 1f3d 5d8b 3a3e 03b3 e8bd 39c8 44be
00000310: 51d9 9a3e 6ed5 88bd 9148 4e3d cfbf 523f
00000320: 71e3 5c3d a77a bcbe d1c0 0bbf eb6d d4be
00000330: 7997 01bf 808a a0be a75c 6c3e d860 8ebe
00000340: d0ab 223e 22f0 673e d6ef a1be 53be cfbe
00000350: c043 09be 417e 70be 289e ec3d bf56 d63e
00000360: 9bed a6be 67c0 573f 6641 72bf f44c 473f
00000370: bfbb 953f e794 ee3e a19e 8e3f df80 af3e
00000380: 7e34 0c3f b95e 10bf 1c0a 673e 55ce 163e
00000390: b492 e93d 7fd5 863e d527 233f c324 323f
000003a0: 4036 c6be f48b 903f c71f fb3e 1321 0b3e
000003b0: a6fe 25bf 3894 e93e 8a12 bcbe 298f 6abf
000003c0: 5c52 b53e 6cfb 97bf 21fb d73e af7e c4be
000003d0: a135 8a3c d309 73bf 52a1 a93e e5f2 aebd
000003e0: 6006 2d3e 08af 1dbe f8a6 ab3e fe2b 18bf
000003f0: 1b83 883f 0b5c 82bd 49cf 053e 1bab 95be
-0.4923407 -0.16176164 0.92402107 -0.946232 0.5374827 1.2129933 0.6761207 -0.4070074
0.6451445 -0.020256152 0.5636725 0.22824064 -0.3974213 0.41864637 -0.40027282 0.6858315
-0.87764287 0.7975511 -0.050086893 0.18519586 -0.58209974 -0.32878655 -0.96855694 0.24839841
-0.43386468 -0.16032125 -0.20095652 -0.09100745 -0.6901131 0.019143496 -0.79056084 -0.21903187
0.82857674 0.41635847 -0.19248296 -0.20572233 0.3331561 0.1480737 -0.054846797 -0.45663902
0.79180783 -0.10380744 0.87330365 -0.34576714 0.03694935 0.25000817 0.38631985 0.7705286
-0.079217225 -0.19096297 0.28660896 -0.6532386 -0.24225783 -0.31641132 0.08102695 -0.21750039
-0.30823466 -0.3618824 0.18781619 0.0058693215 0.01780558 -0.35364994 -0.15529944 0.516807
-0.08316873 -1.2290082 -0.052473743 0.15867543 -1.18551 1.295916 -0.29805654 -0.08471456
0.068704754 0.106447406 -0.05496389 -0.3379135 -0.25175676 -0.30104715 -0.14537482 0.17760776
0.58713216 -0.9281816 -0.6451434 -0.2883652 0.6121164 -0.48998836 -0.45461515 -0.63031477
0.74669695 -0.250878 0.1078037 0.3039615 0.28028092 0.18246025 0.37524438 -0.44428194
-0.38488758 -0.17280547 -0.3680099 -0.46302307 0.4016305 -0.5577933 0.09722554 -0.8322162
0.62094074 0.050110605 -0.39300922 0.13161069 0.10807783 -0.5236115 -0.13689631 -0.7294723
-0.20200785 0.15774326 -0.41510737 -0.33817065 0.6136266 0.38026425 0.12519395 -0.1947835
-0.880056 -0.27254134 -0.15424 -0.3727729 -0.068444856 0.1679523 -0.053373333 0.42567784
0.3168191 -0.14759356 0.5509145 0.2162055 0.2008253 0.4833749 0.26456332 0.19411278
-0.48848552 0.26166135 1.1533321 -0.7366456 0.48766518 0.2609686 -0.1765897 -0.18050113
-0.32778376 0.09094189 0.068835266 0.13589641 0.6904743 -0.65334 -0.30887276 0.49601158
-0.06940108 -0.15263951 0.34400493 0.34027615 0.3442825 -0.09760965 0.55776 -0.8630506
0.14080855 1.4688189 -0.32603604 0.062909365 -0.51800454 -0.3515889 -0.14080097 0.61140543
-0.013534502 -0.5795511 0.15799832 0.33407685 0.19363824 -0.55592054 0.2811559 -0.12589155
0.18743894 -0.1929252 0.7110007 0.31307852 -0.2640866 -0.019098077 -0.11696981 -0.59045947
-0.53306377 -0.24141037 0.017895045 -0.39782038 0.43881407 0.31025356 -0.055035178 0.5941271
0.038944114 0.18217225 -0.11362269 -0.19217004 0.30243924 -0.066813335 0.050362173 0.82323927
0.053927843 -0.36812326 -0.5459109 -0.4149011 -0.50621754 -0.31355667 0.23082219 -0.2780826
0.15885854 0.22650197 -0.31628293 -0.40574893 -0.13404751 -0.23485662 0.115536034 0.41863057
-0.32603154 0.8427796 -0.9463104 0.77851796 1.169792 0.46597978 1.114216 0.34278008
0.54767597 -0.56394535 0.2256245 0.14727147 0.114049345 0.2633476 0.63732654 0.69587344
-0.38713264 1.129271 0.49047682 0.13586836 -0.6484169 0.45620894 -0.36732894 -0.91624695
0.35414398 -1.1873603 0.42183784 -0.38377902 0.016871275 -0.94936866 0.3313089 -0.08542422
0.16896963 -0.153988 0.33525825 -0.59442127 1.066501 -0.06365212 0.13067354 -0.29232106

final_conv.bias f4 [9]
00000000: 0000 0000 0000 0000 0000 0000 0000 0000
00000010: 0000 0000 0000 0000 0000 0000 0000 0000
00000020: 0000 0000
0.0 0.0 0.0 0.0 0.0 0.0 0.0 0.0
0.0

fusion.att_proj.weight f4 [9, 9, 1, 1]
00000000: 49eb c23d 288b fc3d 5529 4b3f 6575 8a3e
00000010: 2708 b43e 6ac7 bd3e 98ce afbe 728e c43e
00000020: cc4b d0be 1d44 0d3f 7b73 19be bbbe 90be
00000030: 5f82 763c ee0f 49be a772 963e 5d07 c3bd
00000040: 330f 22bc dc30 de3e f279 013f ba30 0a3f
00000050: 0100 783d b555 81bd c34e 653f f08a 613c
00000060: c89b 183f ebae 313f ddd5 443e c106 423f
00000070: 231c ccbd aaff 16be 4fdd f0be b82f f5bc
00000080: 7ebb 8c3e 9d93 a63d 0aef c23e b0e4 e1be
00000090: 1627 183f b004 3dbe 0f18 3bbe f011 e53e
000000a0: 1ab9 0ebe 3c40 403d 5ad0 663f b9ff 053e
000000b0: 2599 49be 7d53 f0be 5a20 ae3c 492c e83d
000000c0: c94b 823e 5e69 383f 11c3 693e 8446 cabd
000000d0: 24ff b63e 910c 7bbe 143b 133f cc8d 183f
000000e0: fb2f fabd 7548 7f3e b7e0 8bbe 69e7 97bd
000000f0: d3b7 163e 58a0 a33f 0da7 483e efa4 403f
00000100: 3538 373f da70 cb3e 74d2 99be be69 83be
00000110: b877 0cbe 100a d2bc 389c e3bd 6378 7fbe
00000120: 960c b83c 8e78 133f 2b1b 243f 00bf 993f
00000130: c537 fdbd 6b2f b9bb 398b 8fbd 2288 a1bd
00000140: 9026 88be
0.09517533 0.123312294 0.7935994 0.2704269 0.3516247 0.37066203 -0.34337306 0.38389927
-0.40682828 0.5518206 -0.14985459 -0.28270516 0.015045731 -0.19634983 0.29384348 -0.09522889
-0.009891319 0.43396652 0.505767 0.539806 0.06054688 -0.063151754 0.89573306 0.013766035
0.59612703 0.6940753 0.19222207 0.75791556 -0.09966304 -0.14745966 -0.47043845 -0.02992998
0.27486795 0.08133624 0.38072997 -0.44119787 0.5943464 -0.1845882 -0.18270896 0.44740248
-0.13937798 0.04693626 0.9016167 0.13085832 -0.19687326 -0.46938697 0.02125566 0.11336572
0.25448444 0.7203578 0.22828318 -0.09876731 0.35741532 -0.24516512 0.5751202 0.59591365
-0.12216183 0.24929984 -0.2731988 -0.07417185 0.14718561 1.2783308 0.19594975 0.7525167
0.7157014 0.39734536 -0.30043375 -0.25666612 -0.13717544 -0.025639564 -0.11113781 -0.24948268
0.022466939 0.57605827 0.64103955 1.2011414 -0.12364153 -0.0056514046 -0.070089765 -0.078872934
-0.2659192

onnx::Conv_262 f4 [10, 1, 3, 3, 3]
00000000: 4bda 8e3d b579 a03d 5775 543c 0e29 b83c
00000010: 9ac3 48bc c7ff b6bd fea5 6ebd 3fc4 e9bd
00000020: 6c93 5f3b bcfb 3ebd f2da 2fbd db46 18be
00000030: cb2d 753c c057 74be 8946 47be bccd 253d
00000040: 89fd 913d 612e 07bc 9f18 a23b 2969 5fbd
00000050: 9be2 c6bd 4283 01bd ec8a aebd e0b8 58be
00000060: 4a5d 0dbe eb75 0ebe 416c 99bd 197c c33d
00000070: 44f8 873d f146 503b 4441 833d 1d63 713d
00000080: c3b8 263c b541 bfbd 9ec5 09bc 135d 883c
00000090: 5f50 acbc 4c19 1d3e a359 69bd 9d42 c1bd
000000a0: 3c7d 24bc 4419 56bd facb a53d bf0c 173e
000000b0: 67b1 b23d 4c9f 5238 6dfa 183b 5bc4 4bbe
000000c0: de28 96bd 9074 7dbc 1f8f 693d 8d83 a4bc
000000d0: 7456 27bd 4914 3f3e 0ba0 67bd 51fe 9b3d
000000e0: ec35 863d 73c4 063e 7b72 34bb 8b9f 8dbd
000000f0: aed3 583b f584 4dbe e5b8 80bd 73ff 34be
00000100: 2b1c fb3d eee3 193d 82e1 5c3e c0da 01be
00000110: e5ae eabb 78b7 943d 0a3f 763d cfa3 0a3c
00000120: 17b4 d33d 58fc ddbd e4c3 65bd 48bf d9bd
00000130: 852c 6cbd 1b6a 0c3c 5d20 87bd 747b 5ebd
00000140: d896 f7bd 8587 0dbe 893e edbc 8dcc d4bd
00000150: 7f5f 153d 537a b5bd c20d b53d beaa ca3d
00000160: 96b1 053e ddf6 27be 4bef 203d 34bc 6abd
00000170: af48 0c3c a214 8b3d c306 09be 4957 893d
00000180: 497b 1dbd 931c 3ebe 2123 d43d eae2 a5bd
00000190: d460 253e 3945 f9bc 4cc7 14be db5b a9bc
000001a0: 9d96 1c3d 5924 6f3d 2a8d 09bd bbb2 903d
000001b0: b157 41be c42f ffbc c30c eabd 869f 563d
000001c0: 0086 9abc dedb 163e 927a 21be 0183 293e
000001d0: ee52 eb3d 811f ed3c e8b2 d5bc 55ab 373c
000001e0: e8b3 1f3d c473 e13d 66e0 35bc 5c0c eb3c
000001f0: 095b cebd beed 173d 6127 8b3d 4508 3d3d
00000200: 496d a03c 38c6 a73c b45f b53d 9d48 2dbe
00000210: 7c0e a0bc bb94 4e3c f06b 0cbe e353 a73c
00000220: a83b 283d 3328 733d 3fe2 a1bd 3046 47bd
00000230: 0d32 40bd 7bda e9bc 3401 0b3d d9fd 34bc
00000240: b1a5 023e 6f07 ff3d e24c 9a3d a822 0dbe
00000250: 2db2 083e b50c b83c b6ce fdbd 1a72 bbbd
00000260: 63ef fcbc 929a 843c 5757 a93d 2476 c13d
00000270: 3f6a f83d 4949 d93c 1aea aebd d5cb 0ebe
00000280: cd0c 12be b349 1dbd cfcd 63be b0a3 403d
00000290: d06c 1dbe d8f0 513d f11f 813d 5799 9f3c
000002a0: 37c2 c43c cfea 2a3d 23dd d0bc 0742 53bd
000002b0: 61f3 abbd 3951 513d 9942 333c 391b 993d
000002c0: b1b5 8f3d 9811 95bd 9285 1fbd 8e45 c3bd
000002d0: f2b8 983d a5f6 6d3c ed80 fbbd 4668 f9bd
000002e0: a551 03be ee1b c4bd 1cab b23b 0bd0 743d
000002f0: 5f15 1a3e 65c6 01be bb0a dc3c 01b3 913a
00000300: 0615 b93c b517 db3d 0cee 9e3b 3bd1 173c
00000310: 27c9 10bd bd94 153e f343 03bc 5e7c 663d
00000320: 0ae9 62bd 24c9 c7bc 0e2b 85bd 4253 efbc
00000330: ed96 6e3d 4f05 01be 24c3 78bd b678 be3d
00000340: 9288 a0bd 122a dfbb e4c9 883c 52ff e93d
00000350: 3aff 873d ab1d d6bd 22af 1a3d 6685 173d
00000360: d3f4 51bd 935e 4cbe b226 8a3d 305e e2bc
00000370: a19c abbc 2e0c 83bd 6b02 45bd f091 a8bd
00000380: 2a02 823e 1c23 6d3d c6b1 38bd 6ee4 e6bd
00000390: 21b9 0d3d a995 203e d2a6 3f3d b4f6 4dbb
000003a0: f059 bdbc 9f38 293e a921 1cbd 5543 793d
000003b0: 2450 a33c 9a25 8a3d eab8 bebb d79a 843d
000003c0: 702b 7cbe 74c3 55be d595 aebd a21b 9abd
000003d0: 64e7 b63c 637e c83d 9af4 a93d 59cd ba3a
000003e0: d5f8 0b3d 99c4 afbd ed50 46bd 7ff3 ec3d
000003f0: ff11 813b b26d 04be 8c48 3fbd e5e7 b1bd
0.0697523 0.07835714 0.012967429 0.022480514 -0.012253666 -0.089355044 -0.05826377 -0.11414384
0.003411497 -0.04662679 -0.042933412 -0.14870779 0.014964531 -0.23861599 -0.19460501 0.040479407
0.07128436 -0.008250804 0.0049467827 -0.054543648 -0.0971119 -0.031619318 -0.08522591 -0.21164274
-0.13805118 -0.1391217 -0.07491351 0.09545154 0.0663915 0.0031780566 0.06408933 0.058932412
0.010175887 -0.093387045 -0.008408932 0.016645944 -0.021034418 0.15341681 -0.05697025 -0.094365336
-0.010039624 -0.05227019 0.08095546 0.14750956 0.08725243 5.021626e-05 0.0023342625 -0.19899122
-0.073320135 -0.015469685 0.057021257 -0.02008226 -0.040853932 0.18660082 -0.056549113 0.076168664
0.065532535 0.13160877 -0.0027534056 -0.06915196 0.0033085155 -0.2007025 -0.06285266 -0.17675571
0.12261232 0.037570886 0.215704 -0.12681103 -0.0071619623 0.072615564 0.060118712 0.008461907
0.10337084 -0.108391464 -0.05609502 -0.10632187 -0.057659645 0.008570219 -0.0659797 -0.054316953
-0.12089318 -0.13821228 -0.028960483 -0.103905775 0.036468025 -0.08861222 0.08840515 0.09895848
0.13056025 -0.16402765 0.039290708 -0.05730839 0.008562251 0.06791045 -0.13381486 0.067061014
-0.038447652 -0.18565588 0.10358263 -0.08099921 0.16150218 -0.030428516 -0.1452915 -0.020673683
0.038229574 0.058384273 -0.03358189 0.0706534 -0.18881108 -0.031150706 -0.11428215 0.052398227
-0.018862724 0.1473231 -0.15769413 0.1655388 0.11490427 0.028945686 -0.026086286 0.011210282
0.03898993 0.11008409 -0.011100864 0.028692417 -0.10075957 0.037091963 0.0679462 0.046150465
0.019583361 0.02048026 0.088561445 -0.16922231 -0.019538157 0.012608702 -0.1371305 0.020425742
0.041072518 0.05936451 -0.07904481 -0.04865092 -0.046922732 -0.028546562 0.033936694 -0.01104685
0.12758519 0.1245259 0.075341955 -0.13782752 0.13349219 0.022466997 -0.123929426 -0.091526225
-0.030875867 0.016186986 0.08268612 0.09446362 0.1212964 0.026524203 -0.08540745 -0.13944943
-0.14262696 -0.038400363 -0.22246478 0.047031105 -0.1537354 0.051255077 0.063049205 0.019482298
0.02401839 0.041727837 -0.025496071 -0.05157664 -0.0839603 0.05110285 0.010941171 0.074758954
0.07017077 -0.07278746 -0.038945742 -0.09534751 0.074571505 0.014524137 -0.1228045 -0.12178092
-0.12824114 -0.0957564 0.0054525267 0.059768718 0.15047215 -0.12673338 0.026860585 0.0011115969
0.022593033 0.10697881 0.0048501547 0.009266193 -0.035348084 0.1460752 -0.008011806 0.05627095
-0.055398025 -0.024387904 -0.06502353 -0.029214505 0.058249403 -0.12599681 -0.060732976 0.093003675
-0.07838549 -0.006810435 0.016697831 0.114256516 0.066404775 -0.104548775 0.037764676 0.036992453
-0.051258873 -0.19957952 0.06745662 -0.027632803 -0.02094871 -0.063988075 -0.04809801 -0.0823096
0.25392276 0.05789481 -0.045091413 -0.11274038 0.03460038 0.15682091 0.04678995 -0.0031427564
-0.023114175 0.16525505 -0.03811804 0.06085523 0.019935675 0.06745453 -0.0058203833 0.06474846
-0.24625945 -0.2087534 -0.08524672 -0.07524802 0.022327133 0.09789731 0.08298607 0.0014251872
0.03417285 -0.0858242 -0.04841702 0.11569881 0.003938913 -0.1293247 -0.046700045 -0.086868085

onnx::Conv_263 f4 [10]
00000000: 8018 1fb8 9da6 f637 b3d2 3fb6 d2c3 94b7
00000010: 03c1 2d36 c7c6 40b6 81dd 94b7 8f95 50b5
00000020: be30 8bb5 d784 3f35
-3.793137e-05 2.940307e-05 -2.858386e-06 -1.773416e-05 2.5891356e-06 -2.8725933e-06 -1.774612e-05 -7.7703675e-07
-1.0370493e-06 7.134635e-07
