vball_net_v3c_enhanced.onnx (onnx, 190557 bytes, 42 tensors)

temporal_ca.mlp.0.weight f4 [8, 10]
00000000: b261 9abe ef5f 97be 7a93 3a3e d619 3dbe
00000010: e182 cebc 2aee 18be 32bc 68be 5429 aebd
00000020: 29e5 f73d adc0 cabd 486f 9d3e 6c4b e8bc
00000030: 4718 9b3e 0345 fabd 0b6b 3c3e 6236 88be
00000040: f66c 6b3e 9080 1f3e 0cf3 123e 3f87 1f3e
00000050: 5876 a13e 38f6 bdbd b933 7ebc d674 073e
00000060: b53e 8dbe ce24 df3d 86a7 be3d e96f 84be
00000070: 369d 42bd 5ac4 42be e728 9e3e 6f86 743e
00000080: e121 7fbe 3d0d 843e 3901 d73d 55f3 eabd
00000090: 72e6 973e 52ee 873e c850 4fbd 3c3f cc3c
000000a0: fb61 703e 4519 99be 10c9 4e3e e8b8 a1be
000000b0: 12d6 18bc 95d9 473e 4cb2 f2bc fd19 63be
000000c0: 4d15 9abc a7d0 0e3e 0224 9abd 9ccf 79bd
000000d0: d0cd ccbd 659d a0bd cdee 173e 5546 c3bd
000000e0: 7431 0e3e f112 3c3d e5be 8e3e e32e 223d
000000f0: 2630 483e a429 7b3e 9f41 75be 06a4 21be
00000100: 4cc2 ea3c 494d 79bd d964 313e 24f5 9c3e
00000110: cca8 563a 2615 8dbe 5ad6 8c3e 437f b4bd
00000120: e71b 5a3d c971 91bd a31f 98be c3c0 eb3d
00000130: 725f 5d3e 8ed5 23be 1d8d 85be 9f61 94be
-0.3015266 -0.2956538 0.1822032 -0.18466887 -0.025208892 -0.14934602 -0.22728041 -0.085039765
0.12104256 -0.09900031 0.30748963 -0.028356276 0.3029196 -0.12220194 0.18400209 -0.2660399
0.22990784 0.15576386 0.14350528 0.15578936 0.31535602 -0.09275478 -0.015515261 0.13228163
-0.27586904 0.10895692 0.09309296 -0.2586663 -0.04751321 -0.19020215 0.3089058 0.23879407
-0.24915268 0.2579135 0.1049828 -0.11472193 0.29668003 0.2654901 -0.05061415 0.024932496
0.23474877 -0.29902092 0.20193887 -0.31586385 -0.009328382 0.19516595 -0.029626034 -0.22177882
-0.018808985 0.13946782 -0.07526399 -0.060989007 -0.10000193 -0.078425206 0.14837189 -0.09534899
0.13886052 0.0459165 0.27880016 0.039595496 0.19549617 0.24527603 -0.23950814 -0.15785226
0.028657101 -0.06086472 0.17323627 0.30655777 0.0008188605 -0.27555197 0.27507287 -0.08813336
0.053249266 -0.07101781 -0.29711637 0.11511376 0.21618441 -0.15999433 -0.26084223 -0.2898073

temporal_ca.mlp.0.bias f4 [8]
00000000: 9079 9f3e 8f38 653e 6b28 763e e5ad 12be
00000010: c9f9 003e f107 71bd e134 29be d304 363e
0.31147432 0.22384857 0.24038856 -0.14324148 0.12595285 -0.058845464 -0.16524078 0.17775278

temporal_ca.mlp.2.weight f4 [10, 8]
00000000: a377 a8bd acfe 17ba 03b3 b0bd 6d00 95be
00000010: ddbd 8fbe 2b4d 49be 6eb1 3fbe 368f 933d
00000020: c4b5 0a3e 056b a8be fda3 773e 885b 77bd
00000030: 4b9a 59be 568f fabd 8a1f 8cbe c83a 52bc
00000040: 5c39 e4bd e763 e33d 12ca 2e3e 1841 ad3c
00000050: 6b81 a93e 5ba2 b3be d718 b0bd 22b4 b23e
00000060: eb89 9b3e 0f6e 363d eda9 46be 38a8 213e
00000070: 015c bf3b 3b88 78bd 238f 9cbe 3c7f 6ebe
00000080: db60 5ebe a8a8 74be adf9 65be 7228 16be
00000090: c9c6 c6bd 4a47 5abe 3fed b7bd 7f57 d4bd
000000a0: bc64 3a3e c01f 68be ec35 8e3d 9e32 9dbd
000000b0: fd9b 8d3e 6c4b 04be eebe c4bd 18c8 f33d
000000c0: 9067 b1be 3abb b0be b2ee 523e 5ac4 babd
000000d0: e219 51bd 1388 483e ba6d 80be e725 a4be
000000e0: 9d48 b03b 0148 90be 527d 44be 6d17 9bbc
000000f0: dee4 55be d309 58bc 1995 1ebe 4e3c acbe
00000100: 96b7 283d 250e 973e 733b af3d 1606 88be
00000110: 2394 9bbe 4680 243c a884 a3be 720e 923e
00000120: 7744 89bc 5572 303e 4c20 2cbe 6b98 8d3e
00000130: 6b51 50be c2ce 123e e2ba 6cbe 2baf c9bd
-0.08225944 -0.0005798142 -0.08627894 -0.29101887 -0.28074542 -0.19658343 -0.18720028 0.0720505
0.135459 -0.3289415 0.2418365 -0.060390025 -0.21250264 -0.122343704 -0.27367812 -0.012831397
-0.11143753 0.11103039 0.17069271 0.021149203 0.3310655 -0.35084805 -0.08598488 0.34903055
0.3037866 0.044538554 -0.19400759 0.15786827 0.005839825 -0.060676794 -0.30577955 -0.23290724
-0.21716635 -0.23892462 -0.22458525 -0.14663866 -0.09705884 -0.21316257 -0.08980798 -0.10368251
0.1820249 -0.22668362 0.069438785 -0.0767567 0.27658072 -0.12919396 -0.096067294 0.11903399
-0.34649324 -0.34517843 0.20598868 -0.09119482 -0.051050074 0.19583158 -0.25083715 -0.32060167
0.00537975 -0.28179935 -0.19188431 -0.018932069 -0.20888087 -0.013185936 -0.15486564 -0.3363976
0.041190706 0.2950298 0.08556261 -0.26567143 -0.30386457 0.010040348 -0.31937146 0.28526646
-0.01675628 0.17231114 -0.16809195 0.27655348 -0.20343558 0.14336684 -0.23118165 -0.09847864

temporal_ca.mlp.2.bias f4 [10]
00000000: d8f7 543e d6f3 213e ae3f 40be 7f91 c83b
00000010: c24b a2bd f8b9 a3be 6044 4d3e 8e37 5a3d
00000020: e2fe 993c 853f 94be
0.2079767 0.15815672 -0.18774292 0.00612086 -0.07924606 -0.3197782 0.20045614 0.053275637
0.018798295 -0.28954712

skip_att1.spatial_att.conv.weight f4 [1, 2, 7, 7]
00000000: 5aa6 d2be a4a5 81bd 2496 8a3e 735d 993e
00000010: c3ef 84be 3e6b 56be 9e06 ee3c db00 7d3d
00000020: 04f7 11be ddef ffbc 4ea5 a43e 4e21 ba3e
00000030: d0c9 b6bd 2665 60be d52f b83d 204b f8be
00000040: 4e2e ff3c 0100 b33a c9ac 903d 9ab9 2f3e
00000050: 6a29 2d3d 3950 13be 1175 5b3e 65dd 62be
00000060: 2225 82bd 02e8 00be a199 da3d 8ab2 343e
00000070: 5cf5 ce3d c14c 9c3d 42b7 3fbe 2e06 633e
00000080: a1cc 5abe 568f 813c 59f9 983e 1dc2 d7bc
00000090: 93d4 93be e28b 883e ab95 a53e ba5d 25bd
000000a0: a0fe a6bd 0fba 55be 47fc abbe 9e12 edbd
000000b0: 0ddb bfbd b3b1 eebd 75ba 763c da86 873e
000000c0: fd34 ca3d 6636 433e 4742 943d e00b 71bd
000000d0: 1186 7d3e d79a 58bd 95fd 13bd a36f d83e
000000e0: 4a6b 27bd 5708 bebc bec3 8abe e6f9 9bbd
000000f0: 801e d93d d71b 48bc b5ac 13be 1efc 71be
00000100: 9f26 dcbe d9c1 54ba 2aa2 0abe 7e4d e23e
00000110: b168 b63d 1773 40bd 5092 a93e 90d8 183e
00000120: 711f 043e d080 b7be 8b58 10bc 5228 71bd
00000130: 17ff bc3d 486e 873e d72c 203d e274 40bb
00000140: 6e4f 32bd 727f 263e 14f1 efbe a24e a63d
00000150: 5567 dabd ad99 86bc 37a2 cbbd f5a3 74bd
00000160: 938d 383e 7b1a 91be 7630 d4bd 6518 31bd
00000170: 6d7f d0bc a2d9 1cbf 4da5 283e 15cf e63d
00000180: b8f5 593d a0fa 5d3e
-0.4114254 -0.063304216 0.27067673 0.2995411 -0.25964174 -0.20939347 0.02905589 0.061768394
-0.14254385 -0.031242305 0.32157367 0.36353534 -0.089252114 -0.21913585 0.08993498 -0.48494816
0.03115001 0.0013656617 0.07064206 0.17160645 0.042275824 -0.14386071 0.21431376 -0.22154768
-0.06354739 -0.12588504 0.10673834 0.17646232 0.10105392 0.07631827 -0.18722251 0.22170326
-0.21367122 0.015815418 0.29877737 -0.026337678 -0.2887312 0.26669222 0.3234075 -0.040372588
-0.081540346 -0.20871757 -0.3359091 -0.115758166 -0.093679525 -0.11654987 0.015059103 0.2647007
0.09873388 0.1906372 0.07239204 -0.058849216 0.24758174 -0.05288204 -0.036130507 0.42272672
-0.040873803 -0.023197336 -0.27102464 -0.07616024 0.106015205 -0.012213669 -0.14421351 -0.23631331
-0.42998216 -0.0008116044 -0.13538423 0.44199747 0.08906687 -0.04698476 0.3311944 0.14926362
0.12902619 -0.35840464 -0.008810173 -0.058876343 0.09228342 0.26451325 0.039105263 -0.0029366543
-0.04353278 0.16259554 -0.46863616 0.08120467 -0.1066424 -0.0164307 -0.099430494 -0.059726674
0.18022756 -0.28340515 -0.10360806 -0.043236155 -0.025451386 -0.6126958 0.16469307 0.112699665
0.05321285 0.21677637

skip_att1.channel_att.mlp.0.weight f4 [8, 32]
00000000: cdda f1bc d311 eb3d 43fc df3d b63a 1fbe
00000010: 82c4 2dbd 76c4 0ebe 9692 9d3c 528a b2bd
00000020: f237 193e 8a06 313d eb19 3e3a d769 713c
00000030: 5526 0d3e 250a e5bd e1aa 2abe 1d2e 873d
00000040: baab b53d c47d 373d 0c10 aebd e252 083e
00000050: 9694 123e a745 b0bc 2b52 133e 1f6e 37bd
00000060: 583d 323e 130b 06bd a718 073e d47c 28be
00000070: c3bc e43d 34a1 2fbe 4d72 04bd 9309 343d
00000080: 077e 02be 9885 c7bd bfe1 133d a6fa d6bb
00000090: 2710 ec3d 4a6a 413d 0bcc 2d3d 1f86 febd
000000a0: e65b d73d 18e2 2dbe ff32 9abd cf0a 82bc
000000b0: 9bb9 0f3e 83b0 11be b3fb 2d3e 6ac5 a43d
000000c0: bc74 4bbd 27af 443d ebd9 be3d 9802 16be
000000d0: 897c 233e d744 3cbc eb0a 7c3d f448 11be
000000e0: 2f35 0f3e 3952 cabd 8427 d1bd d48d abbc
000000f0: 57d7 08be 4b14 abbc 83ff f1bd 9389 203e
00000100: 20cb 163d b8a5 cc3d 897f d03d dde7 1cbd
00000110: ac39 24be d79b 26be bd0e 393a 6d41 07bd
00000120: e211 0fbe 0acd bbbd 5348 a43d 29af fd3d
00000130: b44f 743d 0180 ab3d 3a55 023e cf63 68bd
00000140: cbcb 05be 5c04 8a3c a504 5abb f670 0ebe
00000150: 3edd 2c3e efdd f8bd eed8 cebb 3c92 2dbc
00000160: b51e 153e 1c05 8abd bbf7 1c3e 20ee 13be
00000170: 0574 c0bc e1d7 54bd 1bd6 e63c a0e9 edbc
00000180: 5f33 bebb 0c13 0fbd 6314 6db9 9a30 d93d
00000190: 109e 6bbd 48aa fc3d 8d2f d53d be0f 223e
000001a0: 5759 523d 698c 213e 0f42 f63c 763f 22be
000001b0: e32d 24be 29bf d93d 9d2b 343e b6d3 983d
000001c0: 8311 3b3c fd81 c3bc b1ab 1bbe 9621 20bd
000001d0: 9ff0 da3d 8ab1 8bbd 7b32 c6bd 9efe 8a3d
000001e0: 7064 0a3c 6dca 8a3d f1f4 223e d5a1 bf3c
000001f0: 8ca9 033d c1a1 7cbb fb4d 0e3e c6d5 ab3c
00000200: 3cec 203e 7bd0 60bc 30a6 963d 0da4 fa3d
00000210: 8bd7 ffbd 6b62 303e be9f febd bbb1 303d
00000220: c29a ccbd 8371 353d b38d 11bb 218a dbbd
00000230: e5ca a6bd c03d 65bd 00d1 96bd 8417 08be
00000240: 6caf dc3d 8981 123e 6599 c23c c394 7c3d
00000250: 5ab3 28be b4de 15be 5204 8dbc 885a 1c3e
00000260: 0810 223d f12b e73d 8ca9 a9bc 927a 8dbd
00000270: 3085 1f3e d090 b73c 2de5 e0bd 2735 05bd
00000280: 61d3 a2bd bc29 fcbd 2d54 eebb 4a37 4e3d
00000290: 78db 113e 5cbf e1bd 2193 2bbd 0322 c93c
000002a0: 37db ddbd f9f6 07be eb52 223d 6362 db3d
000002b0: 888e 1c3e b327 373d 1823 b03d 9e6f 9fbc
000002c0: 8539 67bd d15f 1bbd ed9d 2b3e 9db0 063e
000002d0: 2089 37bd e780 0cbe a394 503c 10e9 1f3d
000002e0: 526f 253d df6e c23d a0f9 e0bd 5eb1 f73d
000002f0: 9b7f 09be 9e6d ae3d f8e4 c23c f923 c2bc
00000300: 98ae c1bd 9470 08be 3d31 e63d 9fd3 093e
00000310: 160e 0d3c 42ed 0e3e 45ef 953d 91ae b5bd
00000320: 0537 183e 7513 c83c da56 d5bc da14 0c3d
00000330: 1505 ecbc 3ee8 563d 0232 563d 42c0 2a3e
00000340: f145 05be 7403 9fbd bb0b d5bd de82 0bbe
00000350: d083 de3d 0c96 1cbe 67ca 90bc 9233 103e
00000360: 04c1 c6bc aeef b63b 21b9 a03d f845 2dbe
00000370: 4ab4 07bd fc37 d03d 3a63 c8bd f7c2 ae3d
00000380: 4b71 d0bd 8b19 20bd 67c3 46bd 4c23 303e
00000390: addb 9c3d 3104 9d3c f7ef 013e 3769 1abe
000003a0: 2ef4 0f3e 2e16 b63d dad0 e1bc 8ee4 debd
000003b0: c7f2 1c3c 45df aabd cecf c93d aaed 1cbe
000003c0: 0a28 6c3c 0609 983d 9472 8e3d 2162 0fbe
000003d0: 9582 1fbe 4006 103d c1a3 fabc d24f b2bd
000003e0: 5db1 10be 3d7d c73d 4b7b 043e 9a66 56bd
000003f0: 45ee 9a3d 8044 243e 4288 f5bd 9e1c e3bc
-0.029523278 0.11478009 0.10936787 -0.1554974 -0.042423733 -0.13942131 0.019234937 -0.08717789
0.14962748 0.043219127 0.0007251787 0.014734707 0.13784154 -0.111835755 -0.16666748 0.06600592
0.08870645 0.044797674 -0.084991544 0.13312867 0.14314494 -0.021517588 0.14386813 -0.044782754
0.17406213 -0.032725405 0.13192998 -0.16453868 0.11168816 -0.17151338 -0.03233557 0.043954443
-0.12743388 -0.09742278 0.03610396 -0.0065606413 0.11526518 0.047220506 0.04243092 -0.12427925
0.10515575 -0.16980779 -0.07529258 -0.015874295 0.14035647 -0.1422749 0.16990547 0.08045466
-0.049671873 0.0480186 0.09318908 -0.14649427 0.15965475 -0.011491022 0.06153385 -0.14187986
0.13985132 -0.09878964 -0.10212615 -0.020941652 -0.13363396 -0.0208837 -0.11816313 0.1567748
0.03681481 0.09992546 0.101805754 -0.03830706 -0.16037625 -0.16270386 0.0007059386 -0.03302138
-0.13971666 -0.091699675 0.08021607 0.12386925 0.059646323 0.08374024 0.12727824 -0.05673581
-0.13066022 0.016847782 -0.0033266929 -0.13910279 0.16881272 -0.121517055 -0.006312481 -0.010593947
0.14562495 -0.06739256 0.15328877 -0.14446306 -0.023492822 -0.05196369 0.028178265 -0.029042065
-0.0058044638 -0.034930274 -0.00022609676 0.10604973 -0.057523787 0.12337166 0.1040946 0.15826318
0.051354732 0.15776218 0.030060796 -0.15844521 -0.1603313 0.10632164 0.17594762 0.07462256
0.011417749 -0.023865694 -0.15202214 -0.03909453 0.10690426 -0.06820972 -0.09677597 0.067868456
0.008446798 0.06776891 0.1591375 0.023392597 0.032144114 -0.0038548561 0.13896935 0.020975959
0.15715116 -0.013721581 0.073559165 0.122383215 -0.124922834 0.17225043 -0.12432812 0.043138247
-0.09990455 0.044297706 -0.0022209703 -0.107197054 -0.08144168 -0.055967093 -0.07364082 -0.1329022
0.107756466 0.14307226 0.023754785 0.061665308 -0.16474667 -0.14635736 -0.017213974 0.1526891
0.03956607 0.11287678 -0.020710729 -0.06908144 0.15578151 0.02240792 -0.10981212 -0.032521393
-0.079504736 -0.12312648 -0.007273218 0.050345697 0.14243877 -0.11022827 -0.04188836 0.02455235
-0.108328275 -0.13277806 0.039629858 0.10712125 0.15288746 0.044715595 0.086004436 -0.019462403
-0.05645134 -0.037933175 0.16759463 0.1315331 -0.044808507 -0.13721047 0.01273075 0.039040625
0.040389366 0.09493803 -0.10985112 0.12094377 -0.13427584 0.085170016 0.023790821 -0.023698794
-0.09457129 -0.13324195 0.1123986 0.13459633 0.008609315 0.13957694 0.07321028 -0.088711865
0.14864738 0.02442334 -0.02604239 0.034199573 -0.028811017 0.052467577 0.052293785 0.16674903
-0.13014962 -0.077643305 -0.10402628 -0.1362414 0.10864985 -0.15291613 -0.017674638 0.14082173
-0.024261959 0.0055827713 0.078478105 -0.16921222 -0.03313092 0.10166928 -0.09784551 0.0853328
-0.10177859 -0.03908686 -0.048526194 0.17200965 0.07659087 0.019167038 0.12689196 -0.15079199
0.14057991 0.08890949 -0.027565408 -0.10883437 0.009579367 -0.083433665 0.09854089 -0.15325037
0.014413843 0.07423596 0.06955448 -0.14002277 -0.15577157 0.03516221 -0.030595662 -0.08706631
-0.14130159 0.09740684 0.12937658 -0.052343942 0.075649776 0.16041756 -0.1198888 -0.027723607

skip_att1.channel_att.mlp.0.bias f4 [8]
00000000: 077f 323e a3b1 7d3c fe24 28be 8ce7 fe3d
00000010: af90 ed3d 3ba4 cd3d 7232 873c f682 863d
0.1743127 0.015484246 -0.16420361 0.12446508 0.11599862 0.1004109 0.016503546 0.065679476

skip_att1.channel_att.mlp.2.weight f4 [32, 8]
00000000: fe69 36bd ce74 b1bd 9fac 72be 95b3 8fbc
00000010: 73b8 9f3c 0d5c a1be ce40 f53c cfcf 383b
00000020: c155 b3be e2dd 51be 2ea8 c63d 7199 a3be
00000030: 8038 6a3e 3977 953e 0371 27be 3c1d c63c
00000040: a3f6 7abe 20d0 9bbe f316 52be 4ebe b4bd
00000050: a03a a53e 9cfc 2b3e ab1d dcbd 2012 b13e
00000060: 8f7b 80bd 6cf8 97be 74bc 1cbe 818a 8f3e
00000070: 938e b1be 04ab 013e 5649 d3bd 0a30 483e
00000080: 4342 5abe ffe6 453e 40e5 96be 37af 963e
00000090: 165b 863d 1ce1 4b3e a10c 90be 0b35 6a3d
000000a0: d4c6 9c3e cceb 5f3e e679 44be 9dd1 393e
000000b0: d0b4 e53d 1ab8 28be 1eea a03e 60f0 583e
000000c0: 0053 363e 21df 003e 48e9 393d 65e3 b63c
000000d0: 308f 8cbe 1460 3d3e 1f36 903e 97df 963e
000000e0: 6dbe 9bbe cbf9 3e3e 2504 7ebe d2b9 3cbd
000000f0: c412 21be dcdf 88be 5b33 fcbc 1b5d 1a3d
00000100: 32f0 ca3c 5a23 683e f611 4f3e a513 4ebe
00000110: 78d3 8c3e 50c9 9b3e 762a 963e 8b16 a1be
00000120: 7499 0b3e 34f8 203e 42bf 6ebe 3f0c 06be
00000130: 6a77 93bd 7159 473d b96a 923e f108 e9bd
00000140: e182 68bd f3ca 9ebd 40dc 853c 31af e6bd
00000150: 7f1f 2fbd 11ca 09be 3270 46be a887 fc3d
00000160: 80d4 dc3d 3e59 fabd 03f2 86bd 3c6e 2e3e
00000170: 08cd 803e fc61 c9bd 246f 6bbe be53 9fbe
00000180: b95a 5cbe b955 ad3e 447d 29be 058c 26be
00000190: 1171 98be 4e40 ad3e 76a4 b0be 2046 073e
000001a0: f351 9bbe bb58 d03d bd19 01be 0700 773e
000001b0: 0999 673e ee70 c33d 32c6 34be 4fde 8f3e
000001c0: e0b4 573e 1a35 ef3d 7b3e 3bbe 48a4 973e
000001d0: 344d acbe e35e d63d 9556 7bbe 3e3d f23d
000001e0: 7145 ae3d e124 9cbd 081a 743c 184e 3bbe
000001f0: e221 9bbe 1b0e 4dbd 3cc5 a43e 6a35 6dbe
00000200: 7f77 5cbe e1df adbe ca02 75be efb1 e2bd
00000210: e730 2ebe 1b3a 93be e8ab 083d 77e8 94be
00000220: 1ba9 853e 4ded e33d db9a 24be 3481 953e
00000230: dd46 44be 1e65 7cbc d63c 933e af90 b03e
00000240: 8b3d 6f3e de99 b3be fd89 653c a501 7f3e
00000250: 799b 203e e373 9d3e a229 4ebe e13d 80be
00000260: 3ef7 973e c85f a23d 745e 8fbe d4a9 653e
00000270: 1f37 593e f8d6 7f3d 0af7 afbe ab84 983c
00000280: d052 8bbe ec62 603e a74e 83be 89d2 3a3e
00000290: 34a2 a23e 638d 333e ba1c 8bbb e7cc c23d
000002a0: f75e af3e 11a1 a63e 051b 9f3e 0984 753e
000002b0: 625d 20be 0226 a83c 9239 42be 069f 653e
000002c0: ee64 543d d3af 8b3d f1af 8bbe ddd8 2a3e
000002d0: f07d f3bb 1c65 1b3e 7c74 723e f14b 75be
000002e0: 750b 3b3e bdc8 9cbe c95e 9dbe 6e83 d3bd
000002f0: e8a2 acbe 9db0 d0bd 09f5 02be d904 fbbd
00000300: 4a2e 833d bc60 62be bc3a f43d e268 853e
00000310: fb18 80bd ceff 6e3e d8be ae3d 1d62 3d3d
00000320: 3139 303d a36b 06be bc7c 7dbe d814 3ebe
00000330: 1de5 bb3d a03e 92be 9ba2 0cbd a5a6 ee3c
00000340: f4de 8ebe c251 84be 4ba2 833e 746f aabe
00000350: 14b6 df3d f55d f8bd f64e d93d 29c4 afbe
00000360: 85cd 253e 7864 19be 4e60 7b3e 3a59 42bd
00000370: d6b9 44be 38ed a4be 6109 a3be c66a 133e
00000380: 6ab8 843e e82b 9abe cffd 97be 4a56 a33e
00000390: 89ce 73be bc26 53bd b37f 9d3e 95ad 2dbe
000003a0: 61ed 7a3d 6401 443e c3bc 9dbe 0104 5ebd
000003b0: afc4 9dbe 6bb0 10be 9910 7c3e 95b3 5bbd
000003c0: d0c9 893e 45a3 d83c 4644 323e dd33 a7be
000003d0: bd71 a1be 796d 8abd 3498 57be f72f fabd
000003e0: 4741 99be f651 6dbe b430 90be 9b3e 3a3e
000003f0: 9e58 ee3d 83d4 87be 044e a73e 877f 903e
-0.044534676 -0.08664857 -0.23698662 -0.017541686 0.019497132 -0.31515542 0.029938128 0.0028200035
-0.35026363 -0.20494798 0.097000465 -0.31953004 0.22873116 0.29192522 -0.16351704 0.024183862
-0.24508147 -0.30432224 -0.20516567 -0.0882536 0.3227129 0.16795582 -0.10747846 0.3458414
-0.06273567 -0.29681718 -0.15306264 0.28035358 -0.34679088 0.12662894 -0.10316722 0.19549575
-0.2131434 0.193264 -0.2947178 0.29430553 0.06560342 0.19910091 -0.28134635 0.057179492
0.30620444 0.21867293 -0.19187126 0.18146367 0.11216128 -0.16476479 0.31428617 0.21185446
0.178051 0.12585117 0.04538849 0.022325227 -0.27452993 0.18493682 0.2816629 0.2946746
-0.3041872 0.18649976 -0.24806269 -0.04607565 -0.15729815 -0.2673329 -0.030786207 0.03768645
0.024772737 0.22669736 0.20221695 -0.20124681 0.27505088 0.30427027 0.2932927 -0.3146251
0.13632756 0.15719682 -0.23315147 -0.13090609 -0.07200511 0.048669282 0.28597048 -0.113786586
-0.05676544 -0.07753553 0.016340375 -0.11263884 -0.042754646 -0.13455988 -0.19378737 0.12330562
0.10782719 -0.12224053 -0.06589129 0.17034239 0.25156426 -0.09833142 -0.22991616 -0.31118578
-0.21518983 0.33854464 -0.16551691 -0.1626435 -0.29773763 0.33838123 -0.34500474 0.13210344
-0.3033596 0.10173174 -0.12607475 0.24121104 0.22616972 0.09543024 -0.1765373 0.28099295
0.21065092 0.1168005 -0.18285553 0.29617524 -0.3365265 0.10467317 -0.24544747 0.11828087
0.08509339 -0.076242216 0.014898784 -0.18291509 -0.30299288 -0.05006228 0.32181728 -0.23164907
-0.21529959 -0.3395987 -0.23926845 -0.110690944 -0.17010842 -0.28755268 0.033367068 -0.29083607
0.2610558 0.11129246 -0.16074698 0.29200137 -0.19167657 -0.015404968 0.28757352 0.34485385
0.2336332 -0.3507833 0.01400995 0.24902971 0.15684308 0.30752477 -0.20133069 -0.2504721
0.29680818 0.07928425 -0.2800175 0.22428066 0.21212433 0.06246087 -0.34368163 0.018617949
-0.27211618 0.21912736 -0.25645944 0.18244375 0.31764376 0.17534404 -0.004245368 0.09511738
0.3425214 0.3254476 0.31075302 0.23976149 -0.15660623 0.020525936 -0.18967274 0.22423944
0.051854067 0.06820645 -0.2728267 0.1668429 -0.0074307844 0.15175289 0.23677248 -0.2395475
0.1826609 -0.306219 -0.30736378 -0.103278026 -0.33718038 -0.10189936 -0.12788786 -0.12256784
0.06405313 -0.22107214 0.11925265 0.26056582 -0.06254765 0.23339769 0.08532494 0.046236146
0.043023292 -0.13126998 -0.24754614 -0.18562639 0.09174559 -0.28563404 -0.03433476 0.029132197
-0.27904475 -0.25843626 0.25709757 -0.33288157 0.109234005 -0.12127296 0.10610764 -0.34329346
0.1619168 -0.14979732 0.24548456 -0.047448374 -0.19211516 -0.32212234 -0.31843093 0.143962
0.25921947 -0.30111623 -0.29685828 0.3190177 -0.23809256 -0.05155061 0.3076149 -0.16960748
0.06126154 0.19141155 -0.30808076 -0.054203037 -0.3081412 -0.14129798 0.24615707 -0.05363806
0.26911783 0.02644504 0.17408857 -0.32656756 -0.31532088 -0.067591615 -0.21054155 -0.1221618
-0.29932615 -0.23175797 -0.28162158 0.18187945 0.11637996 -0.2652932 0.3267671 0.28222296

skip_att1.channel_att.mlp.2.bias f4 [32]
00000000: 9b62 843e c768 8b3e 765f 78be b6c1 123e
00000010: 3cdd 853e 0af2 1a3c 9e3d 913d 1f45 acbe
00000020: 79a7 f43d 977f 353d 5db4 77bd bbf4 8c3e
00000030: 2003 863e c903 8b3e e68b 17be c51d 323e
00000040: 7217 28be a2e5 353d 646e d8bd 40a9 42be
00000050: 936e 953e 3422 cf3c 55ab a5be e5db 10be
00000060: efaf 10bd ec2f 6dbe 10b0 cbbd 1f6e 37be
00000070: 7458 1a3e 3168 023d f35a d33d b83c 3e3e
0.2585648 0.27228376 -0.24255165 0.14331707 0.2614535 0.009457121 0.07091831 -0.33646485
0.119460054 0.044311132 -0.060474742 0.27530465 0.2617426 0.27151325 -0.14799461 0.17394169
-0.16415194 0.044408448 -0.1056793 -0.19009876 0.29185924 0.025284864 -0.32357278 -0.14146383
-0.035324033 -0.23162812 -0.09945691 -0.17913102 0.15072805 0.031837646 0.103200816 0.1857785

skip_att2.spatial_att.conv.weight f4 [1, 2, 7, 7]
00000000: e7d1 6f3c 7280 36be b986 38be 51a0 f63e
00000010: 56a8 843e bbae abbe 011e 44be 3dfa 4fbd
00000020: b767 3f3e 00d8 82be cbdb 85be 0ee9 b5bd
00000030: 57ed 8f3e 5ba1 a5be 7f53 1d3d a885 c63d
00000040: f80c b4be 120f eebd e6ac 923e 34d4 9abd
00000050: c57f ef3d 5c85 ebbe acf5 5fbe 5a78 873e
00000060: c34f 5dbe 1772 b53d 18a8 4fbe affe 943e
00000070: d046 c2bd 20d1 333c 0075 303c f9e4 d3bd
00000080: b58c 853d 21df 26be ca59 7cbd 32a8 a8be
00000090: 025e a2be d647 e13d b113 abbd 60c9 aa3c
000000a0: afba 15be d44a 0fbe 9658 bcbb 743d 9c3d
000000b0: cd31 c5be 2202 f63d f3c4 98be 1ee5 0dbe
000000c0: 527e 46be a65e ea3d 26f0 9dbe 84d4 87be
000000d0: 3861 af3e c10d 8d3e 241e 9d3e 787a 0cbd
000000e0: 8476 2d3d 60a7 3fbe f54f 00be ef6a 55bd
000000f0: 2784 91be 54fd 833d d15e 91be 0929 67be
00000100: a8c9 003e d89b f03c bdf4 8e3e b139 863e
00000110: fe41 0cbe 1e0a 97be 63fb acbe 9bf1 1ebd
00000120: 5d50 1e3e 18fe 893d fab3 f0bd c51b 80bd
00000130: 72eb 9bbd 56d9 61be 09ba b83e ea3b a1bd
00000140: 0ba2 d3bd 8a0f c13e 47cc 2a3e 7844 c13d
00000150: 1eb8 f5bd 8905 c7bd 98d1 8dbe 4119 e53d
00000160: 12ef a4bd 4f53 f4be bc7d 9f3b bd03 69be
00000170: 8814 c83d 8e1b c93c 126e 153e 771d 9dbd
00000180: 6107 523e 43a7 1fbe
0.014637447 -0.17822435 -0.18020143 0.48169187 0.2590968 -0.33531746 -0.1915207 -0.050775755
0.18691908 -0.2555542 -0.2614425 -0.08882342 0.28110763 -0.32349667 0.038409706 0.09693462
-0.35166144 -0.11623968 0.28647536 -0.07560006 0.11694292 -0.46000183 -0.2187106 0.26459008
-0.21612458 0.088596515 -0.20278966 0.29100558 -0.09486163 0.010975152 0.0107700825 -0.103464074
0.06520978 -0.16296054 -0.061609067 -0.32940823 -0.31712347 0.1100003 -0.08353365 0.020847976
-0.14621995 -0.13993388 -0.005747865 0.07628909 -0.38514557 0.120121256 -0.2983776 -0.13856933
-0.19384125 0.11443834 -0.3084728 -0.26529324 0.3425386 0.27549556 0.30687058 -0.034296483
0.042349353 -0.18716192 -0.12530501 -0.052103933 -0.28421137 0.06444803 -0.28392652 -0.22574247
0.12576926 0.029371187 0.27921095 0.2621589 -0.13697049 -0.29499906 -0.33785543 -0.03880463
0.15460344 0.06737918 -0.11753078 -0.062552966 -0.07613267 -0.22055563 0.36079434 -0.07872756
-0.103336416 0.37707168 0.16679488 0.094368875 -0.11998008 -0.097178526 -0.2769897 0.111864574
-0.080534115 -0.4771981 0.0048672836 -0.22755332 0.09769541 0.024549272 0.1459277 -0.076716356
0.20510627 -0.15591149

skip_att2.channel_att.mlp.0.weight f4 [16, 64]
00000000: 0026 fbb9 348a 0ebd e0ed f23d 7219 d93d
00000010: 86b6 a13d 2064 393d 9e7f 993d 7898 81bd
00000020: 44da f33d 20af 22bc 7eb1 8abd 9097 ed3d
00000030: 2e1c 943d 9ee5 f9bd c032 203c cc86 9fbd
00000040: ca57 9bbd 446b 6e3d 8033 be3c 1003 bc3d
00000050: cc8f bf3d 3215 8c3d 5a06 ff3d 0050 1db9
00000060: bc63 fcbd fa21 a33d a05f 84bb 1cb0 a43d
00000070: ac37 8fbd 7008 f33c 7054 fcbc b6fd a8bd
00000080: 2675 c03d 8ea9 e0bd 0ccc 7dbd 8a91 863d
00000090: 36dd b3bd 64e5 f5bd 504c 1ebd 7af4 9b3d
000000a0: bc0c 7bbd ccb4 5abd 546f 2c3d 2040 093d
000000b0: 1004 b6bc f4fb 8fbd 649b 5b3d a0b0 c3bc
000000c0: 388d 1b3d a427 98bd faab a1bd 6aa1 cabd
000000d0: 82d1 dcbd 3c74 bd3d 407e e3bc a24f c8bd
000000e0: a8c7 e8bc 8e8e f3bd 1446 36bd 5c98 733d
000000f0: c86e 0d3d 74d2 4d3d 4430 37bd 5668 d8bd
00000100: 2aa4 e43d ee27 adbd c88b c93d 6861 473d
00000110: a23a c63d ea7d 813d c0cf 77bb 3c9f ee3d
00000120: 508b ce3d 7e5f c2bd 0c8f a03d b8eb 32bd
00000130: 5222 99bd 0025 6d3b 708b cebc dc07 38bd
00000140: dcf7 22bd d69e 823d c835 6bbd accd 79bd
00000150: 9c89 283d 12c7 efbd cc29 04bd ce4b c7bd
00000160: b8a5 2e3d f00d 843d 8432 153d 78bd 42bd
00000170: 48b6 b3bc 98e7 b83c d0a9 e83c ea08 8fbd
00000180: f0c4 8cbd e60e ad3d 78bb ae3d 1c5c 87bd
00000190: f04a 28bc a09b 6dbc 74e8 e8bd b8b7 96bc
000001a0: b475 853d 80cf 523d 000a cdba 3072 16bc
000001b0: 38fc 70bd 80db 5cbc 40a6 f8bd fcf4 e3bd
000001c0: 1e63 bbbd c278 9f3d e29c f53d 60e0 aebd
000001d0: daa1 f1bd 2015 df3c 029c c6bd f008 813c
000001e0: 5ef5 f83d 121f 873d 90cc c5bd 2e07 8cbd
000001f0: 6403 263d f82e b4bc 0e14 953d 78ec fd3d
00000200: 12c8 cabd f009 063c ec05 d3bd 20c3 9ebc
00000210: 0833 c13c d648 8b3d 306f e0bc bc2a a0bd
00000220: 6011 ad3c c4f2 0dbd 7cf3 f03d e868 633d
00000230: 9e66 d23d cc46 e33d ac17 06bd 6e22 92bd
00000240: 206f 933c 2c2c 3d3d 5079 273d e028 a9bd
00000250: 28d3 fe3c 6498 63bd a4c1 a4bd e8f7 ebbc
00000260: 0e8f d23d 2c14 aa3d 740d 61bd 88fb b6bd
00000270: 6497 043d c024 cc3d 26f9 aabd 0cac 213d
00000280: 580c f13d 1adf dc3d a4e9 df3d 7085 2f3c
00000290: ea61 f33d a6ac 9e3d 60e7 12bd f002 f83c
000002a0: e098 cebb f0c8 723c f02c 9dbd 047d f23d
000002b0: c277 fabd 285f 9c3d a4a6 78bd fce0 f4bd
000002c0: 3c26 383d c48d 2b3d d477 91bd b673 ac3d
000002d0: 50cd b9bd 1c4a 52bd 5091 18bd fcd9 c93d
000002e0: b6b3 803d 2c90 b23d 5817 a93d 4670 d9bd
000002f0: a051 963b 5041 8cbd 8c3d c9bd 9400 eabd
00000300: 9e4b c5bd 5a42 a6bd 0ad6 c2bd 0092 a0bc
00000310: 6ea1 ef3d c470 133d b065 eebc 983e ec3d
00000320: 5a31 a0bd b4a2 05bd 58a1 623d 009d 0abd
00000330: c44b 12bd 8c41 71bd f0a2 3f3c dc90 853d
00000340: 90a9 f53c cce3 613d d0b8 8bbc 8038 c73d
00000350: 8062 baba f082 44bd 3eee a1bd 38b7 3dbd
00000360: e8cf 933d ca10 a53d 78a6 ee3c e093 243c
00000370: e00c a53d 50ac 2c3c 9a03 f6bd fcde e73d
00000380: 442c 3fbd 0441 79bd aecc f2bd 2496 acbd
00000390: 5078 b53c 90d3 23bc f401 e13d 88a4 80bd
000003a0: 4cdc 28bd 50ad f33d 70cd 623c c8be 07bd
000003b0: 1c0d 47bd 9221 9a3d b621 abbd 44a9 0a3d
000003c0: 3a81 803d 20f1 39bc d81a 5ebd f021 8b3c
000003d0: 28be e33d 2a1b 983d 8cc6 df3d fcc9 363d
000003e0: e8bd fcbd 9280 b9bd d820 dcbd 8465 f93d
000003f0: ea82 843d 084c 293d 54f9 99bd 90e5 40bd
-0.00047902763 -0.03479977 0.11861777 0.106005564 0.07896142 0.045261502 0.07495044 -0.06327909
0.11906865 -0.009929448 -0.06772135 0.11601174 0.07231937 -0.12201999 0.009777725 -0.07789382
-0.07585104 0.058207765 0.023217916 0.091802716 0.09353599 0.0683998 0.12452383 -0.00015002489
-0.1232371 0.07965465 -0.0040397197 0.08041403 -0.069930404 0.02966711 -0.030801982 -0.082515165
0.09397344 -0.1096984 -0.061962172 0.06570728 -0.08782427 -0.120066434 -0.038646996 0.076149896
-0.06129144 -0.053395078 0.04209836 0.03350842 -0.022218734 -0.07030478 0.05361499 -0.023887932
0.037976474 -0.07429436 -0.0789413 -0.098940685 -0.10782148 0.092506856 -0.027770162 -0.09780814
-0.028415516 -0.118924245 -0.044500425 0.059471473 0.034529477 0.050249532 -0.044723764 -0.105667755
0.11164124 -0.084548816 0.09841114 0.04867688 0.09679152 0.06322844 -0.0037813038 0.11651465
0.100851655 -0.0949087 0.07839784 -0.04368183 -0.07477249 0.0036185384 -0.025212973 -0.04492937
-0.03978716 0.06377952 -0.057424337 -0.06098716 0.04114686 -0.117078915 -0.032266423 -0.097312555
0.04263851 0.06447971 0.03642513 -0.047543973 -0.021937504 0.02257137 0.028401285 -0.06984122
-0.068735 0.08450107 0.085318506 -0.06609365 -0.010271773 -0.014502436 -0.11372462 -0.01839815
0.06516591 0.05146742 -0.0015643239 -0.009182498 -0.058834285 -0.013480067 -0.12141085 -0.111307114
-0.091497645 0.077867046 0.11992814 -0.0853889 -0.11798449 0.027231753 -0.09697725 0.015751332
0.12156175 0.06597723 -0.09658158 -0.06837307 0.040530577 -0.021995053 0.07279216 0.123986185
-0.09901442 0.00818108 -0.10303864 -0.019380152 0.023583904 0.06801002 -0.027396768 -0.07820651
0.02112645 -0.034655347 0.11765191 0.05551997 0.10273479 0.11097488 -0.03273742 -0.07135473
0.017997324 0.046184704 0.040887177 -0.082597494 0.031106547 -0.055565253 -0.080447465 -0.028804734
0.10281192 0.08304629 -0.05494447 -0.089346945 0.03237094 0.09967947 -0.083483025 0.039470717
0.117699325 0.10784741 0.10933235 0.010712966 0.1188391 0.07747774 -0.035865188 0.030274838
-0.006304845 0.014818415 -0.07674587 0.11840251 -0.12229873 0.07635337 -0.060705796 -0.11956975
0.04495834 0.041883245 -0.071029335 0.084205076 -0.090723634 -0.051340207 -0.037247956 0.0985603
0.06284277 0.08718905 0.082564056 -0.106171176 0.004587367 -0.06848395 -0.09826192 -0.114258915
-0.096335635 -0.08118124 -0.09513481 -0.019600868 0.11700712 0.035996214 -0.029101223 0.11535376
-0.07821913 -0.03262587 0.05532965 -0.033841133 -0.035716787 -0.0589004 0.011696562 0.0652177
0.02998808 0.055148885 -0.017055899 0.097275734 -0.0014220029 -0.047976434 -0.07906769 -0.04631731
0.07217389 0.08059843 0.029132113 0.010045022 0.08059096 0.010539129 -0.12012406 0.11321828
-0.046673074 -0.06085302 -0.11855446 -0.084270746 0.022152096 -0.009999171 0.10986701 -0.06281382
-0.041225716 0.11898291 0.013842925 -0.033140928 -0.048596486 0.07525934 -0.08356039 0.03385283
0.06274648 -0.011348993 -0.05422482 0.016983956 0.11120254 0.07427056 0.10926542 0.04462622
-0.12340909 -0.09057726 -0.10748452 0.12177566 0.064702824 0.041332275 -0.07518259 -0.047093928

skip_att2.channel_att.mlp.0.bias f4 [16]
00000000: b82f 70bd 8e23 e33d 84fd fc3d 8065 5ebd
00000010: 70f2 cebc 3cc2 103d 80b1 a33d f4b9 f03d
00000020: e07a f73d 5a72 bbbd b0ca 67bd 40f4 92bd
00000030: 7cc9 993d 8436 06bd d24c 993d c0d5 1bbc
-0.05863926 0.11090766 0.12353042 -0.054296017 -0.025262088 0.035341486 0.0799284 0.11754218
0.120839834 -0.0915267 -0.056589782 -0.07175493 0.07509133 -0.032766834 0.074853554 -0.009511411

skip_att2.channel_att.mlp.2.weight f4 [64, 16]
00000000: 2086 21bd 68f1 5e3e 9e3f 3cbe a289 0dbe
00000010: c279 253e 60b3 0fbd e808 6abd 823a 3a3e
00000020: caae 593e e093 663c e414 57be 3a4e 13be
00000030: c0ea debb 981f 1d3e 08d6 c0bd 7c5f ed3d
00000040: f87b 7b3d 38df c5bd 8a87 7cbe d4de ec3d
00000050: 48a7 1abd 54af c1bd 80e2 91bd 52c6 31be
00000060: 78bf 643e b094 fa3c a8da 383e 00bc fb3b
00000070: 30e1 d83d 80c0 5bbb 2c5e 6abe 20b7 49bd
00000080: bab1 72be d62a 3b3e da1a 7f3e 301d 6a3d
00000090: 2642 43be 28d1 6fbe 48c7 ecbd c06a e03b
000000a0: 70b1 54be ccc2 c93d 609e 17bd f47b aebd
000000b0: e057 563d b0e2 40bd 445f babd 20bf ae3d
000000c0: dcba b9bd 02c1 36be f081 6e3d 303b e1bc
000000d0: 32a9 67be 4084 913d 105b 633e a086 fdbd
000000e0: 3070 343e c892 cd3d b830 13bd f8de 493e
000000f0: d00e 89bc d283 79be 0a29 3f3e 809c 82bc
00000100: 3ecc 783e 5459 453e 00a7 dfbb f0df 75be
00000110: 92b8 593e b0c0 ba3c 2035 dbbc 0415 353e
00000120: 6af0 4cbe a03f 3c3d 28f8 06be c439 85bd
00000130: e48e 613e 907a dc3d ee67 0abe 10da c93d
00000140: b4c1 74be ac21 683e 1099 763d 4a9b 3ebe
00000150: f606 45be 0835 ef3d 6042 033e e872 6c3d
00000160: ae4e 2f3e 5643 7a3e dc6f ff3d 7860 7abd
00000170: 92b4 7c3e 5caf fb3d 80cf d33c bcae 7ebe
00000180: e26c 3a3e f299 673e 487d 53be e822 a7bd
00000190: ccd7 4b3e 7476 113e d835 9ebd 009b cd3b
000001a0: 9efc 09be 3069 35be 3681 76be bec2 7dbe
000001b0: 9863 a73d 00c5 bd3d d8b3 47bd d204 543e
000001c0: 04ca 72be f6be 28be b40d 723e 0c51 c6bd
000001d0: dc53 da3d 48c7 58bd dc8f 8c3d fcd8 e03d
000001e0: 2c53 7abe ce8d 4dbe e02d 583d f877 b93d
000001f0: f8f4 61bd 8831 113e 5e87 65be 24d1 e03d
00000200: dc5c 1fbe 3c99 ca3d 4ca6 003e f064 4abe
00000210: b808 70be 9ad6 2a3e 285b 013d baeb 7bbe
00000220: 441b 753e 5aa2 543e b22d 07be 4e33 51be
00000230: 6867 dabd 70aa 763d dc6f 763e e8a6 a5bd
00000240: c408 b13d e079 4abc 9847 dcbd f08e ffbd
00000250: f442 2e3e 585e 7dbd f48e 46be 60e1 e1bd
00000260: fa8b 5dbe 30a5 86bc 8e8e 33be 2e58 42be
00000270: 80b6 873b 5a35 2f3e 4a74 6e3e 7836 893d
00000280: eed7 56be 1cce 9f3d b84e f6bd 8819 1ebd
00000290: f8a6 d43d e0c1 7c3c 409a 183e 7076 4cbe
000002a0: b4bc 063e 3083 f73d 786e debd 2a99 7f3e
000002b0: e01b cd3d d296 5d3e 5e8f 5cbe e859 d6bd
000002c0: 08b2 6cbd 90fc 683e d4c7 3e3e 4825 01bd
000002d0: 98c1 f3bd c05e 0ebc 74e6 ce3d c8b4 74bd
000002e0: 70a8 13bd 603d 94bd 5a75 2f3e ccbd 753e
000002f0: 38c2 ba3d 28dc 3cbd f432 273e 4a7e 293e
00000300: f829 f2bd 6c0a 8ebd bc12 cd3d 00f2 173c
00000310: 76bf 053e 02d7 07be 082b acbd 44b4 56be
00000320: 545b 1cbe 20fe d33c 0ce0 15be 4c61 c9bd
00000330: a47b ba3d d634 50be e41b 8dbd 8073 99bb
00000340: c05d 33bc 7225 7d3e d02c a5bc 8090 46be
00000350: a016 c03d 0004 4a3c d477 c3bd 90d1 0f3d
00000360: 80c1 ed3b d433 923d 082d 103e 88fc 06be
00000370: 869f 2b3e 3cb8 96bd 94df c73d 9847 3bbe
00000380: 488a d5bd 803b 36bb d856 64bd 0063 7b3b
00000390: 5e01 503e c437 76be 64b6 c93d ece7 52be
000003a0: 7879 f5bd 602c 56bd 6063 223d a4fc 0e3e
000003b0: c032 023d 32ea 533e d4ad de3d 72f9 22be
000003c0: 442f efbd 7cbc 59be 18a7 2bbe 9066 29be
000003d0: 9626 4f3e 8035 59bb 7acd 0b3e be69 25be
000003e0: 9083 b9bc f4db 4c3e d44b 383e 9a8e 17be
000003f0: 30f5 49bd 7688 37be b80e 513d 105e d5bc
-0.039434552 0.21771777 -0.18383643 -0.13822034 0.16159728 -0.035083175 -0.0571374 0.18186381
0.21258083 0.014073342 -0.21004063 -0.1438531 -0.0068028867 0.15344083 -0.09415823 0.11590478
0.061397523 -0.09661716 -0.24661079 0.115659386 -0.037757188 -0.09457269 -0.071232796 -0.1736081
0.22338665 0.030588478 0.1805216 0.0076823235 0.10589826 -0.0033531487 -0.22887486 -0.049246907
-0.2370061 0.1827806 0.24912587 0.05715674 -0.19068202 -0.2341963 -0.115614474 0.006848663
-0.20770812 0.09851608 -0.037016273 -0.08519736 0.052329898 -0.047091186 -0.09100202 0.08532548
-0.09068844 -0.17847064 0.058229387 -0.027494043 -0.22623137 0.07105303 0.22202706 -0.12379193
0.17620921 0.10037762 -0.035935134 0.19713962 -0.016730696 -0.24366692 0.18667999 -0.015943766
0.24296662 0.19272357 -0.006825328 -0.24011207 0.21261814 0.022796959 -0.02675873 0.17683798
-0.20013586 0.045959115 -0.13180602 -0.065051585 0.22027165 0.107655644 -0.13516209 0.09856045
-0.23902017 0.22669095 0.060204566 -0.18613926 -0.19240937 0.11680037 0.12818289 0.05772677
0.17119858 0.24439749 0.12472507 -0.061127156 0.24678257 0.122893065 0.02585578 -0.24871343
0.18205598 0.22617319 -0.2065326 -0.08160955 0.19906539 0.14205343 -0.07725114 0.006274581
-0.13475272 -0.17715907 -0.24072728 -0.2478132 0.08173293 0.092660904 -0.048755497 0.20704964
-0.23709875 -0.16479096 0.2363804 -0.09683427 0.10660526 -0.052924424 0.068633765 0.109788865
-0.2444579 -0.20073625 0.052778125 0.09056085 -0.05516526 0.14179051 -0.2241492 0.109773904
-0.15562767 0.098925084 0.12563437 -0.19765067 -0.23440826 0.16683426 0.031581074 -0.24601641
0.23936182 0.20765057 -0.13201025 -0.20429727 -0.106642544 0.060221136 0.24066108 -0.080884755
0.0864425 -0.012358159 -0.10755843 -0.12478435 0.17017728 -0.06185755 -0.1939047 -0.11029315
-0.21635428 -0.01643619 -0.17534849 -0.1897895 0.0041416287 0.17110196 0.23286548 0.06699842
-0.20980808 0.07802984 -0.12026733 -0.038598567 0.10383409 0.015427083 0.14902592 -0.19967055
0.13157922 0.12085569 -0.10860914 0.24960771 0.10015082 0.21639565 -0.21539065 -0.10466367
-0.05778697 0.22752595 0.18630916 -0.031529695 -0.119021595 -0.008689582 0.10102549 -0.05974272
-0.036049306 -0.07238269 0.1713461 0.23998183 0.091190755 -0.046108395 0.16328031 0.16552082
-0.11824411 -0.069355816 0.10013339 0.009274006 0.13061318 -0.13265613 -0.08406645 -0.20967203
-0.15269214 0.025878012 -0.14636248 -0.09833011 0.09105614 -0.20332655 -0.06890085 -0.004682958
-0.010947645 0.24721316 -0.02016297 -0.1939106 0.093793154 0.012330055 -0.0954434 0.035111964
0.007255733 0.07138792 0.14079678 -0.1318227 0.16760072 -0.07359359 0.09759441 -0.1828903
-0.10426766 -0.002780646 -0.055746883 0.003835857 0.20313022 -0.2404471 0.098492414 -0.20596284
-0.11986059 -0.052288413 0.039645553 0.13963562 0.03178668 0.20694807 0.10872999 -0.15915468
-0.11678937 -0.21263307 -0.1676296 -0.1654303 0.20229563 -0.003314346 0.13652602 -0.16153619
-0.022645742 0.2000578 0.17997676 -0.14800492 -0.049306095 -0.1792315 0.051039428 -0.026045829

skip_att2.channel_att.mlp.2.bias f4 [64]
00000000: d8a9 b9bd 1403 3d3e 5c9a f63d fc87 a83d
00000010: e89d 59bd e494 d0bd 00a3 03bd f06c 80bd
00000020: 082f 7e3e fc5a 6d3e e42a fa3d 2854 263e
00000030: f2d4 14be 8a5b 773e da4e 10be f0b5 523d
00000040: c681 273e a049 bf3d 2c83 85bd 38fa b43d
00000050: e2fb 763e 2ebc 443e 80ec 583d 166a 49be
00000060: cc65 c33d 0844 c73d 8674 103e a05a 7abc
00000070: 1ad5 473e b658 023e e0d0 efbc 7c6a bc3d
00000080: b4d6 9f3d 0035 d73c 5c45 383e e04a 1dbe
00000090: 5005 3ebd 625f 07be 7c5d 483e fc3c e63d
000000a0: f0ab 293e 40c7 7c3e 6c5b e8bd 3cd3 41be
000000b0: f054 e0bd 18c3 66be 60f5 1dbd ecfe 30be
000000c0: a0d1 98bd 648d 863d 34cf 923d 2c40 073e
000000d0: e218 2fbe c0db 99bc 443e 2e3e e0e6 033e
000000e0: 7c5e debd fc20 0fbe a40f 9e3d f8d2 4abd
000000f0: fe4f 54be e8af 653d 5066 f13c 8cf5 30be
-0.09065598 0.18458205 0.120411605 0.08229062 -0.053129107 -0.10184649 -0.03213787 -0.06270778
0.24822628 0.23179239 0.12215212 0.1624304 -0.14534357 0.24156013 -0.1409258 0.05144304
0.16358098 0.09340215 -0.0651916 0.08836788 0.24119523 0.1921241 0.05295992 -0.19669375
0.095409006 0.09729773 0.1410695 -0.015280396 0.19514886 0.12729153 -0.029274404 0.09199998
0.07804623 0.02627039 0.17995209 -0.15360594 -0.046391785 -0.1321998 0.19566911 0.112421006
0.16569495 0.24685383 -0.11345562 -0.18928236 -0.109537005 -0.2253536 -0.038564086 -0.17284745
-0.07461858 0.06569937 0.07168427 0.13208073 -0.17099336 -0.018781543 0.1701594 0.1288104
-0.10857865 -0.13977426 0.07717827 -0.0495176 -0.2073364 0.05607596 0.029467732 -0.17281169

enc1.0.0.weight f4 [11, 1, 3, 3]
00000000: 8b4f 8ebd 8c21 163e e840 14bd 7584 4fbe
00000010: a69a 0b3d 2f2e 36be 2475 d6bd 1000 2dbe
00000020: f06e 393c 8b29 5dbe 3886 b1bd 335c c3bd
00000030: 9507 0f3d 05c6 383e 49d0 29bc 0f9d 6ebe
00000040: 1c39 81bd 78fa e63d 0567 54bd 624b 8a3d
00000050: 0318 943d 6471 d4bd a087 cdbd ea30 57be
00000060: e054 d73c f6aa 133e 7fa4 b2be d2b3 f1bc
00000070: 7cd0 57be 1cdc ddbc 2303 133e c2aa 81bd
00000080: d765 893c aae6 8ebd 9edc 08be f94c 2d3e
00000090: 6371 5ebd b0dd bb3d 4eee 4bbd 1f50 95bc
000000a0: bf98 3ebe 02d8 00be 7d7f d93d d2f6 fabd
000000b0: 5dff a9bd 78eb 92bc 2eca 19bd 58c6 b3be
000000c0: 8f53 b83c 5275 d2bd 4cfe 3abd 2a85 7f3d
000000d0: c097 c2bc db63 85be abff 0a3e 2450 36bd
000000e0: 5cc5 82be 177c 7c3e 2ecb b0be bae5 27be
000000f0: e985 653d 2d54 b4bc f697 8bbd 9513 243e
00000100: 49fe 073e d1d7 9dbc 2c79 68be 321a a13e
00000110: 8934 dd3c ccdc 4fbb 7bd2 353e 7abb 4a3e
00000120: 2db5 b4bd 0b8b 8abd d5d5 4e3d 2474 f6bd
00000130: 354d df3d 908b d7bd 3d06 1e3e 2525 223d
00000140: 2318 903d 286b 783d fdeb 89bd 1c1d 8d3e
00000150: 4518 273d 203f 12be f659 9cbd 651e 36be
00000160: 5185 0d3e f7d1 3bbe bfa9 0dbe a287 9ebd
00000170: 651d aa3e 9190 293e 4dde 07be dc03 93be
00000180: 4f08 6e3e e239 d6bb d322 17bd
-0.06948765 0.14661235 -0.036194712 -0.20265372 0.03408303 -0.17791055 -0.104715616 -0.16894555
0.0113179535 -0.21597879 -0.08668178 -0.0953907 0.03491934 0.18044288 -0.0103646 -0.233021
-0.06309721 0.11278242 -0.05185606 0.067526594 0.07231142 -0.1037319 -0.10035634 -0.21014753
0.026285589 0.14420685 -0.34891126 -0.02950469 -0.21075624 -0.027082495 0.14356665 -0.063313976
0.016772194 -0.069775894 -0.13365409 0.16923894 -0.054307353 0.09173143 -0.049787812 -0.018226681
-0.18612956 -0.125824 0.106200196 -0.122541085 -0.0830066 -0.017934546 -0.03754633 -0.35112262
0.022500781 -0.10276283 -0.045652673 0.062382855 -0.023754 -0.26052746 0.13574092 -0.04451002
-0.25541198 0.24656712 -0.34530014 -0.16396227 0.05603591 -0.022012794 -0.068160936 0.16023095
0.13280596 -0.019267948 -0.22702473 0.31465298 0.02700259 -0.0031717299 0.17756073 0.19798079
-0.08823619 -0.067648016 0.050496895 -0.12033871 0.10903398 -0.10524666 0.15432067 0.039586205
0.07035854 0.060649067 -0.06734464 0.2756127 0.04079463 -0.14281893 -0.07634346 -0.17785032
0.13820387 -0.18341814 -0.13834284 -0.07740714 0.3322555 0.16559054 -0.13268395 -0.28713882
0.23245357 -0.006537662 -0.036898445

enc1.1.0.weight f4 [32, 1, 3, 3]
00000000: 2ef2 5ebd f4c1 0f3d 8834 a339 7f4f 393d
00000010: 908d b33d 2f08 343e bb78 5e3d b7dd 4c3c
00000020: 18d2 04bc 263d 57be 4a2e cdbc 4cfd 13bb
00000030: 1f09 113d 7af9 d13c 2e05 a1bd 9ecb 033d
00000040: 0d0d 993e 86be 38bd 88c7 61bc 0b24 1ebe
00000050: ca69 7a3d c3f8 f43c 6164 0bbb d7d3 8d3d
00000060: 70af 0fbe b4ac 4d3d a7d2 33bd ea23 703d
00000070: d0ae d5bc 348b dcbd 7301 f9bd b347 dbbc
00000080: f8a5 123d e6d0 6cbd 5203 95bd b89d 8c3d
00000090: 7af8 aa3b 6291 d83d d74d ce3d 55de 9a3d
000000a0: 8803 883b 6777 ec3c 2e70 e53c c0cb 653d
000000b0: 2e6c 4f3e ea0f 6a3d 604a 06bd 01fc 81be
000000c0: 2e26 4d3d 1683 c5bc 1639 1f3d 067d b0bd
000000d0: 0d29 16bd 76fc 6bbd 6a31 43bd c2c0 033d
000000e0: f734 443d 7fe0 8a3d 1696 76bc 7111 9bbd
000000f0: a648 9e3d 2b54 883d 7e97 853c 88b9 93bd
00000100: 7c1c 9cbd 3f63 c1bd 9aa0 77bc b636 773b
00000110: 0227 d6bd 3f9f 65bc 738e a9bd 50c2 9b3b
00000120: 3f4e 3bbd 4bde 99bd 098e 1bbd 5c07 503d
00000130: c367 2dbe 1fc5 c0bd f967 933d b039 a03d
00000140: 4aff b63b 8036 4bbe fe24 82bd d318 3abd
00000150: 8c38 d0bd a048 7c3d a889 d33d 707f 663d
00000160: cc58 85bb dbf8 2f3d 2a0b a93d 902e 3abd
00000170: ab91 84bc f36e 9fbd 445c 93bd 9d88 16bd
00000180: 96c2 85bc 27ba 68bb 8382 60bd 8e15 c9bc
00000190: 3a02 573d bc0c f8bc 8e19 b73d c044 e7ba
000001a0: 2486 3c3c 4bbb 84bc d314 52bd d227 79b8
000001b0: 5fd8 573d 2154 0e3c e2d2 a1bd c62e 283d
000001c0: 037c 0f3e d4f7 32bd 14bd d83c ac08 b63d
000001d0: 461d b6bc 9a19 92bd 621a 2ebe 77fa dc3a
000001e0: 8f74 86bc 063f 6d3d d785 403d 6895 35bd
000001f0: fb88 833b 3f46 a0bc e833 303d b029 cbbd
00000200: 0f79 563e 46f1 783d 1ca6 32bd ba75 b5bc
00000210: 1c2f 653d 0998 273d 0e79 19be 8b48 ff3d
00000220: 3825 873b 6552 08be debd a43d 17da 463d
00000230: 9f18 61bd fc92 dabc 5632 4ebe 36fd c13b
00000240: b479 27be 4d9a 803d 7efc 063d f186 213d
00000250: dca3 963d 222a ab3d 2f53 0d3d e3b8 e83d
00000260: 536f 033e f8bc ae3c 53c5 c63d d557 a7bd
00000270: cc52 903d 3695 95bc 82e2 e3bc aa3c ce3c
00000280: 2789 9c3d a2fd 0f3c 0ea5 3ebd ec6f 643c
00000290: b5b2 0f3e 3c5e 203b e89e bfbd 6f44 053d
000002a0: d441 2ebd 64ee 8c3d 3ffa aebd d89f d93c
000002b0: b786 103d 4c5e bc3d 111c 883b 87f4 cbbd
000002c0: ccb1 62be 076f b03c e838 0e3e 26bc a73d
000002d0: ddad 143e 4884 aebc 7a61 473c 3452 48bd
000002e0: 3f9b 493d 9aaa 603d 339e 1d3d 78be 0e3e
000002f0: a50b 993d 924c a63d fefb 86bc ccd7 903d
00000300: 5b3d c4bc a80e 373d da89 9c3d 0f21 873c
00000310: 3a1c a0bd 0d79 153d ec37 e5bc 432c 433d
00000320: d7dd 83bd 0375 ba3c fb53 f5bb 2c26 bfbd
00000330: fa5c ac3c 96ea 013d 1454 a13d d3f9 223e
00000340: 52ba 74bc 7efb c8bc 1ed3 153e 2312 b63d
00000350: 8560 1ebd ceb3 043d 3d0d 9abd cc2a 12be
00000360: 4252 e43b b794 9cbd 22ce e53d 8375 52b9
00000370: 02e7 c9bd e2b0 17be 7820 a4bc 1e25 e03c
00000380: fe26 81bc d4c6 b53d 67af 393e f75e 3eba
00000390: e0eb 753b 2b6f 11bc ba56 8cbc f767 2fbd
000003a0: f945 943d 3c9a 9f3c eac6 64be ff37 593c
000003b0: daf7 b0bd 6c19 d9bb 8b32 48bd 468a 24bd
000003c0: 2ee3 823d ad77 14be f437 18be 87ce 4fbc
000003d0: 6ac8 83bd bfc2 463d be99 173e bce7 c63b
000003e0: d421 c33c 30d4 4fbc 32ab ffbc 6de5 8fbd
000003f0: 82ab 20bd 6387 9dbd 1835 30bc 5adb 723d
-0.05443018 0.035097077 0.00031128922 0.04524183 0.08767235 0.17581247 0.054314356 0.012504033
-0.008106731 -0.2101942 -0.025046486 -0.0022581397 0.03540909 0.025631655 -0.07862316 0.032176606
0.2989277 -0.045103572 -0.013780482 -0.15443437 0.061136045 0.029903775 -0.0021269547 0.06925171
-0.14031768 0.05021353 -0.043902066 0.058628 -0.026084334 -0.107687384 -0.121584795 -0.026767587
0.03580281 -0.05781641 -0.07276024 0.0686602 0.005217609 0.105746046 0.100734405 0.07561938
0.0041508116 0.02886553 0.028007593 0.056102514 0.20256111 0.057144083 -0.032785773 -0.25387576
0.05008524 -0.024110358 0.0388728 -0.08617596 -0.036660243 -0.057613812 -0.047654547 0.03216625
0.047902074 0.067811005 -0.015050432 -0.07571686 0.077287 0.06656679 0.016307589 -0.07213122
-0.076226205 -0.09442758 -0.015113974 0.003772182 -0.10456659 -0.014015018 -0.08279123 0.0047533885
-0.04572892 -0.07513102 -0.037977252 0.05078827 -0.16934113 -0.09412598 0.071975656 0.07823503
0.005584632 -0.19845009 -0.06354712 -0.04543383 -0.101670355 0.061592698 0.1032899 0.056273878
-0.0040694233 0.042961936 0.082540825 -0.04545456 -0.016182741 -0.07784834 -0.07195333 -0.03675138
-0.016328137 -0.0035511346 -0.054811966 -0.02454641 0.052492358 -0.03027951 0.08940421 -0.001764439
0.011506591 -0.01620259 -0.05128939 -5.940331e-05 0.052696582 0.00868705 -0.07901551 0.04106023
0.1401215 -0.04369338 0.026457347 0.08888373 -0.022230756 -0.07133789 -0.17002252 0.0016859312
-0.016413001 0.057921432 0.04700264 -0.044331938 0.004014132 -0.019564746 0.04301825 -0.09920061
0.20944618 0.06077697 -0.043615445 -0.022150863 0.05595313 0.040916476 -0.14987585 0.12465008
0.00412431 -0.13312681 0.08044027 0.04854783 -0.05495512 -0.026681416 -0.20136389 0.0059200777
-0.1635502 0.062794305 0.03295564 0.03943533 0.073554724 0.083576456 0.03450316 0.11363389
0.12835436 0.021330342 0.09705605 -0.081710495 0.07047042 -0.018259626 -0.027817968 0.025175411
0.07643347 0.008788498 -0.046544127 0.0139427 0.14033015 0.002447023 -0.09356481 0.032535966
-0.042543247 0.06881407 -0.085438244 0.026565477 0.035284724 0.09197673 0.0041537364 -0.09958749
-0.22138137 0.021537317 0.13888896 0.08190183 0.14519449 -0.021303311 0.012169236 -0.04890652
0.04922032 0.0548502 0.03848095 0.13939846 0.07472924 0.081200734 -0.016477581 0.0707241
-0.023955038 0.04469171 0.076434806 0.016495256 -0.07817884 0.036492396 -0.027980767 0.047649633
-0.06438797 0.022760874 -0.007486818 -0.093334526 0.021040428 0.03171786 0.07877365 0.15915613
-0.014937 -0.024533983 0.14631316 0.08890178 -0.038666267 0.032398038 -0.07522056 -0.14274138
0.0069678137 -0.076455526 0.11220957 -0.00020070937 -0.09858514 -0.14813569 -0.020035014 0.027361449
-0.015765663 0.08875814 0.18133317 -0.00072620757 0.0037524626 -0.008876602 -0.017131198 -0.042823758
0.07239909 0.019482724 -0.22341505 0.013257979 -0.08641024 -0.006625345 -0.048876327 -0.04017093
0.06390987 -0.14498778 -0.14865094 -0.012683517 -0.0643471 0.048525568 0.14804742 0.0060701054
0.023819841 -0.012684867 -0.031209562 -0.07026181 -0.039226063 -0.076918386 -0.010754846 0.05929122
