vballnet_v3c_minimal.onnx (onnx, 149405 bytes, 23 tensors)

enc1.0.0.weight f4 [11, 1, 3, 3]
00000000: 178f 0a3d 87b0 b8bc 9a49 98bd 56dc 423e
00000010: 3cde 163e 5141 df3d db30 68bd 6a16 4c3e
00000020: d136 313d b8c4 0f3e 5bc2 babd 7f46 293e
00000030: 0583 22be 29fa babd 1111 7ebe 7a04 83bd
00000040: f2c5 74bd 73af 6c3e 1d81 353c f0c9 22be
00000050: 31fa 1e3d 1d42 20be e94e 30be 5e71 afbd
00000060: 2cef b43e 680f 873e d140 12be e55f 89be
00000070: e485 87be e7cd 63bd b453 57bc 31c0 6dbd
00000080: 8557 233e 8a91 64be 2cbb b73c 9605 93bd
00000090: 3ed3 dbbd 7d1c 353d ee6b 09bd 9a8b f0bc
000000a0: 5eb9 47bc d74f aabe 5a22 41bd b062 2b3e
000000b0: 39d5 1c3d 97d5 acbc 41da cdbd 823d de3d
000000c0: d02e f9bd 7d44 20bd ec91 a4bd 95f3 2c3e
000000d0: 968d 5bbc f296 7ebe 198d 983e cc1a 763e
000000e0: 83ee 5dbe 80d5 703e 0bde efbc c9d0 4b3d
000000f0: d2c9 aebc 43fe 1abd 3ab6 4e3d 2140 503d
00000100: 64ec c2bc 87d2 db3d 7337 55bd 0811 e23d
00000110: 014a 04be ead2 2c3c 8be3 ec3d d694 103e
00000120: 99b2 fcbc 1192 7b3d 0224 453d edf8 16be
00000130: 52a3 64be 1a9d 783d c220 80be ba78 3a3d
00000140: 5c76 c53b ccbe 7cbe 66e0 acbc 03af 5bbe
00000150: 090d 493d ee1d c63d 7b62 8a3d 13b5 a0bd
00000160: 3070 f63d 2f01 a23c 99f6 3e3e 3ac0 e7bc
00000170: e652 1fbd fd33 093e 20c7 edbc 1f42 36be
00000180: 043e 1f3e bce5 3c3e c41c 2f3d
0.033827867 -0.022545112 -0.074359134 0.19029364 0.14733213 0.1090113 -0.056687217 0.19930425
0.043265168 0.14039886 -0.091191016 0.16530798 -0.15870292 -0.091297455 -0.24811198 -0.06397338
-0.059759088 0.23113804 0.011078146 -0.15897346 0.03881282 -0.1565022 -0.17217602 -0.08566545
0.35338724 0.26378942 -0.14282538 -0.26830974 -0.26469338 -0.055616286 -0.013142515 -0.058044616
0.15951355 -0.22321144 0.022428118 -0.071788 -0.107336506 0.04421662 -0.033550195 -0.029363442
-0.012190191 -0.33264038 -0.0471519 0.16736865 0.038289282 -0.021097941 -0.10051394 0.108515754
-0.12167132 -0.039127816 -0.08035645 0.16889794 -0.013400456 -0.24862269 0.2979515 0.2403366
-0.21673016 0.23518944 -0.029280683 0.04975966 -0.02133647 -0.03784014 0.050466754 0.050842408
-0.02379436 0.10733514 -0.052054834 0.11038405 -0.12918855 0.010548333 0.11566838 0.14119276
-0.03084688 0.061418597 0.048130043 -0.14743395 -0.22327927 0.0606967 -0.25024992 0.04552529
0.0060260724 -0.24682158 -0.021103095 -0.2145348 0.049084697 0.096736774 0.06757065 -0.07847037
0.12033117 0.019775955 0.18648757 -0.028289903 -0.038897417 0.13398738 -0.029025614 -0.1779866
0.15551001 0.18447012 0.042752042

enc1.1.0.weight f4 [32, 1, 3, 3]
00000000: 27c9 37be 442b 093c 9848 b5bd e660 2bbd
00000010: 732d 5c3e 9e79 e23d 08b8 053d 00f1 14bd
00000020: 6a2c aa3c ebc0 683d 92d8 073d fe47 e4b9
00000030: ae1d 333d 0c07 8bbd b9a9 1f3e 94f9 63bd
00000040: 6354 c13c 12d6 3d3d 001d e1bc 8ce3 37bd
00000050: 42fd da3c ec17 dc3c 5ed0 74bd fad1 173e
00000060: 7684 5bbe 962e 683c e6c6 88bd d75d f73b
00000070: 9a6d 0d3e acef 273e 06df 46bc 9b17 673d
00000080: 53cf 3a3d ba27 2f3c a685 bfbd 4465 09be
00000090: 2c4c d7bd 1add d53d a048 e43d 205a 8e3a
000000a0: 20d0 723d 346d 3abc 42ad c7bd 53ce 053c
000000b0: 0217 843d e479 263d 8615 c0bc 4b90 dfbd
000000c0: 2ce1 cc3c fece d5bd 52b4 a13d 1080 673c
000000d0: 5813 9b3d 8aee 1dbd acfd 93be e9ea 88bc
000000e0: feda c8bd d777 a2bd 8e83 19bd 8308 11bd
000000f0: 5616 43bd abb8 613d d387 d1bd ce9c 13bd
00000100: 6667 c4bb 3b40 a53c d44e 24bd bafb 41bd
00000110: ecf2 8dbb 22ce 163e 5495 9bbd 8f30 e63d
00000120: 1e53 bdbd 904b 31be 8edd e5bd e04a f1bb
00000130: 5230 ca3d 277d d2bc ce20 06bc 6310 923a
00000140: 2223 0bbe b486 cb3c 7f1e b7bb 5c45 eabc
00000150: 0eeb a03d 7d6b 943d 87b0 f5bb aba9 52bd
00000160: c69a 4a3d dde6 963d eab0 b43d 3c0d e03d
00000170: f45b dbbd 96aa 86be 94ad fdbc db67 5b3d
00000180: f3b8 573d 5883 b73d 68e1 633d a06d 18bd
00000190: d135 a93d 008c a93d 1a80 6cbd 5bcc fabc
000001a0: d2d1 593d fc9b b0bd 536d b43c 9be7 1cbe
000001b0: 6f44 b63c 6d39 0a3e ca45 a53c f91e 873d
000001c0: 889e e53d 4cac 463e 1ae0 2a3d 6a0d 09be
000001d0: 4ecf bcb8 5615 a0bd c875 39bd eab3 113d
000001e0: 7bd2 9d3c 07d4 3dbd e6c7 82bd 48b4 813d
000001f0: cdf4 843d e899 423d bcc8 0d3d 9f96 f13d
00000200: 00b4 fb3d a5f5 1bbd e5b5 a1bc d312 4c3c
00000210: 3c9c 093e ac28 773d ace0 e33c 634e e93d
00000220: 04a6 47be 18ee 133d 67de 943d 0f71 f5bd
00000230: 4e68 13bd 5c8e 123b 2873 833c 3897 813d
00000240: 323b 8e3d cdb4 0cbe 5041 6d3d dc1d da3d
00000250: ec3c c13d 3bf6 c4bd 1cce b7bd 8f36 493d
00000260: 4006 f1bc e4dc 66bd 17f3 ddbd c43f 06bd
00000270: 7c62 0f3e 9b7b 1fba 4478 44bd dab1 b3bc
00000280: f596 193e 83b0 2dbd c49a 883d b6cb a1bc
00000290: 0639 9fbd d28b 493d e7c0 7d3d afba 82bd
000002a0: 4f4f 7abe 5e21 c0bd 9c5a ab3d c3ba a9bc
000002b0: 5860 9cbd a2c2 15be 00e8 443e 8f2c 2f3d
000002c0: fcd1 08be 4387 d13d db0c 78bd 2349 e2bc
000002d0: 8f19 14be e4db b73c 561e 95bd 023b edbb
000002e0: aa0c 02be 9899 523d a47e 99bd 7c25 d43c
000002f0: fe07 d23d 076a 75bd 27ae 9cbb 8c4b 6bbb
00000300: 04e3 a8bc e77d 35bd 9cc5 a0bd a26f e73d
00000310: b6e5 a23b 2c28 aebc 821a 2fbd d4b3 e33d
00000320: 5c37 043c be7d 223d 7554 0b3d 62c8 c7ba
00000330: 44cc ddbd 0a23 81bd 72aa af3d cbb5 c43c
00000340: 729d e53c c3d8 ea3c 2709 ccbb 4aa5 0d3d
00000350: 4472 ddbd c6a8 c2bd 706b fe3c 7e77 ba3c
00000360: 9eb3 cf3d fe2c 703d 5ce6 3e3d bc69 a93d
00000370: e73e 783a 6856 b93c 0030 123b d79e ad3d
00000380: b03c 7e3d 6acf 3c3d 7a20 f5bc 5ba5 ffbd
00000390: 28dd 353c 4b85 0cbd e9c9 023d 5bb2 04be
000003a0: 3b20 613d d8b6 4b3d 87b7 2e3e 3757 ffbd
000003b0: e3ed d73d 304c be3d e731 2fbd ef8e 163e
000003c0: 7ce1 15be 8ea4 86bd 1b04 abbd 9e88 afba
000003d0: bc40 9ebd 5b74 7e3c 16bb 4b3d d018 0abe
000003e0: 48e6 e73d c4f1 e2bd 533a 4ebc cf7e 593d
000003f0: c0e6 813d 48ae c83c d86d 1fbd 14a7 353d
-0.17947827 0.008372132 -0.08851737 -0.041840456 0.21501713 0.11058353 0.03264621 -0.036362648
0.020773131 0.056824606 0.033165522 -0.00043541187 0.043729477 -0.067884535 0.15592088 -0.055657938
0.023599809 0.04634673 -0.027479649 -0.04489474 0.02673209 0.026866876 -0.059769027 0.14826193
-0.21437249 0.014171263 -0.06678562 0.0075490284 0.13811341 0.16400021 -0.012138134 0.056418996
0.045607876 0.010690624 -0.09351663 -0.13417536 -0.105125755 0.104425624 0.111466646 0.00108606
0.059280515 -0.011378575 -0.09749843 0.008166867 0.06449701 0.040643588 -0.023447763 -0.109161936
0.025009714 -0.10439871 0.078957215 0.014129654 0.07572049 -0.038557567 -0.28904474 -0.016713576
-0.098073944 -0.07933014 -0.037478976 -0.035408508 -0.047628723 0.055107754 -0.102309845 -0.036038212
-0.0059937714 0.020172229 -0.04011424 -0.047359206 -0.004331937 0.14727071 -0.075968415 0.112397306
-0.09244369 -0.17313981 -0.11223899 -0.007363662 0.098724976 -0.025694443 -0.008186532 0.00111438
-0.13587621 0.024844505 -0.005588352 -0.028597526 0.07857333 0.07247064 -0.0074978503 -0.05143134
0.04946401 0.073682524 0.08822806 0.10940024 -0.10710898 -0.26302022 -0.030966558 0.05356584
0.052666616 0.08960599 0.055634886 -0.03721392 0.08262218 0.08278656 -0.057739355 -0.030615022
0.053178616 -0.08623502 0.022024786 -0.15322725 0.022249429 0.13498469 0.02017488 0.065977044
0.11211878 0.19401664 0.041717626 -0.13384023 -9.003152e-05 -0.078165695 -0.04527834 0.03557197
0.019265404 -0.046344783 -0.06385784 0.06333214 0.064920045 0.047510058 0.034615263 0.11796307
0.12290192 -0.03807606 -0.019740054 0.01245566 0.13438505 0.060341522 0.027817093 0.11391904
-0.19496924 0.036115736 0.072689824 -0.11984455 -0.035988145 0.0022362685 0.016046122 0.06327671
0.06944884 -0.13740845 0.057923615 0.106502265 0.09435448 -0.09617277 -0.08974859 0.049124297
-0.029421926 -0.056363 -0.10837381 -0.032775655 0.14002413 -0.00060837873 -0.047966257 -0.021935392
0.14998992 -0.042404663 0.06670144 -0.019750457 -0.07774548 0.04920561 0.061951544 -0.06383263
-0.24444316 -0.09381364 0.08366892 -0.020718938 -0.076355636 -0.14625028 0.19229126 0.042767104
-0.13361353 0.10230877 -0.060559135 -0.027622765 -0.14462875 0.02244372 -0.07281177 -0.0072397003
-0.12700143 0.05141601 -0.07494858 0.02589678 0.10255431 -0.05991557 -0.0047815028 -0.0035903184
-0.020616062 -0.044309523 -0.07850191 0.11300589 0.0049712313 -0.02125939 -0.04274989 0.11118284
0.008069839 0.0396707 0.03401609 -0.0015242214 -0.10829976 -0.06305511 0.08577432 0.024012467
0.028029177 0.028667813 -0.006226677 0.03458146 -0.1081281 -0.09504847 0.03105709 0.022762056
0.10141681 0.058636658 0.046606407 0.0827212 0.00094698224 0.02262421 0.0022306442 0.08477562
0.062069595 0.046096243 -0.029922713 -0.12482711 0.011100091 -0.034306806 0.031930838 -0.12958662
0.054962378 0.04973492 0.17062198 -0.12467807 0.1054342 0.09291875 -0.0427722 0.14702962
-0.14636797 -0.06574355 -0.083503924 -0.0013392156 -0.07727191 0.015530671 0.049738966 -0.13486028
0.113232195 -0.110812694 -0.012587148 0.05309945 0.0634284 0.024497166 -0.038923115 0.04434879

enc2.0.weight f4 [32, 1, 3, 3]
00000000: 3b41 acbb 184f 61bd 2c76 44be ca6c 88bd
00000010: 8ab8 183d 9054 893b b38a 29bd 1688 48bd
00000020: 02c1 98bc 76dd 843c 5aca 4f3d a34c d3bc
00000030: d27a 763d c041 b8bd c054 343b 9cea ba3d
00000040: 8c72 cf3d 5c57 e3bd 3736 ee3d 3656 d23d
00000050: 2a39 91bd f74d 25bc 3a41 813d b74e 44be
00000060: f42a 18be 13e6 b0bc 1379 0d3d 331b d7bc
00000070: 9bab a6bd f1cc 983d eeac 2338 f86e 1abd
00000080: 507b 813c bb94 123e 9303 3e3d 0781 25bd
00000090: 1f8b 8abd 2839 553d 1cc1 7f3c 88ab a3bb
000000a0: ac63 c2bd 1690 2f3e 7ca4 ecbd 6122 80bc
000000b0: c207 cc3d 4e03 0ebc dcb8 e1ba ee45 dfbd
000000c0: 4c8e 51bd 4478 03bc 7855 02be 5c9d e8bd
000000d0: 5eb1 513c 4cdd 4ebd 5b79 3fbd aa22 913c
000000e0: 13a4 d43d 4b34 4c3c b82d 443b 6811 943d
000000f0: 8092 113c 6349 18be a61e 5ebd dbc4 873d
00000100: 7ae8 41bc 5015 423d 7c1b acbb f6a7 95bc
00000110: dcdf a9bd a65d 993d aa76 073e 1aa9 a4bc
00000120: 7c6b 63bd bb8a d63c 1309 48bd fef7 26bd
00000130: 6cc9 51bd 4a49 39bc 170d 4b3e cf86 5f3d
00000140: 5db1 883d 0b75 f9bd 7ac4 103c 3469 5bbc
00000150: e28f babd 14ce 7dbd eff6 c93d 682a 9cbc
00000160: 1f87 0cbc 5c1c b7bd 3b5a bcbc 01a6 2a3d
00000170: 70c9 e53d 6c29 d73c 9692 dbbb 3367 d6bd
00000180: e220 fc3c b8e5 97bd 5893 8cbd 5681 ba3d
00000190: 81d7 293d ff97 f53d 7cb7 c93b baa4 7e3c
000001a0: d261 9a3d a050 b8bd 4eb2 ff3d c8d6 ef3d
000001b0: 86d8 d13b d679 3fbd b8a1 bf3d 04b2 023d
000001c0: 9008 f13c 2021 9b3d 28a1 043e dbe5 b2bd
000001d0: 02fe b33d 7a41 053e eeb0 c83d 07a2 58bd
000001e0: bf21 4fbe 3d11 2a3d 5dd4 a83c 7a9c 9d3d
000001f0: 53df e1bc ee55 3b3d c68e 6b3d 2369 44bd
00000200: db84 78bd b498 72bc 1d72 0cbd e0ff 65bc
00000210: 70c2 bdbd e01a e03b 8384 563d 3cc3 cb3c
00000220: a6e7 8dbd 0f71 c73d 08cd 4e3c 8fbf a7bd
00000230: 5868 033e b078 853d 0ee5 fd3d fc23 3dbd
00000240: 0ec1 5a3d b662 f0bc b606 07bc 0e39 57bd
00000250: 2e6e 333d 2a58 643d 6281 c03d 7a6f bebc
00000260: 7bb3 5dbd 9342 bbbd b40a 25bd 9b7b db3d
00000270: 9300 d8bd 777c 773b 5ec2 e53d 4add 9cbd
00000280: f7d7 953d e0ed f1bc de56 ffbc 04a6 20bd
00000290: 82fd babd 45a6 90bc 2338 0ebe 6215 113d
000002a0: 6bba 5fbc e238 eabc d3c8 21be 847b 96bd
000002b0: 94fc 03be 13ba 34be 34ea 67bc 42ea 69bb
000002c0: c227 8e3d 7a3d ea3d 4b22 e23c 786f fabc
000002d0: 7aee 1abd 176c 94bd 71f7 8a3d dcf8 ecbd
000002e0: 9e9f 2e3c cea4 343e 3bbb f6bd 18df a43d
000002f0: 3029 60be 5e54 d53c e66a ce3b 0097 18bd
00000300: 7866 b4bd f62d d63d c075 d03d 54ce 73bc
00000310: bbb6 3dbd b480 d7bd 28f9 273d e0f0 863d
00000320: 1044 d03d 261e cebb 2f08 063d 47d9 9b3d
00000330: 6bf0 c13d 9665 6abc c371 1a3d cc8e 9ebc
00000340: 177e b73d 6641 b1bd f090 eabd 40d4 353c
00000350: 1a51 98bc 2484 2d3e ebe3 283d 032f 043d
00000360: 665c cd3c 15c2 043e d920 133d b3b7 b93d
00000370: bc0d abbd 8cef 54bd 33d8 01bd be2d 1ebc
00000380: 8b43 8f3d d277 12be 9754 9e3d 6a5d b53d
00000390: c746 2b3c b833 073d b829 773c 411b 8e3c
000003a0: a89a 043d 5a2a 933d 2404 d2bc d0b7 833c
000003b0: 6e98 883d 5259 833d 7a6c fcbc 06ed 74bd
000003c0: efed d23d 5f06 f2bd 347f 1f3d 9756 34be
000003d0: 7f4a 5cbd ded0 18be a044 40bd 282e 223e
000003e0: 0ef0 483d 44f9 9dbd c2dd 1dbc 7887 c0bc
000003f0: d0b4 9a3c 97a1 60bd 7efc 37bd d0af 6b3d
-0.0052567995 -0.05500707 -0.19185704 -0.06661375 0.037285365 0.004190989 -0.04139204 -0.048957907
-0.01864672 0.016218882 0.050730087 -0.02579338 0.060175724 -0.08996916 0.0027516335 0.091267794
0.1012927 -0.11100647 0.116314344 0.1027035 -0.07090981 -0.010089389 0.06311269 -0.19170652
-0.14860135 -0.021594083 0.034539293 -0.026258087 -0.081382 0.074609645 3.902328e-05 -0.037703484
0.01580587 0.14314549 0.046390127 -0.040406253 -0.067648165 0.05205646 0.015610006 -0.0049948134
-0.09491667 0.17144808 -0.115548104 -0.015641393 0.09962417 -0.00866778 -0.001722123 -0.1090201
-0.051161095 -0.008024279 -0.12727916 -0.11358139 0.012798635 -0.050504014 -0.046746593 0.017716724
0.10382857 0.0124636395 0.0029934477 0.072298825 0.008885026 -0.14871745 -0.054228447 0.06629344
-0.011835212 0.047383606 -0.0052523 -0.018268567 -0.08294651 0.07488565 0.1322886 -0.020100165
-0.055522427 0.026189199 -0.04883678 -0.040763848 -0.05121748 -0.011308977 0.19829212 0.054571923
0.06674454 -0.12180527 0.008835906 -0.013391782 -0.09109475 -0.06196411 0.09861552 -0.01906319
-0.008577137 -0.08940956 -0.022992244 0.04166222 0.11220062 0.026264869 -0.006700824 -0.104689024
0.030777398 -0.07416862 -0.06864041 0.091067 0.041465286 0.119918816 0.0061559062 0.015542204
0.07538189 -0.08999753 0.12485181 0.11710888 0.0064039854 -0.04674705 0.09357017 0.03190805
0.029423028 0.075746775 0.12952101 -0.08735248 0.087886825 0.13013259 0.09799372 -0.052888896
-0.20227717 0.041520346 0.020609075 0.07695861 -0.02757231 0.045736246 0.057509206 -0.04795183
-0.060673576 -0.014806915 -0.034288514 -0.014038056 -0.09265602 0.0068391412 0.052372467 0.024873368
-0.06928949 0.09738361 0.012622125 -0.08190834 0.12832773 0.0651716 0.12397204 -0.046176895
0.053406768 -0.029343944 -0.008241346 -0.052544646 0.043806247 0.055748142 0.09399678 -0.023246516
-0.054126244 -0.091435574 -0.04029341 0.10716935 -0.105469845 0.0037763396 0.11218713 -0.07659395
0.07316583 -0.029532373 -0.031169351 -0.039220825 -0.09130384 -0.017657408 -0.13888602 0.035420783
-0.013655285 -0.028591577 -0.15799265 -0.073477775 -0.1288932 -0.17649107 -0.0141549595 -0.0035692607
0.06941177 0.11437507 0.027604243 -0.03057073 -0.037825085 -0.07247179 0.06785477 -0.11570904
0.010658173 0.17640993 -0.1204743 0.08050364 -0.21890712 0.026041206 0.0062993644 -0.03725338
-0.08808607 0.10457985 0.10178709 -0.014880735 -0.046316843 -0.10522595 0.0410091 0.06588912
0.10169232 -0.006290215 0.03272265 0.07609802 0.09469684 -0.014306447 0.037706148 -0.0193552
0.089595966 -0.08655052 -0.11453426 0.011097968 -0.01859336 0.16944939 0.041232985 0.032271396
0.025068473 0.12964661 0.035919998 0.09068241 -0.08352229 -0.051986262 -0.031700324 -0.0096544605
0.06995305 -0.1430352 0.07730978 0.08855708 0.010453886 0.033008307 0.01508563 0.01734698
0.032374054 0.07185812 -0.02563674 0.01607886 0.06669699 0.06413521 -0.030813444 -0.059796356
0.102992885 -0.118176214 0.03893967 -0.17611156 -0.053781983 -0.14923427 -0.046940446 0.1583792
0.04905706 -0.07713559 -0.009635391 -0.023502097 0.018885046 -0.054841604 -0.04491853 0.057540715

enc3.0.weight f4 [64, 1, 3, 3]
00000000: 1228 813d 4ed8 0bbe fbe2 0f3e ce53 ea3b
00000010: 46d7 423d c7af ed3d 4697 533d 5a89 183d
00000020: 703f 56ba 176b ad3d 817c 1c3d 4716 4b3b
00000030: 5b6a 19bd 0caa f13b 47e8 37bd 33f9 92bb
00000040: 9ea5 8ebc 1556 e73d 2ccc f73c 664a 9ebc
00000050: cf84 fa3c a9ad c4bd 32df a63d 529d 9ebb
00000060: 1c81 6c3c 34ef ffba f669 52bd fa45 49bd
00000070: a73d af3d b68f 29bd 88df 97bd 4f5c 3b3d
00000080: 18e5 493d 8d59 cdbc 55f2 803d 463e 913d
00000090: 661e 0e3c 2851 6bbc 2fe8 b6ba bb34 2d3d
000000a0: 37b2 33bd dfd0 97bd e8b3 32bd 126f 903c
000000b0: f55d 93bd 160d b43d 156a 613c e3b4 e83a
000000c0: 22b3 51bd 8e55 7e3d 7dfb a7bc 1c7d 9a3d
000000d0: 5352 bd3d 259b 4fbc aa20 54bc 22b4 843d
000000e0: e1c0 3abd 539a c83d 1662 48bc 978f 0cbd
000000f0: 16aa efbb 2894 9b3d cdf8 8d38 211f 6e3c
00000100: 67b9 abbd cbb7 303d 0e51 3e3d b379 e63d
00000110: 77d5 a13d 34bc d7bd 5554 69bd 2cff 3abd
00000120: 72b9 143e 16ed b53c 88ae 003d 398f bcbc
00000130: e9c4 bdbd 22c7 123e 3b5d 413d 3fbf abbd
00000140: 67ae 66bd 50b6 d0bd c54f d63d 0df9 50bd
00000150: a6d7 08bc 80b0 fb3b 99eb b1bd d1cc d33d
00000160: 932f b1bd de57 90bc 3835 843c 23f7 b13d
00000170: cc12 c2bd e760 6bbd 7a1f e63b 8d3f a4bc
00000180: cdd2 f7bc 3ae7 7b3d 179e 853d a59c 8bbc
00000190: 21d5 87bd 382a e53c 8529 403d fa52 883d
000001a0: 4864 913c 716a 043b ef5f 28bd 08d1 2b3d
000001b0: 82b3 13bc b176 97bd 5fd9 04bd 1915 7c3d
000001c0: 40be 80bd 6fb7 3ebd 5762 133d 2201 6b3c
000001d0: e4c9 65bd 0b55 bb3c 1375 72bc 59d1 c13d
000001e0: 6a87 8b3d 20eb 0b3c 0c15 a73d be02 ce3c
000001f0: ffc9 7ebd f794 ffbc 3b20 b8bd c4f7 d63c
00000200: 11de a1bd e22a 143d 3421 3abd 13f7 b6bd
00000210: d951 21bd 65d1 56bb bb12 feba d4b9 0c3d
00000220: bd82 17bc 9655 a5bd ec64 4b3d 2c32 293d
00000230: 0cdf a8bd 8415 15bd c65b 2d3d 012e bcbc
00000240: 7026 1d3d 00e7 fd3d 9a66 d43b fdda 403d
00000250: 5b96 58bd 4a96 03be 534b 94bc fa62 d9bc
00000260: 326b 09be d896 0a3d ec19 ccbd 6831 80bd
00000270: fa75 7d3c ca83 ec3d 213f 8b3c 4df3 323e
00000280: 6f90 4abd 3b8f 01bb f127 093d 75bb 8c3d
00000290: 353b df3a 14a1 adbd 3bd9 673d 91dd 6f3d
000002a0: 073f bf3d bc7a 68bc c535 85bd 00a8 4fbb
000002b0: e41a 0bbd 2cae a23d 437f d5bc d5de 6bbd
000002c0: 0e04 f8bc ae0f 33bd 7eb9 60bd c8dc 8dbd
000002d0: 6277 8ebc a4c2 273d ec0e 343d c034 813d
000002e0: 40c5 ca3b 8fcb 1b3d 67dc 353c b0f7 cd3c
000002f0: 766b b4bc 74e6 723b bf16 39bd 9021 17bd
00000300: d553 8e3d 9426 51bd ca83 623d bac2 a63b
00000310: 46c1 803d 15ce ae3d aa41 3fbc 9c54 5abc
00000320: 3b98 87bd 3ea0 c0bd 5b2f 023d 6e45 2cbc
00000330: 63b7 f0ba b2ec 76ba 7c14 4ebd 2605 953b
00000340: ae77 c13b e139 33bd d5ff d0bb ff38 6bbc
00000350: 77a5 6fbd 98d0 0d3d 8fa0 873d d4d5 1aba
00000360: c4c3 e7bb f29a 03bd aaa9 873d 8931 1bbb
00000370: 4a34 6a3d 0227 9fbd 0b70 083d 386d 5a3b
00000380: aa8b 203d 61fa 29bd d0f5 dc3b 4c97 cbbd
00000390: aaee 13be dc30 a43d 8f07 e83c b5cb d1bc
000003a0: 5cd7 873c 854b 0f3d 18b9 dbbc 4d59 51bd
000003b0: c843 373b 7848 57bd d3df 573d d949 073d
000003c0: 549c 9f3d 5685 fcbc b294 12bd 7115 bbbd
000003d0: ecf1 713c 985c 083d d31c ac3d 0120 4ebd
000003e0: 9aa9 2cbc 6ab5 823c a10b 57bd 7481 3f3c
000003f0: b899 cb3d 7d04 f23d 335f a13c 671c e9bd
0.06306471 -0.13656732 0.1405143 0.0071511036 0.047568582 0.116057925 0.051657937 0.037240364
-0.0008172905 0.084676914 0.038204674 0.003098862 -0.037454944 0.0073750075 -0.04489925 -0.0044852733
-0.017412957 0.11295716 0.030248724 -0.019322585 0.030580906 -0.096034355 0.0814804 -0.0048405314
0.014435079 -0.0019526244 -0.051370583 -0.049139 0.08556681 -0.04139682 -0.07415682 0.04574233
0.049290746 -0.025067115 0.06296221 0.07091956 0.00867424 -0.014362611 -0.0013954694 0.042286616
-0.04387113 -0.07412886 -0.043628603 0.017631087 -0.07195655 0.087915584 0.013758202 0.0017754104
-0.051196225 0.06209331 -0.020505661 0.07543394 0.09244218 -0.012671267 -0.012947241 0.0647967
-0.0455941 0.0979506 -0.012230417 -0.034316625 -0.007313977 0.07596618 6.769747e-05 0.014533789
-0.08384972 0.04314403 0.04646402 0.11253681 0.07902043 -0.10533944 -0.05696519 -0.045653507
0.14523867 0.022207778 0.031416446 -0.023017513 -0.09266073 0.14333776 0.047208052 -0.08386087
-0.056318667 -0.10191023 0.104644336 -0.051018763 -0.008352196 0.0076809525 -0.08687515 0.103418
-0.08651652 -0.017620023 0.016138658 0.08689716 -0.094762415 -0.05746546 0.0070227953 -0.020049835
-0.030251885 0.06149981 0.06524294 -0.017042467 -0.06632448 0.027974233 0.046914596 0.066564515
0.017748013 0.0020205046 -0.041107114 0.041947395 -0.009014966 -0.073956855 -0.032433864 0.061543558
-0.06286287 -0.046561655 0.035982456 0.014343532 -0.05610074 0.0228677 -0.0147984205 0.09463758
0.068129376 0.008539945 0.08158311 0.025147792 -0.062204357 -0.031198962 -0.089905225 0.02624119
-0.07903684 0.03617371 -0.04544182 -0.089338444 -0.039384697 -0.0032778617 -0.0019384244 0.034356907
-0.009247479 -0.08072965 0.049656793 0.041307613 -0.08245668 -0.036397472 0.04232385 -0.022971155
0.038366735 0.123975754 0.0064819576 0.047083843 -0.052877765 -0.128503 -0.018102324 -0.026536454
-0.13419798 0.033835262 -0.09965882 -0.062594235 0.015470022 0.11548574 0.016997876 0.17475624
-0.04945415 -0.001976921 0.033485357 0.06871692 0.0017031195 -0.08477989 0.05660365 0.05856091
0.093381934 -0.014189418 -0.06504396 -0.003168583 -0.03396119 0.07943377 -0.02606166 -0.057585556
-0.03027537 -0.043716125 -0.0548644 -0.06926876 -0.01739091 0.04095711 0.043959543 0.063088894
0.006188065 0.038035925 0.011099911 0.02514252 -0.022023898 0.003706363 -0.045187708 -0.036897242
0.069495834 -0.05106218 0.055301465 0.005089131 0.06286864 0.08535401 -0.01167337 -0.0133258365
-0.066208325 -0.09405564 0.031783443 -0.0105146 -0.00183652 -0.00094194256 -0.050312504 0.004547733
0.0059041595 -0.04375637 -0.006378154 -0.014356851 -0.05850741 0.03462276 0.06622421 -0.00059064967
-0.0070728976 -0.03213019 0.06624158 -0.0023680648 0.057178773 -0.07771112 0.033309978 0.003332926
0.039195694 -0.041498546 0.0067431703 -0.09940967 -0.14446512 0.08017132 0.028323917 -0.02560983
0.016582184 0.03498413 -0.026821658 -0.051110554 0.0027963985 -0.052559346 0.05270369 0.03302941
0.07793489 -0.030825298 -0.03578634 -0.09134949 0.014767151 0.03329143 0.08403935 -0.05032349
-0.010538483 0.015955646 -0.052501325 0.011688579 0.09941429 0.11817262 0.019698715 -0.113823704

dec1.0.weight f4 [192, 1, 3, 3]
00000000: d72d 09ba 4e16 fabb d771 81bd fd77 7b3d
00000010: f100 b33c a791 aa3c 8800 d9bd 4163 c73b
00000020: 6020 34bd 8e00 523b 7c86 9ebd 0373 d93c
00000030: 2922 1f3d 80a2 7f3c 5335 d8bd a240 80bc
00000040: 03ba 50bc d1fa 883d 4d80 c53b e608 9e3d
00000050: 7ca9 993c c11d 0b3d 8903 583d 8910 f4bb
00000060: 5fab 16bb 8ddf febc b250 ab3c 525d d8bc
00000070: 064e 11bd 8a2c 603d 1ae8 73bc dbf2 62bc
00000080: 6d69 d2bb 640e 923c ee33 1e3d 91cb 683b
00000090: 960d 02bd a9a3 87bd d1b7 f5bb 983e 8fbc
000000a0: b546 0e3d 5efb 0cbc 3566 00bd 69a0 03bd
000000b0: 00c1 d0bc 3321 a03d 3a4a 2c3c 13a4 adbb
000000c0: 53dc 45bd 1f62 c13a 042c 60bc 8445 773c
000000d0: ff95 ee3a ec28 18bd c91c f83c 2f5c 613c
000000e0: 62f3 753d 3fed 34bd d685 913c 6113 8fbc
000000f0: a4d7 43bd a4fa 3cbd bfa4 31bd 7630 42bd
00000100: 74f4 043d 21d7 243d bc7f 133d c954 3bbc
00000110: 59a1 5c3d e50a b23c 4f1a 133d f670 30bd
00000120: 7fea 95bd da65 5d3d 3390 633d ecb7 3e3b
00000130: e2bb c5bd ae5e 37ba 3829 06bc a29a b83b
00000140: f26a 4d3d ccc4 57ba 5c11 6d3c f830 1d3b
00000150: 0f16 503c 9982 163d fbb4 1b3d 2ae6 70bd
00000160: 2fba 88bc dec0 0f3d 3961 2fbd 8e87 06bb
00000170: 2334 1e3c f9ed 7ebd fe76 bdbc e7e6 8b3c
00000180: e99d a9bd 81fb ca3c b87b 39bd 91e8 1f3d
00000190: 2839 703d 59ae f23b 5536 043c ae25 4f3d
000001a0: 213e f1bc d199 8a3d 1817 2b3d 3144 07bd
000001b0: 59e0 b8bc 0af7 253d d358 233d a924 b43c
000001c0: 406c e53b a49e 30bd 1e94 bdbb b12f 923c
000001d0: 5beb f23c 0c79 8abb 8e05 b23c cde2 3dbd
000001e0: b204 983c 454d 843d 0b24 f8bb a042 3abd
000001f0: 3c02 f7bc e6af 08bc 1124 84ba 1355 e43c
00000200: 4e4c aabc fb3f 0c3d 39bc 01bd bf5e 91bd
00000210: d832 47bc c0b4 edbb c3df a43b 5022 37bc
00000220: 37f1 863d 1a51 6ebc 0419 2abd f921 11bd
00000230: da2c dd3c 6078 67bd bcda b7bc 8476 243b
00000240: 1995 3fbc a739 f0bb 7672 b5bc 4a2b 26bd
00000250: ee86 e7bc 5e5d 293c 18e1 7bbb f9ed 1a3c
00000260: ca54 2d3d 834f e33a 8e2c b7bb 54a6 bcbc
00000270: 8594 003c 12e9 e73c 2d2f 023b 8313 b2ba
00000280: 531d 84bc 7e78 b3bc bf1b 323a 0b76 38bc
00000290: ccef c03c dea5 233d c547 ce3c 938e 7dbd
000002a0: df19 2bbb a98a 733d 6eac 07bc 58e3 823d
000002b0: 9218 943b 02d8 2b3c 5416 43bd 6dfe c0bd
000002c0: a879 a7bc 788c 87bd 2b26 383d 82d5 5f3d
000002d0: 8884 f53c 9c95 af3c 30a3 8b3c 0ec7 0f3d
000002e0: cd33 32bd 5bbe 7bbc 90e6 b8bb 8e11 76bc
000002f0: c9bb 333d 1b0c 3fbd 5070 df3c cac3 093d
00000300: be97 9f3c c6d6 76bd 3255 3bbb 2b53 94bd
00000310: 0054 7d3c 7b41 84bc 7ea9 c73b b3a6 b3bc
00000320: be2d 403c d764 15bb 3971 a3bc 10d5 ad3a
00000330: 8516 1ebd d105 a4bb e0bc 293d cc6a a7bb
00000340: 488d fd3c ca6a acbc e10e f73c fc31 1dbd
00000350: e451 b5ba 09f7 2f3b 1e57 0c3d d24a dbbc
00000360: e10d 363d adfe 1c3d b152 09bc 1c72 623d
00000370: befb 543d 55c0 5bbb 1157 3a3d 7232 003d
00000380: 44d2 abbb ccff cb3c 4038 1b3d 2c98 963c
00000390: 29ae a83b bbb0 37bc 21e8 01bd 1658 bc3c
000003a0: c12e 7b3c c33a 9bbc 275e 3cbd 13e8 56bd
000003b0: 0710 2cbd 267d 3a3c 78b4 083b 8595 be3c
000003c0: ed81 d6bc 3622 13bc 2933 4bbd 3abf 15bb
000003d0: a0f1 d83b c72c 503d ccc4 a43c 4dc8 db3c
000003e0: 1999 e1ba fbdd 4d3d 046c 11bd a9c3 0dbc
000003f0: 6883 f93c 8d8f b93c 14f7 623d a19b 523d
-0.0005232966 -0.0076320535 -0.06320541 0.061393727 0.021851035 0.020821406 -0.105958045 0.00608483
-0.043976188 0.0032043788 -0.077404946 0.0265441 0.038850937 0.015602708 -0.10557046 -0.01565582
-0.012739661 0.066884644 0.0060272575 0.07716541 0.018757574 0.033963922 0.052737746 -0.00744826
-0.0022990329 -0.031112457 0.020912502 -0.026411686 -0.0354748 0.054729976 -0.01488688 -0.013851847
-0.006421259 0.017829128 0.038623743 0.0035521726 -0.031751238 -0.066230126 -0.0074987193 -0.017485902
0.0347354 -0.0086048525 -0.031347472 -0.0321354 -0.025482655 0.07818832 0.010515744 -0.0052991
-0.04830582 0.0014753974 -0.013682369 0.015092257 0.0018202661 -0.0371484 0.030287163 0.013754888
0.06004656 -0.044171568 0.017764013 -0.017465295 -0.047813073 -0.046137467 -0.043370005 -0.047409497
0.03245969 0.040244225 0.03601049 -0.011433789 0.05386481 0.02173371 0.03591376 -0.043076478
-0.07320117 0.05405221 0.05555744 0.0029101325 -0.096549764 -0.00069950044 -0.008188538 0.005633668
0.05015082 -0.0008230924 0.014469471 0.0023985486 0.012700572 0.03674564 0.038014393 -0.05881325
-0.016690342 0.03509604 -0.042817328 -0.0020527574 0.009655985 -0.062238667 -0.023128029 0.017077876
-0.08282072 0.02477813 -0.045284003 0.039040152 0.05864826 0.0074060378 0.008069594 0.050573044
-0.02944857 0.067676194 0.04177007 -0.033024017 -0.022567915 0.040518798 0.03987963 0.021990137
0.00700143 -0.04312004 -0.005785479 0.017845007 0.029653242 -0.0042258557 0.021731164 -0.046358872
0.018556926 0.064600505 -0.007572656 -0.045473695 -0.030152433 -0.008342719 -0.0010081549 0.027872598
-0.020788338 0.034240704 -0.031673644 -0.070981495 -0.012158118 -0.007254213 0.0050315573 -0.011177614
0.06588977 -0.014545703 -0.041527763 -0.03543279 0.026998926 -0.056511283 -0.022443168 0.0025095055
-0.0116932625 -0.0073310914 -0.022149306 -0.040568627 -0.028262582 0.010337202 -0.0038433727 0.009456151
0.04231719 0.0017342422 -0.005590028 -0.02302853 0.00784791 0.028309379 0.0019864545 -0.0013586137
-0.016127264 -0.021908041 0.00067942956 -0.011258612 0.023551844 0.039953105 0.025180707 -0.061903547
-0.002610795 0.05945841 -0.008280857 0.06391019 0.0045195306 0.010488512 -0.047628716 -0.09423528
-0.020443752 -0.06618589 0.044958275 0.054646976 0.029970422 0.021433644 0.017045587 0.035101943
-0.043506432 -0.0153652085 -0.0056427196 -0.015018834 0.043880258 -0.046642404 0.027275234 0.033633985
0.019481536 -0.060263418 -0.0028584716 -0.072424255 0.015461922 -0.016144505 0.006093203 -0.021930074
0.011729656 -0.00227957 -0.01995145 0.001326235 -0.038595695 -0.005005576 0.04143989 -0.0051091667
0.030951157 -0.021047015 0.030158462 -0.038377747 -0.0013833609 0.0026850125 0.03426277 -0.026769076
0.04444683 0.038328815 -0.008381532 0.055284604 0.051997893 -0.0033531387 0.04549319 0.03129811
-0.0052435715 0.024902247 0.03789544 0.018383108 0.0051477146 -0.011211569 -0.031715516 0.022991221
0.015330971 -0.018948918 -0.04598823 -0.052467417 -0.042007472 0.011382377 0.002085952 0.023264656
-0.026185 -0.0089803245 -0.049609337 -0.0022849576 0.006620601 0.050823953 0.020113371 0.02682891
-0.0017211764 0.050260525 -0.035503402 -0.008652606 0.030458167 0.022651458 0.055411413 0.05141795

dec2.0.weight f4 [96, 1, 3, 3]
00000000: dfe0 303b 5c69 68bc 2dea 14bd e611 1f3b
00000010: 5152 86bd f740 733d d486 91bd d4bb a5bd
00000020: 1345 11be 197d bb3c e89f a0bb 4074 81bc
00000030: de67 20bc 8a17 cb3c b8cb 93bd 46fb 3ebd
00000040: bcc1 08bd 4d76 263d 73a6 6dbc 35b5 07bd
00000050: 0237 013d 153d 103d 8901 523d 17bb 993c
00000060: 6006 58bc 9cae 19bc 2472 32bc 737a 5d3d
00000070: 4108 343d 689b cbbc 291c 093e 3ff5 663d
00000080: 94bc bfbb 3755 0fbc add9 91bb 908e 073d
00000090: ca25 dfbc 0cb6 373d b1e1 1bbd 52a7 54bc
000000a0: 687d 96bc ba73 d03d a093 5dbc 8bd2 553d
000000b0: 92a7 7d3c 071d 56bd 200c b73d 3ba1 df3c
000000c0: 4c05 973d c345 343d 54c3 21bc 3034 c03c
000000d0: 0a3a 883c 9f78 16bd be4f 73bd 4e1e 6b3d
000000e0: a23b 363d 6e3e dfbd 8f91 d93c 5c40 96bc
000000f0: d5ca ed3c 90b3 613d 224e 403d 3f79 1abc
00000100: ed93 583b cdc8 083c 2389 e13d 6968 1e3c
00000110: 82fa 8bbd fa62 27bd 5f4a 733c b24a 95bd
00000120: 31c7 a73c 6baa 03bb 9f63 cf3c 6ab9 73bb
00000130: 590d a83c de3f 903d ba35 83bd 3553 fe3b
00000140: f33a b1bc 7d43 cf3c 0ad7 c3bd facd 4bba
00000150: 510a b5bd 76fd 8abc f9b8 d83c fbb8 90bc
00000160: 75bd c53c de9c 373d 755c 2a3d 2b44 d83c
00000170: 6678 213d 8fd1 8b3c 672d 033c 5a24 9cbd
00000180: 6405 a33d 1ee5 243c 89d3 a93d 3dbd 9fbc
00000190: c105 d0bb f1d4 4abc ccfa 343d a44c ee3c
000001a0: 88ec b6bd ba70 18bb 4435 bcb9 e695 03bc
000001b0: b403 a0bc b039 9fbb c98d 383b 1946 bfbd
000001c0: fc88 37bd 6c50 823c 1264 2abd 63e2 593a
000001d0: 8df9 f1bc f17c 30bc 8a71 e13b 8977 e83c
000001e0: 92c0 843d d772 033c d2f1 abbc 5062 ca3d
000001f0: 5435 c2bd 81a8 0ebd a8e5 0fbd 35b8 863b
00000200: 9160 873d 6755 293d 393d a23c 8170 88bb
00000210: 9cbc 083d b9b7 f13c 4346 dfbb e1aa 7f3d
00000220: 98fa 8bbc ab3a 75bc 9ee0 a23c db1f 883c
00000230: 14a4 35bd dd81 fb3c 25f4 5d3d 6311 25bd
00000240: f93b 29bc 590c d0ba e544 5cbc 4451 a5bc
00000250: 2d3e 0c3d 2409 4abd 873b d23c da5e a63d
00000260: 35eb 8bbb d043 e93c ca81 e23c 9644 92bb
00000270: 375f 25bd d8cd 37bd 69d1 aebc 75fd 803d
00000280: 1606 093e 3c8c 48bb ac4e a4bc 6424 e9bb
00000290: 9d11 4cbc 1240 6d3a 74c1 56bc f692 05bd
000002a0: f249 29bd f633 95bd 3334 ef3c 7039 673d
000002b0: f795 0b3e 101a 11bd ca2e e03c 023c 4ebc
000002c0: 3f10 63bc 17b0 c53d 8c2e 2f3d d6a8 ddbc
000002d0: 6ef7 b03c a9e0 773d 4613 963d 1c1e d73c
000002e0: a0be 473d 4f15 643c 42cb 60bd 9a42 07bd
000002f0: 9a9d dcbc 8d51 363c f1a1 ca3d 2778 433b
00000300: f601 16bd 7a12 103d 290c 433d 01db 643d
00000310: aa7b 29bd ae4b f9bc fe43 81bc fdfa ecbc
00000320: d5bc 323d a638 ed3c f488 4bbd b4ab d2b7
00000330: 8c4a b0bc 9647 91bd 0bd8 7abd 1b2f ccbc
00000340: fe91 363d 9c0e 2f3e 0c63 01be 3d85 7c3d
00000350: 7ec9 ccbb b444 2dbd caca 0dbd 3b86 a93c
00000360: e90e 1c3d ab6c 08bc 4382 95bd 37a5 d2bd
00000370: 820f 883d 1517 1bbd dccb 00ba c1e5 4ebd
00000380: 189e 01bc 82a3 80bc 5e9d bb3d cbeb b2bc
00000390: 68c4 bcbd b938 a1bd e6f2 f3bc 9f5b 84bd
000003a0: 94fd 903c 7767 71bd 1ebb 8c3d 68fc 063d
000003b0: 150c 3abd 0fac 7dbd 0811 c43d 6a3f 5e3d
000003c0: b4ba ba3b b916 3cbd 8b45 e73c 4396 dabc
000003d0: cbfc adbd 7250 433d 86f2 be3d 7a18 d63c
000003e0: 68d0 4a3c 310a 37bd 90ba 703d a430 da3d
000003f0: 3b26 ac3b d0b3 993c 3fe0 68bd 434d 59bd
0.0026989502 -0.014185276 -0.03635614 0.0024272143 -0.06558669 0.059388127 -0.071057945 -0.08092466
-0.14186506 0.0228868 -0.004901875 -0.015802503 -0.009790389 0.024791498 -0.07216591 -0.04662635
-0.033387884 0.040640164 -0.014505017 -0.033131797 0.0315466 0.035214502 0.051270995 0.01876597
-0.013185114 -0.009380009 -0.010891471 0.054071855 0.043953184 -0.024854377 0.13389648 0.05638623
-0.0058513377 -0.008748344 -0.004450998 0.033094943 -0.027239699 0.044851348 -0.038057033 -0.012979345
-0.018370345 0.10178323 -0.013523966 0.052202743 0.015481846 -0.052273776 0.089378595 0.02729856
0.07374057 0.044011842 -0.00987323 0.023462385 0.016629238 -0.036736127 -0.05940222 0.057401948
0.044490464 -0.109005794 0.026558666 -0.018341236 0.029027382 0.055102885 0.046949513 -0.009428321
0.0033047155 0.008348656 0.11012485 0.009668448 -0.0683489 -0.040865876 0.014849274 -0.072896376
0.020480724 -0.002009059 0.025316058 -0.0037189373 0.020514177 0.07043432 -0.06406732 0.007761384
-0.021634554 0.025300736 -0.095625 -0.00077745283 -0.08839858 -0.016966563 0.02645539 -0.01766633
0.024138192 0.044827335 0.04159208 0.026399693 0.03942146 0.017067699 0.00800643 -0.07624121
0.079600126 0.010064391 0.082923 -0.019499416 -0.006348342 -0.012379871 0.04418449 0.02908928
-0.089318335 -0.002326055 -0.0003589784 -0.008031344 -0.019533016 -0.004859172 0.0028160682 -0.09339542
-0.044808373 0.015907489 -0.04159934 0.00083116273 -0.02953794 -0.010771976 0.00687999 0.028377311
0.06482042 0.008022985 -0.020989332 0.09882033 -0.09482828 -0.034828667 -0.035131127 0.0041113147
0.066102155 0.04134121 0.019804584 -0.004163802 0.033382997 0.029506551 -0.006813796 0.062418822
-0.017087266 -0.014967601 0.019882496 0.016616752 -0.04434593 0.030701572 0.054187912 -0.040299784
-0.01032924 -0.001587282 -0.01344416 -0.020180352 0.034238983 -0.049325123 0.02566315 0.0812356
-0.004269982 0.028474718 0.027649779 -0.0044637425 -0.040374007 -0.044874042 -0.021340089 0.06298343
0.13381228 -0.0030601164 -0.020057045 -0.007114934 -0.012455371 0.000905038 -0.013107646 -0.032610856
-0.041330285 -0.072853014 0.029199695 0.05645126 0.13631426 -0.035425246 0.02736606 -0.012587549
-0.013858854 0.09652727 0.042769 -0.027058046 0.021602359 0.060516987 0.07327895 0.026259474
0.04876578 0.013921096 -0.05488134 -0.0330225 -0.026930619 0.011127842 0.09894169 0.0029826255
-0.036622964 0.03517387 0.04761902 0.05587292 -0.0413777 -0.030431595 -0.015779492 -0.028928274
0.043637116 0.028957676 -0.049691156 -2.5113906e-05 -0.021519922 -0.07093732 -0.06124119 -0.024924805
0.044572823 0.17095417 -0.1263544 0.061650503 -0.0062496057 -0.04230185 -0.034617223 0.020693889
0.038100157 -0.00832669 -0.07300236 -0.102854185 0.06643583 -0.03786381 -0.000491319 -0.05051208
-0.007911228 -0.015702967 0.09160875 -0.02184095 -0.09217149 -0.07872147 -0.029778909 -0.06462788
0.01769904 -0.058936562 0.06871627 0.032955557 -0.04542168 -0.061931666 0.09573561 0.054259695
0.0056985263 -0.045920108 0.028231403 -0.026682978 -0.08495482 0.04768414 0.093236014 0.026134718
0.0123787895 -0.044687454 0.05877167 0.10653809 0.005253581 0.0187625 -0.056854483 -0.0530522

final_conv.weight f4 [9, 32, 1, 1]
00000000: 2258 f43e 8b72 ed3d 8147 2ebf 9c6d 22bf
00000010: 4ef2 863e abac 46bf 60e3 6a3f 4911 79bf
00000020: 0652 063e 1a7d 2fbe ed36 30bf d841 1fbf
00000030: 76c1 ba3e 7424 61be ee38 8f3f 0a15 3ebf
00000040: aaa2 db3c b5d0 2d3f 8ef1 f9bd f872 903e
00000050: 0170 eabc c95a 8bbf 7943 ae3e a8e5 94bd
00000060: f26c d63e e0ab 933e a691 d0be eceb 1b3e
00000070: 227e 813d 5609 823f fe1c 553e 637c 963e
00000080: a28f 7b3e db3e f53d 99d7 1f3e f437 403e
00000090: 5588 f03d 8ca9 ffbe 9bb9 4a3d 55d5 153f
000000a0: 0320 093e 3ca7 d6be 438b 8c3f 3e87 493d
000000b0: 9cd9 9b3e 17c3 a6be c90a 33be 309c 073f
000000c0: 9d9c e2be 6bf8 c3bd 2dc2 4cbf 30f6 64bd
000000d0: f219 12bf 4735 17be 2453 6d3e 94e3 f33d
000000e0: d43b d0be 1b7c 883b a53c 1e3f 8f3e 293e
000000f0: 48ac 373f 6167 cb3d 0a0b 41be 6648 563f
00000100: 286a 05bd 41d4 3dbe bc28 18bd 12b2 1a3e
00000110: 3dbc d03d 90ce ba3d 54f5 92bd bdac 193e
00000120: 6c94 533f 0e09 773d 726f afbe 4e7c fbbe
00000130: bd11 20be 1f98 e2bd fb4a 973d 6b3a 0e3f
00000140: 8b1d 86bb 4d8f 02bf 9e90 173f 0e32 dcbd
00000150: 58d1 9e3e b504 4e3e 86fd fcbd 503a f3be
00000160: a7c7 ddbe 037f eebd a0de b33e 5ed6 a53e
00000170: 2cbf cdbd 6b35 713e 5ab6 c1be 8580 893e
00000180: 5ebb 293e b3d4 0a3f 7ae4 4cbf 79f2 2fbe
00000190: 185d 273f a3b9 493e 012b 96be 7445 45be
000001a0: cde7 1a3f 9e46 cabd b3a2 403f bde0 9fbe
000001b0: 2b50 653e 08fc 2b3f e73d 04bf 49ee 85be
000001c0: 3647 26bf fe2e e1be dfd1 63bd 440c 12be
000001d0: c1eb 683e d1b3 16bf 256a 443e 341b cd3e
000001e0: 0f00 dd3e ad92 40bf 7acc cebe ef2a df3c
000001f0: a23c 8dbe 4ae1 aa3d 3bb9 a43d c6ee 04bf
00000200: 690c 61bf 61cf 913e 12dd f6be 4865 b33e
00000210: e113 d53c 0bc0 cc3e 2222 c93e 8679 0cbe
00000220: e35e aa3e 8e12 d5be d7ff ed3e b976 d03e
00000230: 0fdc 17bc a37c 85be ef19 a2be e64a 48bf
00000240: 7cbe 563e c98d 67bf 8cab c43e aa3e f0bd
00000250: 6ab9 aabe 5a25 a1bd 77bb 10bf b9e7 593e
00000260: be0b 543e 1c0c 573e 2fdb b23e d5b7 8b3e
00000270: 1f8f 513e 3162 d5bd b6cf 4e3d 37d4 25bd
00000280: f3f7 c1be e4bf aebd 1ce0 d53e adaf 7f3f
00000290: fae3 383a b8b1 2a3e 8d34 40be 33f2 fe3d
000002a0: 6317 4a3f fb8a 2f3d c0d3 a8bd ec66 023f
000002b0: 7977 3f3f 3182 d23e 8d8a a93e 3dd6 223f
000002c0: 65ce 64bf a11c 433f a93f 5ebe acc8 513f
000002d0: 27fa 19bf c2f3 7abb ffe8 bebd ea9a 7dbf
000002e0: b5a9 4e3e ef4a babd d274 fe3e e58e c3bd
000002f0: 6cd6 263e 4788 103f a187 eebc 088c ccbe
00000300: 2f58 283f b0c8 da3e e200 3cbf 94d7 3dbf
00000310: b654 92be 67af 2cbe d894 f6bc d160 9f3e
00000320: 8387 d33d e786 5c3c 77ea 8b3e 6f4b 5dbf
00000330: 8813 ebbe 4da3 683f 98a4 6dbe 6d6b a0bd
00000340: c9b6 3dbe b288 0cbf c9d1 8f3e fffb ec3d
00000350: 6df1 edbd d147 7abf 76fc 5b3d d4d2 44bd
00000360: be18 2abf 1987 623c 11be 7f3e 32eb 713e
00000370: 5609 f8be a226 493e 7209 df3e 7c1f 12bf
00000380: 74cb 95be 7dce bc3d 234a 9cbe 1858 03bf
00000390: ab77 a0bf 2e52 c43e b72f 323f 1443 e43e
000003a0: 8e41 223f 113e db3e b2cb 133f 2171 de3e
000003b0: 536f 32bf 82c1 3fbf a47b 933e f56a 39bf
000003c0: 99d2 dfbe 656f 94bf 49ae 203e 294f 81bd
000003d0: 9a93 0ebe 3872 c43c 1870 7fbe 86d0 1a3f
000003e0: 91c1 0a3e 1abd 29be 3783 af3e 387d 3d3f
000003f0: b0a9 643e ec8e 4abf f999 303e 5c55 3ebd
0.4772349 0.11594113 -0.68077856 -0.634485 0.2635674 -0.7760722 0.91753197 -0.97292
0.13117227 -0.17137566 -0.6883381 -0.62209845 0.36475724 -0.21986562 1.1189249 -0.74250853
0.026810963 0.67896587 -0.12204276 0.28212714 -0.02861786 -1.088708 0.34035853 -0.07270366
0.41879994 0.28842068 -0.4073612 0.15226716 0.06322886 1.0159099 0.20811841 0.29391775
0.2456651 0.11974879 0.15609588 0.18771344 0.11744753 -0.49934042 0.049493413 0.58528644
0.13391118 -0.41924465 1.0979999 0.049201243 0.3043946 -0.32570717 -0.17484583 0.529727
-0.4426011 -0.09568866 -0.7998379 -0.055898845 -0.5707084 -0.14766417 0.23176247 0.119086415
-0.40670645 0.004165185 0.61811286 0.1652777 0.71747255 0.09931827 -0.18851867 0.8370422
-0.03257194 -0.18538 -0.037148222 0.15106991 0.101921536 0.0912143 -0.07175699 0.150073
0.8264835 0.06031137 -0.34264714 -0.49118274 -0.15631767 -0.11064171 0.07387348 0.5555789
-0.0040928773 -0.5099991 0.59205043 -0.10751735 0.31019092 0.20118983 -0.12353043 -0.47505426
-0.43316385 -0.11645319 0.35130787 0.32390112 -0.10046229 0.23555534 -0.37834436 0.26855865
0.16575381 0.54230803 -0.8003613 -0.1718234 0.65376425 0.19699721 -0.29329684 -0.19264776
0.6050995 -0.098767504 0.7524826 -0.3122615 0.22393863 0.67181444 -0.51656955 -0.2615836
-0.6495241 -0.43981165 -0.05562007 -0.14262491 0.22746183 -0.5886813 0.19181116 0.40059817
0.43164107 -0.7522381 -0.40390378 0.027242152 -0.27585322 0.08343752 0.080431424 -0.5192684
-0.8790956 0.2847853 -0.48215538 0.3503821 0.026010456 0.39990267 0.39283854 -0.13718233
0.33275518 -0.4161572 0.46484253 0.40715578 -0.009268775 -0.26071653 -0.3166041 -0.78239286
0.20971102 -0.9045072 0.3841213 -0.11730702 -0.33344585 -0.07868452 -0.5653605 0.21279801
0.20707604 0.21000713 0.3493285 0.2728869 0.20464753 -0.10419119 0.050491057 -0.040485587
-0.37884483 -0.08532694 0.41772544 0.99877435 0.0007053014 0.16669357 -0.18770047 0.124485396
0.78941935 0.04285715 -0.08243513 0.50938296 0.74791676 0.41114953 0.33113518 0.6360815
-0.89377433 0.7621556 -0.21703972 0.81946826 -0.6014733 -0.0038292264 -0.09321784 -0.99064505
0.20181926 -0.09096324 0.49698502 -0.09548739 0.16292733 0.5645794 -0.029117407 -0.39950585
0.6575956 0.42731237 -0.7343885 -0.7415707 -0.28580254 -0.16863786 -0.030100271 0.31128553
0.10328581 0.013459898 0.2732732 -0.8644323 -0.4591334 0.9087418 -0.23207319 -0.0783299
-0.18526758 -0.5489608 0.2808974 0.11571502 -0.11618314 -0.97765833 0.053707562 -0.048052624
-0.66444004 0.013826155 0.24974848 0.23624876 -0.48444623 0.19643643 0.43561894 -0.5707929
-0.29256785 0.09219072 -0.30525312 -0.51306295 -1.253652 0.38343948 0.6960406 0.44582427
0.6338128 0.4282079 0.5773269 0.43445686 -0.6970112 -0.74904644 0.28805268 -0.7242883
-0.4371536 -1.1596495 0.15691485 -0.06313927 -0.13923493 0.023980245 -0.24945104 0.6047443
0.13550402 -0.16576043 0.34279796 0.74019194 0.22330356 -0.7912433 0.17246236 -0.046468124

final_conv.bias f4 [9]
00000000: 0000 0000 0000 0000 0000 0000 0000 0000
00000010: 0000 0000 0000 0000 0000 0000 0000 0000
00000020: 0000 0000
0.0 0.0 0.0 0.0 0.0 0.0 0.0 0.0
0.0

fusion.att_proj.weight f4 [9, 9, 1, 1]
00000000: 9646 1f3f 21d8 57bd 08a5 12bf 9ed1 dbbe
00000010: bd31 0bbf cc9f 0cbe afac 413e faab 053e
00000020: c8ad 74be 5d46 e6bd ba0f b2be bb24 1b3f
00000030: 9bba c9bd 1ba9 9c3e 5289 ed3d 0f9c 253f
00000040: df0c a23e 0a09 30bf 05e7 ed3e 45d4 ac3e
00000050: f423 cf3d b8d9 133f af4e d2be cc4d d5bb
00000060: 83f6 61bc 5029 babe a4b3 7abe 4ddf afbe
00000070: be05 51bf 38d4 96be 96f1 a43c 41ce 7abf
00000080: bc7e 6f3d f103 c03e 0a94 f23e 7326 88be
00000090: 439d 0a3e 0ebe afbc a1ef ba3e bc81 163f
000000a0: 87ef abbe 2aa2 65bd 7a20 12bd 6f7e 56be
000000b0: ac3f 163f bd04 e5be 0eee 8e3e d2c5 47be
000000c0: 4048 68be baa2 563e c041 e83d e01d 9abe
000000d0: ab46 893e 8780 063f 4771 1ebf 8517 bc3d
000000e0: 454d afbe 3d5f 613c 1b94 273e b578 92be
000000f0: 7985 f2bc 5a63 c6bd 6a49 053f 551b b4be
00000100: f17f 29bf 8201 a73e e4cb ff3e 5fd8 d93e
00000110: b3f2 da3d 7dc7 6abe d467 f8be a942 58be
00000120: cb95 a3be 060f 41bc abd3 973e a8e1 b7bd
00000130: 9d8c d13c d7a4 d53e a2e7 57be 63a8 b3bc
00000140: 94ad ac3e
0.6221708 -0.05269635 -0.5728307 -0.42933363 -0.5437277 -0.13732833 0.1891353 0.13053885
-0.23894417 -0.112438895 -0.34777623 0.6060292 -0.09850045 0.30597767 0.115984574 0.6469125
0.31650445 -0.6876379 0.46465316 0.337557 0.101142794 0.5775409 -0.41075656 -0.0065095183
-0.013791683 -0.36359644 -0.2448259 -0.34350052 -0.81649387 -0.29458785 0.020134728 -0.9797097
0.058470473 0.37503007 0.4737857 -0.26591834 0.13536553 -0.02145293 0.36510947 0.5879171
-0.33581182 -0.056062855 -0.035675503 -0.20946668 0.58690906 -0.44730178 0.27915996 -0.19509056
-0.22683811 0.20960513 0.11340666 -0.30100918 0.26811728 0.5253987 -0.618916 0.091841735
-0.3423864 0.013755617 0.16365092 -0.28607717 -0.02960466 -0.096869186 0.52065146 -0.35177103
-0.6621085 0.32618338 0.49960244 0.4254789 0.106908225 -0.22927661 -0.48516715 -0.21119179
-0.3195022 -0.011783367 0.29653677 -0.089785874 0.025579745 0.41727325 -0.21084455 -0.021930879
0.3372618

onnx::Conv_253 f4 [10, 1, 3, 3, 3]
00000000: 728f 54bb be40 e73c 713f b23d 78e5 4cbc
00000010: 290b 2b3d be02 8a3d ae1f 993d 57d2 4a3d
00000020: 9b70 f9bc 9010 50be 7f8b 103d 1d14 353c
00000030: c0fb 1d3e b141 133e 372f ec3b 8a9f 5abd
00000040: 41c6 8ebd 287f 25be 0e77 d33d ddc0 c13d
00000050: 52d5 84bd 729e cfbd 7402 9c3d f994 8dbd
00000060: 52fb ca3b 9cc0 693e ba99 c83d 070f f23c
00000070: e0eb cbbd 0c29 57be 9bf1 9cbd 52b8 8cbd
00000080: 0d62 093e ce4a e43c 7d46 db3c 99a0 6bbd
00000090: 3184 003d f7c9 0e3e 11c0 0a3d adc2 a8bd
000000a0: 86e4 47bd 7b5d b93d 9e49 3b3d 59ac c33c
000000b0: f035 843d 386d c83d 2ab5 a2bd 396e f9bc
000000c0: c260 1ebd 7725 37bd e5ff a3bc ef4c 06be
000000d0: 1572 1a3e 5967 763d 06da 093e 0057 8e3d
000000e0: 29b7 dcbd ff3d 02bb 3c6d 1f3d 072d bf3c
000000f0: e0e1 303d f5fd 903c bc63 e53d f663 40be
00000100: 9c19 05be 0b46 1bbe 4f43 763d 44cc 37be
00000110: 5107 843d 3a4d 0cbe 6390 8fbd 5323 463c
00000120: 1d0f 5bbc 1882 e33d 945b 19be d365 0ebe
00000130: d13f d03d 19a2 723e 4208 acbd ad15 cdbd
00000140: f5c9 1abe 9e6b b7bd 433b 833d 80ff 1abe
00000150: 7fe6 373e 3d01 af3d 8e23 f7bd 083d bbba
00000160: b20a 29bd dfe7 07bd 2b6a c33d d88c ac3c
00000170: c14a 8c3c 2d19 e4bb 8625 09be bcd9 19be
00000180: 0f87 1a3e ca2d 493d 70d3 a7bd 8011 b63c
00000190: 0cdc bfbd b6dd e23d 09c7 25be 34d2 f6bc
000001a0: d58a 333d 195c 313e d6b1 17bd 010b 1e3d
000001b0: 97b7 ff3c c1a0 773d 3ce0 e6bd a6f7 87bd
000001c0: a554 a23d 73fe 41bd 3243 0cbd 1aa5 40be
000001d0: f797 333d bd34 e1bd 51b4 063d dfd3 46bd
000001e0: 372f d83b 92b3 e8bd 786f 52bd e421 e63d
000001f0: fc9f 65b7 ee62 b03d 7f43 2d3d 138c f2bd
00000200: 3d62 7f3d 70d2 153e 2e55 85bc 25a0 23bd
00000210: ae55 0bbe 3bf7 b6bd 4c63 9fbd 0d80 183d
00000220: 2b89 19bc e6d4 92bc b59c 2d3d 4493 8a3d
00000230: dfcd 02be 07ec cbbc 988d 05bd 2af9 adbd
00000240: 216b 34bd 2f70 fabd 6547 a83d fe9b d13c
00000250: 99ca 27bd 41ad d0bd 98ca 363c ba25 b23a
00000260: e633 e8bd 7edf 54bd 8e1d 103d b950 fbbd
00000270: 8faa 24be fa57 d9bd 75ac 933d bdd0 2f3c
00000280: 2978 3fbc 6e48 34bd ef7d 8dbd c97b f2bc
00000290: b42a 153e 666e 883d 1673 d63d dfd8 b6bb
000002a0: e7a9 f13d a450 2cbe 7818 e0bc 1d63 52bd
000002b0: 14f6 78bd 7804 593d aead 47bd 9df4 b83d
000002c0: 09b3 18bd 7a5f 9dbd 5f0f e53d d4a2 273e
000002d0: 05b8 35bc 5196 0dbd e1e4 043e 0ca3 a2bd
000002e0: ab4f 03bc 28ed 6bbd e5ee 253d 1827 38bd
000002f0: 1ffb 243b deb4 2d3e 959c b03b 95c0 8d3d
00000300: 7414 bd3d 2176 82bd 26c4 ff3c 98f6 eb3d
00000310: 6cc9 0fbe fee4 abbb 4257 f53c 8ab7 923d
00000320: c7ba 8dbc e325 dbbd 7c1e 84bd cd66 30bd
00000330: 408f b1bd 9fca 303c 45a5 3dbe a093 463e
00000340: 76a5 9a3d 93ba b13d c3ce 6fbd 1782 163e
00000350: d50b 213e b842 cbbd 6c1f debb 7c25 aebb
00000360: 471f 2c3e 6892 873d dba2 43bd e638 3d3e
00000370: ded3 c4bc 358c 553d 5132 21bd b4a9 77bc
00000380: ab3e b63c 6671 9d3d 0eb7 8a3d f1cb 893d
00000390: 1ec6 873e a210 ef3d f777 4cbc d78a a93d
000003a0: eeaa 03bd 9e11 e33d 655b d13c 0c4a 23bd
000003b0: d61f d5bb a8ef ce3d 2583 6b3d 5c03 05bd
000003c0: 267e d33d 6239 ef3d 6bcf 1dbe b91e 9d3d
000003d0: 6f79 dd3d 75c3 273d 1793 2d3e 025b c0bc
000003e0: 73b7 f5bd a210 5dbd 42e8 cfbc 422d b53d
000003f0: 9de9 bf3d 8877 98bc cde4 51bd 14a3 323c
-0.0032434133 0.028229114 0.08703507 -0.0125058815 0.04175869 0.06738804 0.074767455 0.049517002
-0.030449202 -0.20318818 0.035289284 0.011052159 0.15428066 0.14380528 0.007207777 -0.053374805
-0.06971408 -0.16161788 0.10325442 0.09460614 -0.06486 -0.10137643 0.076176554 -0.0691318
0.0061945105 0.22827381 0.09794946 0.029548181 -0.09957099 -0.21011752 -0.0766327 -0.06871094
0.1341631 0.0278677 0.02676701 -0.057526205 0.031376068 0.13944231 0.033874575 -0.082402565
-0.04880192 0.09051033 0.045724504 0.023885893 0.064556 0.09786457 -0.079447106 -0.030448066
-0.038666494 -0.044713464 -0.020019481 -0.13115285 0.15082581 0.060157154 0.13462076 0.06950188
-0.107771225 -0.0019873378 0.038922533 0.0233369 0.04318416 0.017699221 0.112006634 -0.18788132
-0.1299805 -0.15163438 0.060122784 -0.17949015 0.06446708 -0.13701335 -0.070099615 0.012093383
-0.0133703025 0.11108798 -0.1497634 -0.1390603 0.10168422 0.23694648 -0.084000126 -0.100139
-0.15116103 -0.08956073 0.06407788 -0.15136528 0.17959021 0.08545158 -0.120673284 -0.0014285157
-0.041269965 -0.033180114 0.09541734 0.021063253 0.01712549 -0.006961009 -0.1339322 -0.15024465
0.15090583 0.049115933 -0.081946254 0.022225142 -0.093681425 0.11077444 -0.16189207 -0.03012953
0.043833572 0.17320289 -0.037034832 0.038584713 0.031215472 0.06045604 -0.11273238 -0.06639032
0.07926301 -0.047361802 -0.03424377 -0.18812981 0.043846097 -0.10996387 0.032886807 -0.0485419
0.0065974253 -0.11362375 -0.051375836 0.11236933 -1.3686713e-05 0.08612619 0.042300697 -0.11843123
0.062349547 0.14631057 -0.016275968 -0.039947648 -0.13606903 -0.08933874 -0.07782611 0.037231494
-0.009371082 -0.017923784 0.042385776 0.0676637 -0.12773846 -0.02489282 -0.032605737 -0.0849479
-0.04404748 -0.122284286 0.082167424 0.025587078 -0.040964697 -0.101892956 0.011156701 0.0013591566
-0.11338024 -0.05197095 0.035184436 -0.12271256 -0.16080688 -0.10612483 0.07210628 0.010730919
-0.011686363 -0.044014387 -0.069087856 -0.029600041 0.14567071 0.06661682 0.1047117 -0.0055800523
0.117999844 -0.16827637 -0.027355418 -0.051364053 -0.060781553 0.052982777 -0.04874962 0.09031031
-0.037280116 -0.07684226 0.111845724 0.16370708 -0.011091237 -0.03456718 0.12977935 -0.07941255
-0.0080146 -0.057599217 0.04051103 -0.044959158 0.0025174094 0.16963527 0.00538976 0.06921498
0.09232417 -0.063701876 0.03122146 0.115216434 -0.1404168 -0.005245804 0.029948834 0.071639135
-0.017300976 -0.10700586 -0.06451127 -0.04306679 -0.08669901 0.010790496 -0.18520077 0.19392252
0.075510904 0.08678164 -0.058546793 0.14698063 0.1572717 -0.09924835 -0.006778648 -0.005314527
0.16808806 0.06619722 -0.047762733 0.18478736 -0.024026807 0.052135665 -0.039354626 -0.015116144
0.02224668 0.07687645 0.06773196 0.06728352 0.2651834 0.11673094 -0.012479774 0.08278435
-0.032145433 0.110873446 0.025556276 -0.03986554 -0.0065040393 0.101043046 0.057498116 -0.032473907
0.10326795 0.11680867 -0.15411155 0.076718755 0.10814177 0.040957887 0.16950642 -0.023480896
-0.11997881 -0.05397094 -0.025379304 0.08846523 0.0937073 -0.018611684 -0.051243592 0.010903139

onnx::Conv_254 f4 [10]
00000000: 3d76 8d37 da5c 9cb6 bc45 59b7 9551 17b7
00000010: 7b56 c5b7 7873 eeb7 ba57 9937 827c a7b4
00000020: 8586 7d38 9db1 2638
1.6863569e-05 -4.6599716e-06 -1.2950444e-05 -9.019296e-06 -2.35245e-05 -2.842558e-05 1.8279872e-05 -3.1196765e-07
6.044518e-05 3.97429e-05
