vball_net_v3c_optimized.onnx (onnx, 156535 bytes, 27 tensors)

enc1.0.0.weight f4 [11, 1, 3, 3]
0	0x3c151470	0.009099111
1	0x3c47e43e	0.012200413
2	0xbded65a7	-0.11591654
3	0x3e111a59	0.14170207
4	0x3cda007a	0.026611555
5	0xbc7cfb5c	-0.015440788
6	0x3c8cfec7	0.017211331
7	0x3e1f390c	0.15549105
8	0x3e57b8d6	0.21066603
9	0xbe3c5c78	-0.18394649
10	0xbe6aa954	-0.22916156
11	0xbe0f7bc3	-0.14012055
12	0x3e21ceb3	0.15801506
13	0xbe857bbd	-0.26070967
14	0xbc098c9e	-0.008395342
15	0x3da32b48	0.079672396
16	0x3d2e67d0	0.042579472
17	0xbe2150e4	-0.15753514
18	0xbdc86e52	-0.09786667
19	0xbb869e56	-0.0041082306
20	0xbecd5bf5	-0.4010922
21	0x3c82097f	0.015873669
22	0x3b372ffa	0.002795218
23	0x3e0966dc	0.13418144
24	0xbd6e90e0	-0.058243632
25	0x3e9080ec	0.2822336
26	0x3e1137d4	0.14181453
27	0xbe33f3f7	-0.17573534
28	0xbe1635aa	-0.14668909
29	0x3d926f02	0.07150079
30	0x3d86d093	0.06582751
31	0xbd204409	-0.039127383
32	0xbd2827e4	-0.041053668
33	0xbce8f4d1	-0.02843705
34	0x3d739023	0.05946363
35	0xbc75cf47	-0.015003032
36	0xbe57bfc0	-0.2106924
37	0xbcf737e0	-0.03017801
38	0x3dbf248d	0.093331434
39	0xbcba8f08	-0.02277328
40	0xbe0288a2	-0.12747434
41	0x3ccd5c54	0.02506844
42	0x3e947d61	0.29001907
43	0xbc0378ec	-0.0080244355
44	0x3e35cd0d	0.17754002
45	0x3dae230f	0.08502781
46	0xbb672460	-0.0035269484
47	0xbda3bd6f	-0.07995116
48	0xbd6df62f	-0.058096107
49	0x3e0e29e8	0.13883173
50	0xbf02b470	-0.51056576
51	0x3e8ffe74	0.2812382
52	0xbd2c0232	-0.04199428
53	0xbd0a749f	-0.033802625
54	0x3c96a786	0.018390428
55	0x3d269910	0.040673316
56	0xbe267603	-0.16255955
57	0x3d964512	0.07337393
58	0xbe5f0160	-0.21777868
59	0xbe12e65a	-0.14345685
60	0xbde5cef9	-0.112211175
61	0x3e429158	0.19000757
62	0xbd9dbaba	-0.07701631
63	0xbdfa8737	-0.122328214
64	0x3e2d8199	0.16943969
65	0x3ed70147	0.41993162
66	0xbe8081bf	-0.25098988
67	0x3deb6cec	0.114953846
68	0x3e2f73e1	0.17134048
69	0x3dcbc03a	0.09948774
70	0x3e2fd452	0.17170838
71	0xbdcef285	-0.10104851
72	0x3e29db15	0.1658748
73	0xbe64de82	-0.22350505
74	0x3da26690	0.079297185
75	0xbd0123f0	-0.031528413
76	0x3d95159b	0.072795115
77	0xbe74b80d	-0.23898335
78	0xbcd7fed0	-0.026366621
79	0xbdd77b68	-0.10521585
80	0x3d689de5	0.056791205
81	0xbde09788	-0.10966402
82	0xbc855d89	-0.016279953
83	0x3d38c98d	0.04511409
84	0x3d18ad76	0.0372748
85	0xbc27cf3c	-0.01024228
86	0x3e05b100	0.13055801
87	0x3e06a378	0.13148296
88	0xbe2da998	-0.16959226
89	0xbba72ab6	-0.005101527
90	0x3e125792	0.14291218
91	0x3d21c360	0.039492965
92	0x3ddb785f	0.10716318
93	0xbe7438a9	-0.23849739
94	0xbcecac62	-0.028890792
95	0x3de702a2	0.11279799
96	0x3d1cc296	0.03827151
97	0xbe05f347	-0.13081084
98	0xbe6c0033	-0.23046951

enc1.1.0.weight f4 [32, 1, 3, 3]
0	0x3d315c5b	0.043300968
1	0x3e12f0a8	0.14349616
2	0x3e1aab14	0.15104324
3	0x3c8f60bd	0.017502183
4	0xbcbb671c	-0.022876315
5	0x3d099a17	0.033594217
6	0xbd9dfbdb	-0.07714053
7	0x3e1e2a2b	0.15445773
8	0x3d9d00cd	0.07666168
9	0xbd391108	-0.045182258
10	0x3b4a58ac	0.0030875606
11	0xba9f0de8	-0.0012134882
12	0xbd342496	-0.043980204
13	0x3d177caa	0.036984123
14	0xbcc7c0d6	-0.024383944
15	0x3e04a0c2	0.12951949
16	0x3caa1b45	0.020764956
17	0xbe2e0096	-0.16992411
18	0xbdb7959c	-0.089640826
19	0x3da65652	0.08121933
20	0x3deba358	0.11505765
21	0x3d3d33e0	0.04619205
22	0xbd8cc024	-0.068725854
23	0xbe690d9c	-0.22759098
24	0x3e01317e	0.12616536
25	0x3d71363b	0.05888961
26	0x3e0d4742	0.13796714
27	0x3de3face	0.111318216
28	0x3df5f114	0.12008873
29	0xbca0ae7e	-0.019614454
30	0xbdf8c0f0	-0.12146175
31	0x3c5691a7	0.01309625
32	0x3d646fba	0.055770613
33	0x3d9992bf	0.07498693
34	0x3d6f8003	0.05847169
35	0x3c245bf6	0.010031691
36	0xbcac5c3e	-0.021040078
37	0x3df193df	0.11795782
38	0xbca73f06	-0.020415794
39	0xbd534736	-0.051581584
40	0xbd6a78f8	-0.05724427
41	0x3a6a9c43	0.00089496764
42	0x3e18bc93	0.14915685
43	0x3d3f07cb	0.04663829
44	0xbdda3ff3	-0.106567286
45	0xbb7252a3	-0.0036975525
46	0x3c7293b6	0.014805725
47	0xbd2c28f6	-0.04203125
48	0xbd217eff	-0.039427754
49	0xbcf23f26	-0.029571127
50	0x3be972d3	0.007124284
51	0xbc274405	-0.010209088
52	0x3e0c795c	0.1371817
53	0x3cf79a8b	0.030225059
54	0xbe0fc098	-0.14038312
55	0xbdfcfeeb	-0.12353309
56	0x3e0ade85	0.13561447
57	0x3dddf4b7	0.10837691
58	0xbc5617a3	-0.013067159
59	0x3df0b732	0.11753692
60	0x3d3a0790	0.04541737
61	0x3ca89f4e	0.020583775
62	0xbcef1474	-0.029184557
63	0xbd1df33c	-0.038562045
64	0x3d81d809	0.063400336
65	0x3cb5525b	0.022133997
66	0xbdba7aaf	-0.09105431
67	0xbde12f14	-0.109953076
68	0xbd9c46e7	-0.07630711
69	0x3c709597	0.0146841025
70	0x3b8edc8e	0.0043597883
71	0xbd41f14f	-0.04734927
72	0xbdad3d47	-0.08458953
73	0xbcb59538	-0.02216588
74	0x3c7ed87c	0.015554544
75	0x3e4b33c3	0.19843964
76	0xbcb33332	-0.021874998
77	0x3df5897b	0.11989113
78	0xbc2df384	-0.010617141
79	0x3cd02d84	0.025412329
80	0x3d0f2866	0.034950636
81	0x3df8a324	0.121404916
82	0xbdc881cc	-0.09790382
83	0xbcc822aa	-0.024430592
84	0x3d56de16	0.05245789
85	0xbe25a776	-0.16177163
86	0x3d8d4845	0.0689855
87	0x3d04a910	0.032387793
88	0xbbd2b35e	-0.0064300736
89	0x3d18a050	0.03726226
90	0x3da86cd2	0.08223881
91	0xbc7a7677	-0.015287033
92	0xbe3d3470	-0.18477035
93	0x3d52873b	0.051398497
94	0xbe0b576c	-0.13607568
95	0xbcd04bc2	-0.02542675
96	0x3c834955	0.016026178
97	0xbdcb6237	-0.09930842
98	0x3c4cfc06	0.012511259
99	0x3d7ed402	0.062213905
100	0x3c7e2bd4	0.015513379
101	0x3ba1b5b8	0.0049349926
102	0xbd397b68	-0.045283705
103	0xbd41f94c	-0.04735689
104	0x3c3ca08c	0.011512887
105	0xbd66c59a	-0.05634079
106	0x3dc69314	0.09696022
107	0xbd47dec3	-0.048796427
108	0xbdb366d0	-0.08759844
109	0x3c40bda2	0.011763962
110	0x3ce2783a	0.02764522
111	0xbd136f48	-0.035994798
112	0x3daca236	0.08429377
113	0xbe18284f	-0.14859127
114	0xbd8061c6	-0.06268649
115	0x3c58921f	0.013218432
116	0xbc8bba0c	-0.017056488
117	0xbda98928	-0.082781136
118	0x3df5869a	0.11988564
119	0xbdda088c	-0.106461614
120	0x3de42d68	0.11141473
121	0x3da24332	0.07922973
122	0xbd87a83a	-0.066238835
123	0x3c61ff1a	0.013793731
124	0xbd609106	-0.054825805
125	0xbde428ac	-0.1114057
126	0xbcbf1a57	-0.02332799
127	0xbbc90248	-0.006134305
128	0xbd526816	-0.051368795
129	0xbe0c62e2	-0.13709596
130	0xbd48e564	-0.04904689
131	0xbcc3333e	-0.023828145
132	0x3c54ed28	0.012995996
133	0x3d3a454b	0.04547624
134	0x3c816c02	0.015798572
135	0xbdccb677	-0.0999574
136	0xbdb85634	-0.09000817
137	0xbbb0e2b0	-0.005398117
138	0x3e0beccb	0.13664548
139	0x3d0405a7	0.032231953
140	0x3e10c279	0.14136685
141	0x3ce8667b	0.028369179
142	0x3e036231	0.12830426
143	0x3d2978ea	0.04137508
144	0x3bc2c7aa	0.005944212
145	0x3d8ea556	0.06965129
146	0x3da18653	0.078869484
147	0x3a8a650c	0.0010558679
148	0xbdc42926	-0.09578161
149	0xbbfdd253	-0.00774602
150	0xbd9cbc0a	-0.07653053
151	0xbdfcc51e	-0.123422846
152	0xbd599d18	-0.053128332
153	0x3d80e7eb	0.06294235
154	0x3dc8c152	0.09802498
155	0x3d9a1454	0.075234085
156	0x3dc13a30	0.094349265
157	0x3e2d6cf8	0.169361
158	0xbe572ac6	-0.2101241
159	0xbc908972	-0.017643664
160	0xbd12ff6b	-0.035888117
161	0xbe256362	-0.16151193
162	0xbd99ddae	-0.07512985
163	0x3cbc5ae2	0.022992555
164	0xbc87333e	-0.016503926
165	0xbd97e38c	-0.07416448
166	0xbd4052a4	-0.046953812
167	0xbd237cfe	-0.039914124
168	0xbcd71657	-0.02625577
169	0x3c8bd764	0.01707048
170	0xbc23b314	-0.009991426
171	0x3cb56ec7	0.02214755
172	0xbdd0b262	-0.10190274
173	0x3e04fd1b	0.12987177
174	0xbd637916	-0.0555354
175	0xbd02b842	-0.031914003
176	0xbe099232	-0.13434675
177	0xbd3a0268	-0.04541245
178	0xbd222de4	-0.039594546
179	0xbe250564	-0.16115338
180	0xbdf2d2f8	-0.11856645
181	0x3d88cc67	0.06679612
182	0x3da3b5e1	0.07993675
183	0x3d39aefc	0.045332894
184	0x3d9ec8b9	0.077531286
185	0xbc3cb58a	-0.011517892
186	0x3b8a805a	0.0042267265
187	0xbd1a8f6c	-0.037734434
188	0x3cef49e2	0.029210035
189	0x3d9478e9	0.07249624
190	0xbc114feb	-0.008869152
191	0xbdba12af	-0.09085595
192	0xbcabff67	-0.020995809
193	0x3d813270	0.06308448
194	0x3e3e2a07	0.1857072
195	0xbdb2446e	-0.08704458
196	0xbc54b22a	-0.012981931
197	0xbd00aa32	-0.03141231
198	0x3d00face	0.031489186
199	0x39a41288	0.00031294324
200	0x3d253eb2	0.040342994
201	0xbdd0bd73	-0.101923846
202	0xbc123ba6	-0.008925354
203	0xbd8d6af0	-0.06905162
204	0xbdf548fa	-0.1197681
205	0x3e0459e0	0.1292491
206	0x3d113da2	0.03545917
207	0x3d1ae7d2	0.037818737
208	0xbccd5cdf	-0.025068698
209	0x3e33f99a	0.17575684
210	0xbddc1b8a	-0.1074744
211	0x3d1e26ce	0.038611226
212	0xbbe5812a	-0.007003923
213	0xbbb7ffd7	-0.0056152153
214	0xbd2e0898	-0.042488664
215	0x3c4f72fa	0.01266169
216	0x3dea2d0a	0.11434372
217	0xbdcd94b0	-0.100381255
218	0xbd125356	-0.035724007
219	0x3d7d7400	0.061878204
220	0x3c3f8b22	0.011690887
221	0xbdcc1d03	-0.09966471
222	0xbdb5b8d4	-0.08873144
223	0x3d105e69	0.035246287
224	0x3de8b016	0.11361711
225	0xbd912d4a	-0.07088716
226	0xbdd97848	-0.10618645
227	0xbda0616a	-0.0783108
228	0xbb1ec421	-0.0024225789
229	0x3d22ac3c	0.039715037
230	0x3d90d362	0.07071568
231	0x3dd84354	0.10559717
232	0x3db09dfc	0.08623883
233	0xbc90377d	-0.017604584
234	0xbd3f3d80	-0.04668951
235	0x3be07413	0.0068497746
236	0xbc19b198	-0.009380721
237	0x3df7bdb4	0.1209673
238	0x3dd5f81c	0.10447714
239	0xbc31cf82	-0.010852696
240	0x3d852278	0.06500715
241	0x3c31a0b4	0.010841537
242	0xbc2fb297	-0.0107237315
243	0x3e11c27c	0.14234346
244	0x3d603976	0.0547423
245	0xbd3a9bf4	-0.045558885
246	0x3db1858f	0.086680524
247	0x3a070e34	0.0005151958
248	0xbcdb29ab	-0.026753267
249	0xbdeeaeb3	-0.11654415
250	0x3d0342d6	0.03204616
251	0x3c44d04a	0.012012551
252	0xbdafbc07	-0.08580785
253	0xbe657a9a	-0.2241005
254	0xbd8af7b2	-0.067855254
255	0x3cc9dfe2	0.024642888

enc2.0.weight f4 [32, 1, 3, 3]
0	0xbe1a9926	-0.15097484
1	0xbd90e8ae	-0.0707563
2	0xbbb641af	-0.0055620293
3	0x3ce6433b	0.02810823
4	0x3cadde1b	0.021224072
5	0xbd96ca02	-0.07362749
6	0xbd296e41	-0.041364912
7	0x3cd4a428	0.025957182
8	0xbcb9a40b	-0.02266123
9	0x3d948026	0.07251005
10	0x3d9bd196	0.07608335
11	0xbd133985	-0.035943527
12	0xbdbd6ebb	-0.09249636
13	0x3d90fd3e	0.07079552
14	0x3e098963	0.13431315
15	0x3da08d64	0.07839468
16	0x3c793222	0.0152097065
17	0x3d3d7e2f	0.046262916
18	0x3d3f43c7	0.046695497
19	0x3c7d9fb4	0.015479971
20	0xbdb1103c	-0.086456746
21	0x3d214545	0.0393727
22	0x3d03b851	0.0321582
23	0xbdab415b	-0.08362075
24	0x3d9987a3	0.07496574
25	0xbce81db8	-0.028334484
26	0x3d091dd8	0.033475727
27	0x3da2a8b2	0.07942332
28	0xbccf1572	-0.02527878
29	0x3e0f356f	0.13985227
30	0x3cddc276	0.027070265
31	0x3ce38f8a	0.027778406
32	0xbd02db66	-0.031947516
33	0x3cc648db	0.024204662
34	0x3dbe179f	0.09281849
35	0x3cd8f743	0.026485091
36	0xbd336480	-0.043797016
37	0xbe026f68	-0.1273781
38	0x3d06c57c	0.03290318
39	0x3c10726a	0.008816341
40	0xbd427bdf	-0.047481414
41	0xbe13302c	-0.14373845
42	0xbdb7e834	-0.08979836
43	0xbdcf682f	-0.10127293
44	0x3d41ab5f	0.047282573
45	0x3e6821cb	0.22669141
46	0xbc214dbe	-0.009845195
47	0x3d8392ae	0.06424461
48	0xbdc98bdb	-0.098411284
49	0x3d145e60	0.036222816
50	0xbbe1c473	-0.0068898736
51	0xbdb226e3	-0.08698823
52	0x3d9f85ce	0.07789193
53	0xbcb66853	-0.022266543
54	0x3dc8cfdb	0.0980527
55	0x3e0d22d0	0.13782811
56	0xbb48920c	-0.003060463
57	0x3cba18ef	0.022716967
58	0x3d6fa254	0.058504418
59	0x3cbba324	0.02290494
60	0xbd2792e9	-0.04091159
61	0x3e3a2d72	0.18181399
62	0xbd27d2c1	-0.040972475
63	0x3cf92448	0.030412808
64	0xbd8600ba	-0.06543107
65	0x3cef1b73	0.029187893
66	0x3e0dcfe0	0.1384883
67	0x3d9c2a26	0.07625227
68	0xbd1aa810	-0.037757933
69	0x3cedde7a	0.02903675
70	0xbcad67dc	-0.021167688
71	0xbc9dc99d	-0.019261176
72	0x3d53aaae	0.051676445
73	0xbd991377	-0.07474416
74	0xbc3c0e22	-0.011477979
75	0xbc796132	-0.015220927
76	0xbc9420e8	-0.018082097
77	0x3c1f2c44	0.009715144
78	0x3d054f3c	0.032546267
79	0xbe5016fe	-0.20321271
80	0x3cd25bfb	0.025678625
81	0xbda96174	-0.08270541
82	0xbe762c38	-0.24040306
83	0xbd0f8ac0	-0.03504443
84	0x3dd91ce3	0.10601213
85	0x3cf46dea	0.029837567
86	0x3d68b894	0.056816652
87	0xbd694553	-0.05695088
88	0x3e13bc9c	0.14427418
89	0xbde2f8c8	-0.110826075
90	0xbdc4409b	-0.09582635
91	0x3e75e166	0.24011764
92	0xbda72694	-0.08161655
93	0x3b5a63ca	0.003332364
94	0xbe0b79c0	-0.13620663
95	0x3d21d416	0.0395089
96	0x3b5de216	0.0033856682
97	0xbdd89454	-0.10575166
98	0xbdacd203	-0.08438494
99	0xbd9e8066	-0.07739334
100	0xbd87d5fb	-0.066326104
101	0x3b9ebe39	0.0048444537
102	0x3e1027c7	0.14077674
103	0xbd39331f	-0.04521477
104	0x3d3f6384	0.046725765
105	0xbdcd5d06	-0.100275084
106	0xbca93c30	-0.020658582
107	0xbddbc3f3	-0.10730734
108	0xbd3ae69c	-0.045630082
109	0xbc86bb79	-0.016446816
110	0x3da6b21d	0.08139441
111	0xbd3cc1ef	-0.046083387
112	0xbda21c80	-0.07915592
113	0x3b884fec	0.004159918
114	0xbd84ccb6	-0.06484358
115	0xbbfdbc8a	-0.007743423
116	0xbc9c41de	-0.019074377
117	0xbd0e641a	-0.034763433
118	0xbd8a936f	-0.06766402
119	0x3d5e6f18	0.054305166
120	0xbd78be04	-0.060728088
121	0x3dae7037	0.08517497
122	0x3cd91e5a	0.02650373
123	0xbdc4a84e	-0.09602414
124	0xbdb966f0	-0.09052837
125	0x3d0edba4	0.034877434
126	0x3d993946	0.07481627
127	0xbd92a3d6	-0.071601555
128	0x3b7eee37	0.0038899311
129	0xbd98b3e7	-0.07456189
130	0x3d8d0cef	0.068872325
131	0xbc924860	-0.017856777
132	0xbd2f3c16	-0.04278191
133	0xbe1c7e8c	-0.15282649
134	0xbaedd2e7	-0.0018144519
135	0x3daa498e	0.08314811
136	0x3b905fe7	0.0044059637
137	0x3d082afe	0.033244126
138	0x3d2f37b4	0.042777732
139	0xbdc64886	-0.096818015
140	0x3ce66dac	0.028128468
141	0x3de3da80	0.1112566
142	0xbdcba2f3	-0.099431895
143	0x3e2d1014	0.16900665
144	0xbdc1fb14	-0.094717175
145	0xbc7426b7	-0.014901808
146	0x3d093c02	0.033504494
147	0x3ba57c5a	0.0050502243
148	0xbd8b0265	-0.06787566
149	0xbe5e30d8	-0.2169832
150	0xbb598ece	-0.003319669
151	0xbc18105d	-0.009281245
152	0x3cf72668	0.03016968
153	0xbd6fc58a	-0.058537997
154	0x3dbc666b	0.09199222
155	0xbc82b87e	-0.015957113
156	0x3a26c2d8	0.00063614314
157	0x3d06adf7	0.03288075
158	0x3d0e7718	0.034781545
159	0x3cd825ab	0.026385149
160	0xbdc1e13b	-0.094667874
161	0xbd6e8307	-0.058230426
162	0xbd194ddc	-0.037427768
163	0xbddb8798	-0.10719222
164	0xbe243a2e	-0.16037819
165	0x3bf9bbae	0.00762125
166	0xbc30df6b	-0.0107954545
167	0x3d8aa4bf	0.06769704
168	0xbdb1847f	-0.0866785
169	0x3dd0566a	0.10172732
170	0xbe02b34a	-0.12763706
171	0x3c1520b8	0.009102039
172	0x3d66745b	0.05626331
173	0xbdc2629e	-0.09491466
174	0xbc4fc794	-0.0126818605
175	0xbcdc06ff	-0.026858805
176	0x3d051dc8	0.032499105
177	0x3e3641cf	0.17798541
178	0x3c8c22f5	0.017106513
179	0x3d749a18	0.059717268
180	0x3dc02c4e	0.093834504
181	0xbe15fc3a	-0.14646998
182	0xbd9dcfc2	-0.07705642
183	0xbdca5cf8	-0.09881014
184	0x3dbfc3e3	0.09363534
185	0xbddb779c	-0.10716173
186	0x3d8374d7	0.0641877
187	0x3d40002c	0.046875164
188	0xbd50e32f	-0.05099791
189	0x3bbde77c	0.0057954174
190	0xbdd92888	-0.10603434
191	0x3e3a1362	0.18171456
192	0xbd8c3451	-0.06845916
193	0xbd35d4c4	-0.044392362
194	0x3d855b24	0.06511524
195	0x3c0758c6	0.008260911
196	0xbd79a4db	-0.060948234
197	0x3d475f08	0.048674613
198	0x3d449a80	0.047998905
199	0x3c6b486f	0.014360531
200	0x3cf837a4	0.030299969
201	0xbe058be6	-0.13041648
202	0xbdca2276	-0.09869854
203	0x3d744617	0.059637155
204	0x3d832f5f	0.0640552
205	0xbda77ae6	-0.08177738
206	0x3ce82b50	0.028340966
207	0xbce09d1e	-0.02741867
208	0xbe0efe0e	-0.13964102
209	0x3e3a56d0	0.18197179
210	0xbe25623f	-0.16150759
211	0x3d8ffa0e	0.07030116
212	0x3ce6e8d6	0.028187197
213	0x3e55d130	0.2088058
214	0xbe40d730	-0.18832088
215	0x395b1c33	0.00020895973
216	0xbcd24b8c	-0.02567079
217	0xbd7e85f3	-0.062139463
218	0x3d8a270c	0.06745729
219	0xbd444cdb	-0.047924858
220	0xbd0f034d	-0.034915257
221	0xbdc43043	-0.09579518
222	0xbdb17f87	-0.08666902
223	0x3d6f08a7	0.05835786
224	0x3d6c5d6a	0.057706274
225	0xbe186df2	-0.14885691
226	0xbc72c89f	-0.01481834
227	0xbe1262a2	-0.14295438
228	0xbbce4776	-0.00629514
229	0x3d89ed9a	0.06734772
230	0x3c9844fa	0.018587578
231	0xbd66d048	-0.056350976
232	0xbdfb624e	-0.122746095
233	0xbcd80bb8	-0.026372775
234	0x3cd35397	0.025796695
235	0x3bba5098	0.005685877
236	0x3d330f1e	0.04371559
237	0x3d81f3e4	0.063453466
238	0x3e6a8262	0.229013
239	0xbe27c52a	-0.16383806
240	0x3d88b99a	0.06676026
241	0xbe022325	-0.12708719
242	0x3deb7c02	0.11498262
243	0xbd93f1dd	-0.07223866
244	0x3cdd36db	0.027003696
245	0xbdaf91cf	-0.08572733
246	0x3e0efaf9	0.13962926
247	0xbe023fa8	-0.12719595
248	0xbd0d0b46	-0.03443458
249	0xbd0314ef	-0.032002386
250	0x3da69998	0.081347644
251	0xbcc04d2a	-0.023474295
252	0x3d9c7cc2	0.07640983
253	0xbc7bc557	-0.015366874
254	0x3d8291b5	0.06375448
255	0xbd331ffb	-0.04373167

enc3.0.weight f4 [64, 1, 3, 3]
0	0xbd10cbf5	-0.03535076
1	0xbd31ee94	-0.043440416
2	0xbd07567e	-0.03304147
3	0xbcb01c60	-0.021497905
4	0xbd588346	-0.052859567
5	0xbdf0cc09	-0.117576666
6	0xbd7d2075	-0.06179853
7	0x3caf5ee2	0.021407548
8	0x3d550884	0.052010074
9	0x3d6ee25d	0.058321346
10	0x3d33ef86	0.0439296
11	0x3df2d744	0.11857465
12	0x3c118eee	0.008884175
13	0x3df07d92	0.11742701
14	0xbd6564e7	-0.05600443
15	0xbd751ff5	-0.05984493
16	0x3d937d49	0.072016306
17	0xbd2642c7	-0.040591028
18	0xbd5c8f43	-0.053847563
19	0x3bce8d06	0.0063034324
20	0x3ca799e4	0.020459123
21	0xbd32fbc3	-0.04369713
22	0xbd09230d	-0.033480693
23	0xbc955907	-0.018230928
24	0x3d5e6dbf	0.05430388
25	0x3cc4f50b	0.024042627
26	0x3c7bfb17	0.015379689
27	0xba9c2b49	-0.0011914755
28	0xbc7f58c0	-0.0155851245
29	0x3cc08d50	0.023504883
30	0x3d20e5f3	0.039281797
31	0xbb680365	-0.0035402414
32	0xbba05abb	-0.0048936284
33	0x3df61925	0.12016515
34	0x3cb23bb8	0.021756992
35	0xbbfd6acb	-0.007733678
36	0x3d7bfe24	0.061521664
37	0x3d837cfd	0.06420324
38	0x3b819c79	0.0039554206
39	0xbc37a970	-0.011209831
40	0x3dd98294	0.10620609
41	0xbce312fa	-0.02771901
42	0xbc9321fc	-0.017960541
43	0x3d3a7e09	0.045530353
44	0x3da502b9	0.0805716
45	0xbcb18f72	-0.021674845
46	0xbd8d17b4	-0.06889287
47	0x3d1d1182	0.038346775
48	0x3d00c312	0.031436034
49	0xbcb81755	-0.022472063
50	0x3b50d3d4	0.003186454
51	0x3d3980e1	0.045288924
52	0x3cf48192	0.02984694
53	0x3d7272d2	0.059191532
54	0x3a94252e	0.0011302584
55	0xbca1c093	-0.019745147
56	0xbde744a0	-0.11292386
57	0x3bd91eac	0.006625971
58	0xbd1178f1	-0.03551573
59	0x3c4869d6	0.0122322645
60	0xbd480ed2	-0.04884226
61	0xbd6f9698	-0.058493227
62	0x3d2dc2e2	0.042422183
63	0x3d98df4d	0.07464466
64	0x3d705663	0.058676135
65	0x3bea5e5c	0.007152362
66	0x3d11b6ff	0.03557491
67	0x3cff8c5b	0.031194856
68	0xbd29d047	-0.041458394
69	0x3cf64b19	0.030065106
70	0x3d7c5f6f	0.06161445
71	0xbd63b1b3	-0.05558939
72	0x3ce2a530	0.027666658
73	0xbc4d648f	-0.012536182
74	0xbd313e45	-0.043272275
75	0x3d0fe1e6	0.035127543
76	0xbcc4937c	-0.023996107
77	0xbd2f1166	-0.0427412
78	0x3da4f87a	0.08055206
79	0xbccea0d4	-0.025223173
80	0xbe077d6d	-0.1323144
81	0xbc46e81f	-0.012140303
82	0x3d73f918	0.059563726
83	0xbd252074	-0.040314153
84	0x3c191f01	0.009345771
85	0x3d54340a	0.05180744
86	0x3dc22b28	0.09480888
87	0x3d031fec	0.032012865
88	0x3d3c6f8a	0.04600481
89	0x3deac2c8	0.11462933
90	0x3dc4d5ae	0.09611069
91	0x3c57466f	0.013139351
92	0x3d8c9b57	0.06865566
93	0x3c28a807	0.010293967
94	0x3d7df0b4	0.06199713
95	0x3d4813ce	0.048847012
96	0xbd1ae192	-0.037812777
97	0x3c24bbf4	0.010054577
98	0x3885bb6d	6.376845e-05
99	0xbd4a6d88	-0.049420863
100	0x3dd3884c	0.10328731
101	0xbd0df12a	-0.03465382
102	0xbc8f8ef7	-0.017524226
103	0x3d75e0fd	0.06002902
104	0x3c47d973	0.01219784
105	0x3d2bb6ff	0.041922566
106	0x3d62f7d2	0.05541212
107	0xbd716e24	-0.05894293
108	0x3d20ff18	0.039305776
109	0xbd2b5cf7	-0.041836705
110	0x3d7e5579	0.06209323
111	0xbd7db149	-0.06193665
112	0xbb6a9616	-0.0035795025
113	0x3db9cb67	0.09071999
114	0x3c4aa5ab	0.0123686
115	0xbdd99e81	-0.10625935
116	0x3d47a3b1	0.048740093
117	0xbd5d1b75	-0.053981263
118	0x3da96431	0.08271063
119	0xbd57c8dd	-0.052681793
120	0x3d800ccf	0.06252443
121	0x3da5c296	0.08093755
122	0xbd517b9b	-0.05114327
123	0x3daca431	0.084297545
124	0x3b017ee2	0.0019759466
125	0xbc1ec08f	-0.009689464
126	0x3db68528	0.08912116
127	0x3cec4bc4	0.028844722
128	0x3d402c02	0.04691697
129	0xbd27faf1	-0.0410108
130	0xbd37dd06	-0.04488852
131	0xbcd48fc9	-0.025947468
132	0x3d0f5b1c	0.034998998
133	0x3d61cb79	0.055125687
134	0xbb55a3d3	-0.0032598868
135	0xbd975e51	-0.07391036
136	0x3ccbce83	0.024878746
137	0x39e6a2e7	0.0004399039
138	0x3bac643d	0.005260973
139	0xbd1fcc00	-0.03901291
140	0xbc52e918	-0.012872957
141	0xbd651788	-0.055930644
142	0xbdb852fa	-0.090002015
143	0xbc7f2fff	-0.015575408
144	0xbdefb497	-0.11704367
145	0x3cdf52d6	0.027261179
146	0x3df14424	0.11780575
147	0xbd8b49bf	-0.06801175
148	0xbc6695bc	-0.014073785
149	0x3c818f06	0.01581527
150	0xbd8acb13	-0.067770146
151	0x3cab0d9c	0.020880513
152	0xbab9f88d	-0.0014188454
153	0x3db7a710	0.089674115
154	0xbccd0865	-0.025028417
155	0xbd911c36	-0.07085459
156	0xbbe76f1a	-0.007062805
157	0xbb2c2efc	-0.0026273122
158	0x3dd38868	0.10328752
159	0x3c3b3d2d	0.01142816
160	0xbdb11578	-0.08646673
161	0xbcee2f01	-0.029075148
162	0xbdf61f3b	-0.120176755
163	0x3cfdc72b	0.03097876
164	0x3bb545ad	0.0055319876
165	0x3bc11dbc	0.005893437
166	0xbcc7884b	-0.024356982
167	0x3ded55a0	0.11588597
168	0x3d8cbb3b	0.06871649
169	0xbd19c4f7	-0.037541356
170	0xbc0fe6ca	-0.008783052
171	0xbe1dbcfe	-0.15404126
172	0xbb9f7d0e	-0.0048672026
173	0x3de995de	0.11405538
174	0xbd13007a	-0.035889126
175	0x3d8f16e6	0.069867894
176	0x3d757b7f	0.05993223
177	0x3ba2882f	0.004960082
178	0x3ca71246	0.020394456
179	0xbd12de0a	-0.035856284
180	0xbcd0c4be	-0.025484439
181	0x3be0dc09	0.0068621677
182	0x3c2d3905	0.010572677
183	0xbc9c5fb9	-0.019088613
184	0xbcf878e7	-0.030331088
185	0xbdd263e1	-0.10272957
186	0xbcfc4eb9	-0.030799257
187	0xbc26e3f3	-0.010186183
188	0xbbe4626e	-0.0069697415
189	0x3cc7cbc8	0.024389163
190	0x3d87713f	0.06613397
191	0x3b8df2ac	0.0043319073
192	0xbd501c65	-0.05080833
193	0xbd34cd5c	-0.04414116
194	0x3cab8e58	0.020941898
195	0x3d2e550d	0.04256158
196	0xbd17eaf0	-0.03708929
197	0x3b295161	0.002583586
198	0xbd6d0ae0	-0.0578717
199	0x3ddf1d4d	0.108942606
200	0xbbae466f	-0.005318455
201	0xbd578f09	-0.052626643
202	0xbc19ee48	-0.00939519
203	0x39743589	0.00023289597
204	0x3d28dfee	0.04122918
205	0x3d9eb326	0.077490136
206	0xbd6b8a4f	-0.05750495
207	0xbd101a49	-0.035181317
208	0xbd832071	-0.06402672
209	0x3bae291f	0.0053149606
210	0xbd6ab9eb	-0.05730621
211	0xbd94a93d	-0.07258842
212	0xbc94771a	-0.018123198
213	0x3dd38d36	0.10329668
214	0x3d1e6e43	0.038679373
215	0xbd57e32a	-0.052706875
216	0xbcf336ed	-0.029689277
217	0xbd198093	-0.037476134
218	0xbd3c4f19	-0.04597387
219	0x3d8aeb34	0.06783143
220	0xbdf9b1ce	-0.12192117
221	0x3cebfc9f	0.028806983
222	0xbdcd54ef	-0.100259654
223	0x3deb31c2	0.114841
224	0xbddfff07	-0.109373145
225	0xbd1851ee	-0.03718751
226	0xbc93a209	-0.0180216
227	0xbc06a4ec	-0.008218031
228	0xbada359b	-0.0016648056
229	0xbdcc273e	-0.09968422
230	0x3ce68059	0.028137373
231	0xbbe4eb29	-0.006986041
232	0xbcabb720	-0.020961344
233	0xbd915f1e	-0.0709822
234	0x3d70dfc1	0.05880714
235	0xbc995325	-0.018716404
236	0xbd22a30b	-0.03970627
237	0x3d262f8f	0.0405727
238	0xbcf94807	-0.030429853
239	0x3c678e71	0.014133082
240	0x3d84d34a	0.06485613
241	0xbd1494dc	-0.036274776
242	0x3daa89d1	0.08327068
243	0xbcbab687	-0.022792114
244	0xbd22e17c	-0.03976582
245	0xbcc72b3e	-0.024312612
246	0xbd9353fa	-0.07193752
247	0xbb2cbdc1	-0.002635822
248	0xbddbfc51	-0.10741485
249	0xbced81a0	-0.028992474
250	0xbb362ea7	-0.0027798803
251	0xbc6092b8	-0.0137068555
252	0xbc78ba5b	-0.015181149
253	0x3dd2c726	0.10291891
254	0xbd64f809	-0.055900607
255	0xbdd7bc9b	-0.105340205

dec1.0.weight f4 [192, 1, 3, 3]
0	0x3d0316de	0.03200423
1	0x3c0fe9d5	0.008783777
2	0x3bd8ef30	0.0066203102
3	0x3b184b64	0.0023238296
4	0xbc7eef60	-0.015560001
5	0x3cb57289	0.022149341
6	0x3b5a1e02	0.0033282046
7	0x3d2c478e	0.042060427
8	0x3da0fa33	0.07860222
9	0x3b99d946	0.0046950905
10	0xbca6567f	-0.020304916
11	0xbd0bf131	-0.034165565
12	0x3c28c7bc	0.010301527
13	0x3cabc6a9	0.020968752
14	0x3cacc0f2	0.021088097
15	0x3bcea5c6	0.006306383
16	0xbd851db6	-0.064998075
17	0xbd38672c	-0.045020267
18	0x3c110484	0.008851174
19	0x3b944da4	0.004525857
20	0xbcacdce2	-0.021101419
21	0x3a225c37	0.00061935507
22	0xbc9a2c2e	-0.018819895
23	0xbd4770d0	-0.04869157
24	0xbca898bb	-0.02058064
25	0x3c4d7265	0.012539481
26	0xbcfb3750	-0.030666023
27	0xbce7832f	-0.028260795
28	0x3c3d5eeb	0.011558275
29	0x3ae5ec9f	0.0017541832
30	0xbc73f029	-0.014888802
31	0x3d7479d1	0.059686486
32	0xbcd84073	-0.02639792
33	0x3d05752b	0.032582443
34	0xbcaea822	-0.021320406
35	0xbba6e936	-0.005093719
36	0x3ca02b95	0.019552032
37	0xbcc5d419	-0.024148988
38	0x3c4e3998	0.012586974
39	0x3b57e84a	0.0032944852
40	0xbd295799	-0.041343305
41	0x3c12d544	0.008961979
42	0x3bfe9393	0.007769057
43	0xbd08160e	-0.033224158
44	0xbd21104f	-0.039322194
45	0xbd5316c5	-0.051535387
46	0xbb912167	-0.0044290307
47	0x3ce391e1	0.027779521
48	0x3d165e99	0.03671131
49	0x3d26fd38	0.040768832
50	0xbd1ee987	-0.038796928
51	0xbc990839	-0.018680679
52	0x3d07e3f0	0.033176363
53	0x3b63bddc	0.0034750616
54	0xbc97e2db	-0.01854079
55	0x3c8d2864	0.017231174
56	0x3d177e4d	0.036985684
57	0x3cdf73b7	0.027276857
58	0x3c0a6bfd	0.008448598
59	0x3d25b5df	0.04045665
60	0xbc57c6e1	-0.013169975
61	0x3c8aebaa	0.016958077
62	0x38569a7a	5.1165443e-05
63	0xbd292374	-0.041293576
64	0xbb959caa	-0.004565795
65	0xbcc1673a	-0.023608793
66	0x3be782b1	0.00706514
67	0x39ac3f4e	0.00032853562
68	0xbd22db11	-0.0397597
69	0x3d7fefa6	0.062484406
70	0x3ca6d03d	0.020362968
71	0x3c8658a4	0.016399689
72	0xbd81837a	-0.06323905
73	0xbc6ff8e0	-0.014646739
74	0x3d2ac553	0.04169209
75	0x3c8ae85c	0.0169565
76	0x3db02b08	0.086019576
77	0xbc5b3940	-0.013380349
78	0xbd007120	-0.031357884
79	0x3d55e11e	0.05221664
80	0x3ad2f434	0.0016094507
81	0x3c59806f	0.01327525
82	0xbd1535f9	-0.036428425
83	0x3c52d48a	0.012868056
84	0x3d2e3f7e	0.04254102
85	0x3c72b0f6	0.014812699
86	0xbd13427e	-0.035952084
87	0xbca96c0e	-0.020681407
88	0x3d694254	0.05694802
89	0xbcf80cb2	-0.030279491
90	0xbbf6e59d	-0.0075346963
91	0x3cbd9dc9	0.023146527
92	0x3cc3c89e	0.023899373
93	0x3d375197	0.044755545
94	0xbbd638a4	-0.006537514
95	0x3c4058ba	0.011739904
96	0x3ccfc554	0.025362648
97	0x3c16594f	0.009176566
98	0x3d7348d5	0.05939563
99	0x3ca1f9ca	0.019772429
100	0xbd148119	-0.03625593
101	0xbc3d3300	-0.011547804
102	0x3c951510	0.01819852
103	0x3b8bf67a	0.0042713257
104	0x3c722931	0.014780329
105	0xbd1427fc	-0.036170945
106	0xbd09e79d	-0.03366815
107	0x3caef415	0.021356622
108	0xb9f68502	-0.00047019875
109	0xbb8a3941	-0.004218251
110	0xbd8614fe	-0.06546973
111	0xbd438929	-0.047738228
112	0xbccafe8c	-0.02477958
113	0xbc8bd6e8	-0.017070249
114	0x3c91e997	0.01781158
115	0xbd8bdf53	-0.06829705
116	0xba75868b	-0.0009366057
117	0x3d059fe9	0.032623205
118	0x3c7181f3	0.014740455
119	0x3c382985	0.011240368
120	0xbba16dd1	-0.004926421
121	0x3d03dafa	0.032191254
122	0x3d4bba9b	0.049738508
123	0x3d462a11	0.04837996
124	0x3cc06cdb	0.023489406
125	0x3c4f8358	0.012665592
126	0xbdac11fc	-0.08401868
127	0x3d37e354	0.04489453
128	0x3c916883	0.01775003
129	0xbd70c365	-0.058780093
130	0x3c0e6823	0.00869182
131	0x3c1a8716	0.009431621
132	0xbd0e8489	-0.034794364
133	0x3be62d21	0.0070244228
134	0xbc41c561	-0.011826844
135	0x3bfe6cdc	0.007764442
136	0x3b92b9f9	0.004477736
137	0xbc852c81	-0.016256573
138	0xbc43d9dd	-0.011953798
139	0xbb2745b0	-0.0025523715
140	0x3c9b268c	0.018939279
141	0x3dc07d42	0.09398891
142	0x3d798bd2	0.06092436
143	0xbd236ab2	-0.039896674
144	0xbb4f2cd9	-0.0031612425
145	0xbd396014	-0.045257643
146	0x3b64ce54	0.003491302
147	0x3d327754	0.04357083
148	0x3da8c6a4	0.08241013
149	0x3cfcb004	0.03084565
150	0x3c382304	0.011238817
151	0x3ba76790	0.005108781
152	0xbd16efb6	-0.0368497
153	0x3b44dc43	0.0030038513
154	0xbc43dc98	-0.011954449
155	0xbc4c4e39	-0.012469822
156	0x3da30118	0.07959193
157	0xbd2f2ddb	-0.04276834
158	0x3cfbc6a5	0.03073437
159	0xbd02e70a	-0.031958617
160	0xb8cc27fa	-9.734924e-05
161	0xbc67a159	-0.014137589
162	0x3d0dfc9a	0.034664728
163	0xbb044874	-0.0020184787
164	0xbcc40b53	-0.023931181
165	0xbd0c2733	-0.03421707
166	0xbcb7469b	-0.022372534
167	0xbd3e63ea	-0.046482004
168	0xbca09076	-0.019600134
169	0xbc4a4810	-0.012346283
170	0xbd42e0ea	-0.047577776
171	0xbd22e3fc	-0.039768204
172	0x3d1d7a70	0.038446844
173	0xbd273556	-0.04082235
174	0x3b6b740a	0.003592732
175	0x3c6f0195	0.0145877795
176	0xbd4e882f	-0.050422844
177	0x3d815c97	0.06316488
178	0xbc1b2734	-0.009469796
179	0x3d120da8	0.035657555
180	0x3d823089	0.063569136
181	0x3cf37114	0.029717006
182	0xbd8fd40f	-0.07022869
183	0xbd08e6a5	-0.033423085
184	0x3cb412eb	0.021981677
185	0x3cc98fe8	0.024604753
186	0x3b8ae0aa	0.004238208
187	0x3d4bd5ce	0.049764447
188	0x3d06a660	0.03287351
189	0xbdca3f14	-0.098753124
190	0x3c70e053	0.014701921
191	0xbc0ad8b5	-0.008474519
192	0x3d4ab178	0.049485654
193	0x3cc02411	0.023454698
194	0x3c1de090	0.009636059
195	0xbd6c9d61	-0.057767276
196	0xbb2f8a8d	-0.0026785464
197	0xbbeb946b	-0.0071893237
198	0x3d3cbd39	0.046078894
199	0xbd0068b4	-0.031349853
200	0xbd11101e	-0.03541576
201	0xbce71f1c	-0.028213076
202	0xbdb5ecdd	-0.08883069
203	0x3c0c57f0	0.008565888
204	0xbd07499e	-0.03302919
205	0xbbcedb65	-0.006312775
206	0x3ca1a10b	0.019730112
207	0xbc033842	-0.008009018
208	0xbcfd85a9	-0.030947523
209	0x3c06d657	0.008229814
210	0xbbbfe20d	-0.005855805
211	0xb8079050	-3.232091e-05
212	0x3d01e540	0.03171277
213	0x3c9387ba	0.018009055
214	0xbcd1568f	-0.02555397
215	0xbc6a63ed	-0.014306051
216	0xbd31b33c	-0.04338382
217	0x3aabd14d	0.0013108641
218	0x3c365675	0.011129011
219	0xbccfcfe4	-0.025367685
220	0x3cada019	0.021194505
221	0x3cc0e06c	0.023544513
222	0x3d454173	0.04815812
223	0xbc76c192	-0.015060799
224	0xbc47b4f9	-0.012189143
225	0x3c9a6300	0.018846035
226	0x3c48884d	0.012239528
227	0x3cef1baa	0.029187996
228	0xbafc37be	-0.0019242687
229	0x3d0983cd	0.03357296
230	0x3d92760b	0.07151421
231	0x3c6ad8d4	0.014333922
232	0xbb9ac363	-0.004722999
233	0xbcbada7c	-0.02280926
234	0x3d5fb44b	0.0546153
235	0x3a98f567	0.0011669815
236	0x3c726179	0.014793747
237	0xbc8a3f0c	-0.016875766
238	0x3cd350bc	0.025795333
239	0xbd9b8e2a	-0.07595475
240	0xbc0f9d66	-0.008765554
241	0xbd497f1a	-0.04919348
242	0xbd966033	-0.07342567
243	0x3c6b5c56	0.014365276
244	0xbb8c58c2	-0.0042830417
245	0xbcf460dd	-0.029831344
246	0x3c06fa4e	0.008238388
247	0xbd05e6e9	-0.032690916
248	0xbcbf7d81	-0.023375275
249	0x3bb86695	0.005627463
250	0xbcf62920	-0.030048907
251	0x3da7e5e5	0.08198146
252	0x3d0d29d8	0.034463733
253	0xbd0ca980	-0.034341335
254	0xbd13b07f	-0.03605699
255	0xbb884ef4	-0.0041598026

dec2.0.weight f4 [96, 1, 3, 3]
0	0x3e04bccc	0.12962645
1	0xbd0e3593	-0.03471906
2	0xb96da749	-0.000226644
3	0x3cfc7938	0.03081952
4	0x3c7f89ce	0.01559682
5	0x3d07089b	0.03296719
6	0xbd57a664	-0.052648917
7	0x391bdefa	0.00014865017
8	0x3d4b626e	0.049654417
9	0x3ce8f99b	0.028439334
10	0x3d68ec30	0.05686587
11	0xbd0d42d7	-0.03448757
12	0x3d886093	0.06659045
13	0xbdb4af7b	-0.08822533
14	0x3d967990	0.07347405
15	0xbd45e7cf	-0.048316773
16	0x3cbae8ca	0.02281608
17	0x3c21426a	0.0098424945
18	0xbc9eb6cc	-0.019374274
19	0xbcfe210d	-0.03102162
20	0x3d2e00da	0.04248128
21	0xbce8e614	-0.028430022
22	0xbd563871	-0.05229992
23	0x3aaa5fa3	0.0012998473
24	0xbb62e941	-0.0034623893
25	0xbc9179df	-0.017758308
26	0x3b5de8f8	0.0033860784
27	0xbcd013b8	-0.025400028
28	0x3d807d67	0.062739186
29	0x3c1401a2	0.009033592
30	0xbb10b457	-0.0022080147
31	0x3bf21401	0.0073876386
32	0xbd527ce8	-0.05138865
33	0xbd80eea8	-0.0629552
34	0xbc428899	-0.011873388
35	0xbc8c27ff	-0.017108915
36	0xbd85ff69	-0.06542856
37	0xbd6faac7	-0.058512475
38	0xbd7683d9	-0.060184333
39	0x3ceaa17f	0.02864146
40	0x3cadeee3	0.021232074
41	0xbd9c6701	-0.07636834
42	0x3d4c7c30	0.049923122
43	0x3da73fa6	0.08166437
44	0xbcbf576f	-0.023357121
45	0x3c91540e	0.017740276
46	0xbd2bc290	-0.041933596
47	0x3d687be5	0.05675878
48	0x3cbd1c1c	0.023084693
49	0xbc9fefb4	-0.019523479
50	0x3c1f4a5b	0.009722318
51	0x3d88d08b	0.066804014
52	0xbd0f6b44	-0.035014406
53	0xbc6142d1	-0.01374884
54	0x3d1ba939	0.03800318
55	0x3dc8ced4	0.09805074
56	0x3b967881	0.004592002
57	0x3d5344f5	0.051579434
58	0x3c1076f9	0.008817428
59	0x3d2c9b57	0.04214033
60	0x3c036746	0.008020228
61	0x3cc698b4	0.024242736
62	0x3b155e88	0.002279194
63	0x3d06b02d	0.032882858
64	0xbd42c198	-0.047547907
65	0x3d8003a8	0.062506974
66	0xbc87b0f5	-0.016563872
67	0xbd10cb7a	-0.0353503
68	0x3c9e4397	0.019319339
69	0x3c87570f	0.016521005
70	0xbd05cb6f	-0.032664713
71	0xbb857270	-0.00407248
72	0x3c68ae32	0.014201688
73	0x3d5753e5	0.052570242
74	0x3b994b37	0.0046781558
75	0xbd8b316a	-0.06796534
76	0x3b3adeb8	0.0028514098
77	0x3cc153b6	0.023599487
78	0x3aa468cf	0.0012543442
79	0xba747883	-0.0009325819
80	0xbc0892cd	-0.008335781
81	0x3cc3bcf3	0.023893809
82	0xbb3b2f0d	-0.002856198
83	0xbb797e8e	-0.0038069817
84	0x3d420f69	0.047377978
85	0x3dc77664	0.09739378
86	0xbb26fda8	-0.002548078
87	0x3c6b3b9b	0.014357473
88	0x3bfebb92	0.007773825
89	0x3d768de3	0.060193907
90	0xbabfb533	-0.0014626145
91	0xbbc13fab	-0.0058974824
92	0x3c6b2de8	0.014354207
93	0x3b763ec1	0.0037574025
94	0xbce2375b	-0.027614286
95	0xbaa290fa	-0.0012402826
96	0x3d83b411	0.06430829
97	0xbc08475f	-0.008317797
98	0xbcea56d8	-0.028605863
99	0x3dc90a25	0.09816388
100	0xbbbc5ada	-0.005748135
101	0x3b90fbae	0.004424534
102	0x3ae46a45	0.001742669
103	0x3a734959	0.0009280644
104	0x3ce8548a	0.028360624
105	0x3dc1e380	0.0946722
106	0xbbca936e	-0.006182126
107	0x3d87daf4	0.06633559
108	0xbc00838e	-0.007843865
109	0x3b617647	0.0034402774
110	0x3d9f0992	0.07765497
111	0x3a3835d8	0.00070270663
112	0x3cfe9487	0.031076683
113	0xbcb903c9	-0.022584813
114	0xbdd3bca0	-0.10338712
115	0x3c2d075b	0.010560836
116	0x3c1edc5a	0.009696091
117	0x3cdedd12	0.027205024
118	0x3d991b1f	0.07475876
119	0xbc93aa46	-0.018025529
120	0x3c938906	0.018009674
121	0x3d1f665b	0.038915973
122	0xba9ae1c1	-0.0011816547
123	0xbc4ccc61	-0.0124999
124	0xbd5a48fe	-0.053292267
125	0x3ce7c6ae	0.02829298
126	0xbcd7ca75	-0.026341656
127	0xbd40657e	-0.04697179
128	0xbb49ed49	-0.00308116
129	0xbc60e435	-0.013726284
130	0xbdac3b3e	-0.08409737
131	0x3cdc4656	0.026889008
132	0x3d0e2004	0.0346985
133	0xbc39f7e9	-0.01135061
134	0xbda2580a	-0.07926948
135	0xbc457b59	-0.012053334
136	0x3dd38c91	0.10329545
137	0xbcc6cd8a	-0.02426793
138	0xbca509f6	-0.020146351
139	0x3d975de5	0.07390956
140	0xbd962751	-0.07331718
141	0x3bd93db9	0.0066296724
142	0x3d66be33	0.05633373
143	0xbc3f81c8	-0.011688657
144	0x3cdc0139	0.026856052
145	0xbcbef5d9	-0.023310589
146	0xbd898454	-0.06714693
147	0xbdd5fd8a	-0.10448749
148	0x3cedcecf	0.029029278
149	0x3c87a95c	0.016560249
150	0x3c33050f	0.010926499
151	0xbd2b8305	-0.041872997
152	0xb9c92495	-0.00038364963
153	0x3cf8624b	0.030320307
154	0x3cdf0539	0.02722417
155	0xbc1caca6	-0.009562647
156	0x3d6dc471	0.05804867
157	0xbcd309fb	-0.025761595
158	0x3da050c9	0.078279085
159	0x3d840576	0.06446354
160	0x3d307518	0.04308042
161	0x3d4b365a	0.04961238
162	0x3d43bb31	0.04778594
163	0x3c141b49	0.009039708
164	0xbd4fb367	-0.0507082
165	0x3d9cea5c	0.07661888
166	0x3bcde4b8	0.006283369
167	0x3d063e53	0.03277428
168	0x3de7fe7f	0.11327838
169	0x3c81f18c	0.015862249
170	0x3da7a18a	0.08185108
171	0x3cb5075d	0.022098238
172	0xbc9aa332	-0.018876646
173	0xbc3e2e9f	-0.011607795
174	0xbc22d50e	-0.0099384915
175	0x3d414794	0.047187403
176	0xbbef35ff	-0.007300138
177	0x3b22db10	0.002484981
178	0xbb50c65b	-0.003185651
179	0xbc818cbc	-0.015814178
180	0x3d1ca489	0.03824285
181	0xbd56d0d0	-0.052445233
182	0x3d9b21ca	0.07574804
183	0xbdb9da39	-0.09074826
184	0xbc8e50f5	-0.017372588
185	0xbd1d1085	-0.038345832
186	0xbd10573b	-0.03523944
187	0x3d5368e3	0.0516137
188	0xbd7b4fca	-0.06135539
189	0x3cfc38da	0.030788828
190	0xbd232343	-0.03982855
191	0x3c357122	0.011074336
192	0x3da141a2	0.078738466
193	0x3cbc0acb	0.022954365
194	0x3cd17c45	0.025571952
195	0x3d8a5811	0.067550786
196	0x3d72f4af	0.05931538
197	0x3cb9f93e	0.022701856
198	0xbca42d96	-0.020041268
199	0x3d8ccf70	0.06875503
200	0xbd2e9dff	-0.042631146
201	0x3cf287a7	0.0296057
202	0x3aadf25a	0.0013271079
203	0xbd597412	-0.05308921
204	0xbc9a936b	-0.018869122
205	0x3c714088	0.014724858
206	0x3d913a2f	0.07091176
207	0xbb766d17	-0.0037601644
208	0x3dd5a09a	0.10431023
209	0xbd56fac9	-0.05248526
210	0x3c8a3eb9	0.016875612
211	0x3d187274	0.037218526
212	0xbddfa6ae	-0.109204635
213	0x39f6a316	0.00047042285
214	0xbb5203f5	-0.0032045816
215	0xbd3f1d58	-0.046658844
216	0xbc2dc0f6	-0.0106050875
217	0x3c47e336	0.012200167
218	0xbac5b7ea	-0.0015084718
219	0x3d768b56	0.060191475
220	0xbc62720c	-0.013821136
221	0xbb068800	-0.002052784
222	0x3ce4e32d	0.027940357
223	0x3c3fc389	0.011704334
224	0xbdbd15dd	-0.09232686
225	0x3c7a5856	0.01527985
226	0x3d39fefd	0.04540919
227	0x3cad7643	0.021174556
228	0xbcb315cb	-0.021860978
229	0xbda264ea	-0.07929404
230	0x3d76d006	0.06025698
231	0x3c474953	0.012163478
232	0xbdaaf395	-0.08347241
233	0x3c08eeef	0.008357747
234	0xbd907249	-0.07053048
235	0xbd88aa9a	-0.06673165
236	0x3d038b32	0.03211517
237	0xbc2e2759	-0.010629498
238	0x3c6f9ceb	0.0146248145
239	0x3d03710c	0.03209023
240	0x3cc996da	0.024608064
241	0xbd9e8ecd	-0.07742081
242	0xbc8f5962	-0.017498676
243	0x3cf0fa70	0.029416293
244	0x3db17341	0.08664561
245	0xbd9a3acc	-0.07530746
246	0xbd123057	-0.03569063
247	0x3cd84b11	0.026402982
248	0x3bba5c05	0.005687239
249	0xbd9b3a9d	-0.07579539
250	0xbd56e961	-0.05246866
251	0xbc799149	-0.015232393
252	0x3d0e9f9f	0.034820195
253	0xbcedd954	-0.029034294
254	0x3cdf7a44	0.02727998
255	0xbd17b32a	-0.0370361

final_conv.weight f4 [9, 32, 1, 1]
0	0xbe7eb469	-0.24873509
1	0x3d102df2	0.035200067
2	0x3e4ccbba	0.1999959
3	0xbe8109d8	-0.25202823
4	0xbf0c4145	-0.54787093
5	0xbd3021b7	-0.043000903
6	0xbef6623a	-0.48121816
7	0x3e908e48	0.28233552
8	0x3dd93122	0.106050745
9	0x3e50f3d0	0.20405507
10	0xbed97183	-0.42469415
11	0xbec2c9c0	-0.38044548
12	0x3f1f7e81	0.62302405
13	0xbedd4406	-0.4321596
14	0x3e4beb83	0.1991406
15	0xbe197ef9	-0.14989842
16	0x3f43be41	0.7646218
17	0xbea3c2e1	-0.31984618
18	0x3e170534	0.14748079
19	0xbc18f1ad	-0.009334964
20	0x3f13b504	0.5769808
21	0x3e5cc697	0.21560131
22	0x3e8d75f5	0.27629057
23	0x3eae77f5	0.34075895
24	0xbef53323	-0.47890577
25	0x3eb540d2	0.35401016
26	0xbf15302c	-0.5827663
27	0xbdcca61f	-0.099926226
28	0xbe320e7b	-0.17388336
29	0xbec7f1bb	-0.39051613
30	0xbf8fe9b9	-1.1243201
31	0x3f8c841f	1.097782
32	0x3e15151a	0.14558831
33	0xbf315a70	-0.6927862
34	0x3e4dbf47	0.20092498
35	0xbe7f5364	-0.24934155
36	0x3f0836ea	0.5320879
37	0xbf267bf8	-0.6503291
38	0xbed65371	-0.41860536
39	0xbe272e62	-0.16326287
40	0x3ed62f8a	0.41833144
41	0x3e0c8dfc	0.13726038
42	0x3e3f0e02	0.18657687
43	0x3f34d6b7	0.7064013
44	0x3f4b2dad	0.7936657
45	0x3e06ad8a	0.13152137
46	0x3e6eba21	0.2331319
47	0x3ec98142	0.39356428
48	0x3d9374e5	0.0720003
49	0x3f5f6279	0.8725963
50	0x3ed7fa50	0.4218316
51	0x3ec3570d	0.38152352
52	0x3f05f973	0.52333754
53	0xbbe21ef1	-0.006900661
54	0x3caf8035	0.021423439
55	0xbec2d6b3	-0.38054428
56	0xbda929e8	-0.08259946
57	0xbeecbfeb	-0.46240172
58	0x3d4c5e6b	0.04989473
59	0xbe27c7d8	-0.16384828
60	0x3f37a33d	0.71733457
61	0x3f29b374	0.6628945
62	0x3f4a6145	0.7905467
63	0xbf74747f	-0.9549026
64	0x3e4faab3	0.2027996
65	0x3ee59dce	0.44846958
66	0x3edc7968	0.43061376
67	0x3e8eda69	0.2790101
68	0x3e36a04f	0.1783459
69	0xbf02daab	-0.5111491
70	0xbe2efce9	-0.17088665
71	0xbcfda9d6	-0.030964773
72	0x3ea59477	0.32339832
73	0xbf2b57c3	-0.6693079
74	0xbdc84c8b	-0.097802244
75	0xbe6365e4	-0.22206837
76	0x3ea0afec	0.31384218
77	0xbf85e1ef	-1.0459574
78	0xbefe4bd8	-0.4966724
79	0xbcc933d2	-0.024560843
80	0x3f3610e6	0.71119535
81	0x3d6fb46a	0.058521666
82	0xbdfd7433	-0.12375679
83	0x3ea0dfe0	0.31420803
84	0xbe4bc8cb	-0.19900815
85	0xbf41d202	-0.7571107
86	0xbdbdfe10	-0.09276974
87	0x3d594a92	0.05304963
88	0xbf4832d9	-0.7820259
89	0xbe816589	-0.25272778
90	0x3f5d3cb8	0.86420774
91	0xbe54fd85	-0.20799835
92	0x3f174e9d	0.5910433
93	0xbecfaa20	-0.40559483
94	0xbeef48d7	-0.4673526
95	0x3e86aa48	0.2630179
96	0xbe83f4e0	-0.25772762
97	0xbf265086	-0.6496662
98	0x3e813490	0.25235415
99	0xbd7cbb47	-0.06170204
100	0x3ead12c5	0.33803383
101	0x3baddba4	0.005305724
102	0xbe9d7832	-0.30755764
103	0x3ed3e99e	0.41389173
104	0x3ee4f504	0.44718182
105	0xbe9221cb	-0.28541407
106	0x3eb32a0e	0.34993023
107	0x3f7857a7	0.97008747
108	0xbf02edb4	-0.51143956
109	0xbf065ba3	-0.52483577
110	0x398328c5	0.00025016643
111	0xbf202c79	-0.6256786
112	0x3ec6f614	0.38859618
113	0x3dcf0084	0.1010752
114	0xbe2d2905	-0.16910179
115	0x3f351fe5	0.7075179
116	0x3f345c11	0.7045298
117	0x3eb31025	0.34973255
118	0xbd8148df	-0.06312727
119	0x3ecd38ca	0.4008239
120	0x3f3b02e5	0.7305129
121	0xbe0454b0	-0.1292293
122	0x3f4c0ec2	0.7971002
123	0x3ec6fdfe	0.38865656
124	0xbf5b2f46	-0.8561901
125	0x3f82cdd0	1.0219059
126	0x3de9b1d4	0.11410871
127	0xbe629b6e	-0.22129604
128	0xbe1a630c	-0.15076846
129	0xbed982ad	-0.4248251
130	0x3ee373e7	0.44424364
131	0x3e923490	0.28555727
132	0x3f022f1a	0.5085312
133	0x3ef929f6	0.48664826
134	0xbf55e2a3	-0.83548945
135	0xbea39bcb	-0.31954798
136	0x3d85fa7c	0.06541917
137	0xbeb344bd	-0.3501338
138	0xbf24169b	-0.64096993
139	0xbeb95016	-0.36193913
140	0xbf2bb687	-0.6707539
141	0x3f81b3ca	1.0132992
142	0xbedccd7c	-0.43125522
143	0x3ea63cbe	0.32468218
144	0xbf273cc4	-0.65327096
145	0x3f840686	1.0314491
146	0x3f115d85	0.56783324
147	0x3e0d058c	0.13771647
148	0xbd81a994	-0.063311726
149	0x3e43434b	0.19068639
150	0xbebcd1e9	-0.368789
151	0x3f5832bc	0.84452415
152	0x3ed3e9e8	0.41389394
153	0xbf1a4b64	-0.60271287
154	0xbe3bef6a	-0.18353048
155	0x3f8c2c90	1.0951099
156	0x3eea7b45	0.45797172
157	0xbeb3e78f	-0.35137603
158	0x3f6ff9ce	0.93740547
159	0x3f316c78	0.69306135
160	0xbd8232ff	-0.06357383
161	0x3b70f854	0.003676911
162	0x3f008371	0.50200564
163	0x3e09d5a3	0.13460402
164	0xbe8f7c65	-0.28024593
165	0xbf15975a	-0.5843407
166	0x3ea68623	0.32524213
167	0x3cf87cfa	0.030333031
168	0xbebaeed1	-0.36510327
169	0x3ec7b1b8	0.39002776
170	0xbeab7d5d	-0.33494082
171	0xbe5892a2	-0.21149686
172	0xbf287f86	-0.65819585
173	0xbf174247	-0.59085506
174	0x3eb0971a	0.3449028
175	0xbef77a32	-0.48335415
176	0x3f10a941	0.5650826
177	0xbde809a0	-0.11329961
178	0xbefe41ca	-0.49659568
179	0xbe62d34a	-0.22150913
180	0x3e2f0999	0.17093505
181	0x3f3c2cc8	0.7350583
182	0x3cd39b72	0.025830958
183	0xbf2db8de	-0.6786021
184	0xbd92dfe1	-0.07171608
185	0xbf94c33f	-1.1622084
186	0x3d0bd18d	0.03413539
187	0xbe90e231	-0.2829757
188	0xbe292295	-0.16517098
189	0xbed55c37	-0.41671917
190	0xbf44b9c4	-0.76845956
191	0xbe0cdbc0	-0.13755703
192	0xbe7cf5c8	-0.24703133
193	0xbe35e8b7	-0.17764555
194	0x3ee8fc03	0.4550477
195	0xbea2f00e	-0.31823772
196	0x3f320e1d	0.69552785
197	0xbeb0ec63	-0.3455535
198	0xbd9610dc	-0.073274344
199	0x3ea928f3	0.33039054
200	0xbd4b3574	-0.049611524
201	0xbeb2611a	-0.34839708
202	0x3dbd8635	0.092541136
203	0x3e5c7a96	0.21531138
204	0xbe51acc5	-0.20476063
205	0xbedce4dd	-0.4314336
206	0x3f0b0d73	0.54317397
207	0x3f0c9550	0.5491533
208	0x3ef2764a	0.47355872
209	0xbe2f2ced	-0.17106982
210	0xbe8408e5	-0.25788036
211	0xbda6b61a	-0.08140202
212	0xbd6d0bc6	-0.057872556
213	0x3e1dd532	0.15413359
214	0x3e426162	0.18982461
215	0x3f48ba38	0.7840915
216	0x3ed51da0	0.41624165
217	0x3f5aba6d	0.85440713
218	0x3f3812f3	0.71903914
219	0xbe399ef3	-0.1812704
220	0x3e8163b1	0.2527137
221	0xbe87fef8	-0.26561713
222	0x3dcb0c69	0.099144764
223	0xbe592ce8	-0.21208537
224	0xbe98a190	-0.29810762
225	0x3c00ee4a	0.007869313
226	0xbea331eb	-0.31874022
227	0x3e332b58	0.17497003
228	0xbe6613f8	-0.22468555
229	0xbf7fc84e	-0.99915016
230	0xbdea3cfc	-0.11437413
231	0x3e0e6143	0.1390429
232	0x3efc9f20	0.49340153
233	0x3da5f9e6	0.08104305
234	0x3e3695a0	0.17830515
235	0x3ef21b35	0.47286382
236	0x3e7d1a18	0.24716985
237	0x3f59d350	0.8508806
238	0x3ea9c560	0.33158398
239	0xbf2f31ea	-0.6843554
240	0xbdbf9df6	-0.093563005
241	0xbe0a0d33	-0.13481598
242	0x3f4d6282	0.80228436
243	0xbec1bad9	-0.37837866
244	0xbe404d75	-0.18779548
245	0x3dd1248f	0.10212051
246	0xbe4f8bf2	-0.20268229
247	0x3e4d687e	0.20059392
248	0x3edcdeb2	0.43138653
249	0xbed301d2	-0.41212326
250	0xbf262665	-0.64902335
251	0xbee07367	-0.43838045
252	0x3e2fb170	0.17157531
253	0x3de21a53	0.11040177
254	0x3f1bb63c	0.6082494
255	0xbdc6c95a	-0.097063735

final_conv.bias f4 [9]
0	0x00000000	0.0
1	0x00000000	0.0
2	0x00000000	0.0
3	0x00000000	0.0
4	0x00000000	0.0
5	0x00000000	0.0
6	0x00000000	0.0
7	0x00000000	0.0
8	0x00000000	0.0

fusion.att_proj.weight f4 [9, 9, 1, 1]
0	0xbeb99391	-0.36245397
1	0x3e0de41b	0.13856547
2	0x3f158f8d	0.58422166
3	0x3f25d32c	0.6477535
4	0xbe4f3ee3	-0.20238833
5	0xbe237802	-0.15963748
6	0x3f48d3ec	0.7844837
7	0xbe45079a	-0.19241181
8	0xbc9c702c	-0.019096456
9	0x3e8d3fdd	0.27587786
10	0xbeee2775	-0.46514478
11	0x3ed16041	0.40893748
12	0xbf8436d4	-1.0329232
13	0xbd1c5ef3	-0.038176488
14	0x3f291bd4	0.6605809
15	0x3f6bdd66	0.921347
16	0xbeb1ee21	-0.3475199
17	0x3f370234	0.71487737
18	0x3e96b9d2	0.29438645
19	0xbf5744dd	-0.8408945
20	0x3eeccb40	0.46248817
21	0x3e2ff293	0.17182378
22	0x3f0fdccc	0.56196284
23	0xbf592131	-0.8481627
24	0xbf4cd75a	-0.800161
25	0x3f3c20d2	0.7348758
26	0xbf0ba8a1	-0.5455418
27	0xbf274076	-0.65332735
28	0xbf2e9f1b	-0.68211526
29	0x3eaccc5b	0.3374966
30	0x3e84b8d7	0.25922272
31	0xbdfd8904	-0.12379649
32	0xbf0ad7dd	-0.5423563
33	0xbf13c567	-0.5772309
34	0xbef15308	-0.4713366
35	0x3f04703a	0.51733744
36	0xbe79d0e2	-0.24396089
37	0xbe75e0fd	-0.24011607
38	0x3e8ee673	0.27910194
39	0xbefbfba1	-0.49215415
40	0xbe4830a7	-0.1954981
41	0xbeb1e64d	-0.34746018
42	0xbf0c439f	-0.5479068
43	0xbe8ece1d	-0.27891627
44	0xbe43bf8c	-0.19116038
45	0x3d1db5e6	0.03850355
46	0x3e9512ac	0.29115808
47	0x3dfa0e84	0.122098
48	0xbf1b640b	-0.6069953
49	0x3f8531dd	1.0405842
50	0x3fa2ae85	1.2709509
51	0xbf235d91	-0.63814646
52	0xbe980187	-0.29688665
53	0xbe3d263b	-0.18471615
54	0xbd7afcd2	-0.061276264
55	0xbd7035a1	-0.058644895
56	0x3e9abdb8	0.3022287
57	0x3f73af3b	0.95189255
58	0xbe971bb7	-0.29513332
59	0x3ecf2d1a	0.40464097
60	0xbed8e003	-0.42358407
61	0x3eeb0d7f	0.45908734
62	0x3e838290	0.2568555
63	0x3e317910	0.17331338
64	0xbe8acd8d	-0.27109948
65	0x3e049c29	0.12950195
66	0x3cbfa540	0.023394227
67	0x3e947c8c	0.29001272
68	0xbdcdb7c5	-0.10044817
69	0x3ca0d4e3	0.019632762
70	0xbf178074	-0.5918038
71	0xbf365921	-0.7122975
72	0xbe30cb40	-0.17265034
73	0x3f0c97fa	0.549194
74	0xbf2da2a1	-0.67826277
75	0x3dd9ee64	0.106411725
76	0x3ad18386	0.0015984632
77	0xbcb52ee9	-0.022117095
78	0xbc113046	-0.008861607
79	0xbe47ccd7	-0.19511734
80	0x3f70afc8	0.9401822
